…
I1127 22:11:03.596752 17418 net.cpp:339] The NetState phase (1) differed from the phase (0) specified by a rule in layer data
I1127 22:11:03.597651 17418 net.cpp:50] Initializing net from parameters: 
name: "GoogleNet"
state {
  phase: TEST
}
layer {
  name: "data"
  type: "Data"
  top: "data"
  top: "label"
  include {
    phase: TEST
  }
  transform_param {
    mirror: false
    crop_size: 224
    mean_value: 104
    mean_value: 117
    mean_value: 123
  }
  data_param {
    source: "./ind_test_lmdb"
    batch_size: 50
    backend: LMDB
  }
}
layer {
  name: "conv1/7x7_s2"
  type: "Convolution"
  bottom: "data"
  top: "conv1/7x7_s2"
  param {
    lr_mult: 1
    decay_mult: 1
  }
  param {
    lr_mult: 2
    decay_mult: 0
  }
  convolution_param {
    num_output: 64
    pad: 3
    kernel_size: 7
    stride: 2
    weight_filler {
      type: "xavier"
    }
    bias_filler {
      type: "constant"
      value: 0.2
    }
  }
}
layer {
  name: "conv1/relu_7x7"
  type: "ReLU"
  bottom: "conv1/7x7_s2"
  top: "conv1/7x7_s2"
}
layer {
  name: "pool1/3x3_s2"
  type: "Pooling"
  bottom: "conv1/7x7_s2"
  top: "pool1/3x3_s2"
  pooling_param {
    pool: MAX
    kernel_size: 3
    stride: 2
  }
}
layer {
  name: "pool1/norm1"
  type: "LRN"
  bottom: "pool1/3x3_s2"
  top: "pool1/norm1"
  lrn_param {
    local_size: 5
    alpha: 0.0001
    beta: 0.75
  }
}
layer {
  name: "conv2/3x3_reduce"
  type: "Convolution"
  bottom: "pool1/norm1"
  top: "conv2/3x3_reduce"
  param {
    lr_mult: 1
    decay_mult: 1
  }
  param {
    lr_mult: 2
    decay_mult: 0
  }
  convolution_param {
    num_output: 64
    kernel_size: 1
    weight_filler {
      type: "xavier"
    }
    bias_filler {
      type: "constant"
      value: 0.2
    }
  }
}
layer {
  name: "conv2/relu_3x3_reduce"
  type: "ReLU"
  bottom: "conv2/3x3_reduce"
  top: "conv2/3x3_reduce"
}
layer {
  name: "conv2/3x3"
  type: "Convolution"
  bottom: "conv2/3x3_reduce"
  top: "conv2/3x3"
  param {
    lr_mult: 1
    decay_mult: 1
  }
  param {
    lr_mult: 2
    decay_mult: 0
  }
  convolution_param {
    num_output: 192
    pad: 1
    kernel_size: 3
    weight_filler {
      type: "xavier"
    }
    bias_filler {
      type: "constant"
      value: 0.2
    }
  }
}
layer {
  name: "conv2/relu_3x3"
  type: "ReLU"
  bottom: "conv2/3x3"
  top: "conv2/3x3"
}
layer {
  name: "conv2/norm2"
  type: "LRN"
  bottom: "conv2/3x3"
  top: "conv2/norm2"
  lrn_param {
    local_size: 5
    alpha: 0.0001
    beta: 0.75
  }
}
layer {
  name: "pool2/3x3_s2"
  type: "Pooling"
  bottom: "conv2/norm2"
  top: "pool2/3x3_s2"
  pooling_param {
    pool: MAX
    kernel_size: 3
    stride: 2
  }
}
layer {
  name: "inception_3a/1x1"
  type: "Convolution"
  bottom: "pool2/3x3_s2"
  top: "inception_3a/1x1"
  param {
    lr_mult: 1
    decay_mult: 1
  }
  param {
    lr_mult: 2
    decay_mult: 0
  }
  convolution_param {
    num_output: 64
    kernel_size: 1
    weight_filler {
      type: "xavier"
    }
    bias_filler {
      type: "constant"
      value: 0.2
    }
  }
}
layer {
  name: "inception_3a/relu_1x1"
  type: "ReLU"
  bottom: "inception_3a/1x1"
  top: "inception_3a/1x1"
}
layer {
  name: "inception_3a/3x3_reduce"
  type: "Convolution"
  bottom: "pool2/3x3_s2"
  top: "inception_3a/3x3_reduce"
  param {
    lr_mult: 1
    decay_mult: 1
  }
  param {
    lr_mult: 2
    decay_mult: 0
  }
  convolution_param {
    num_output: 96
    kernel_size: 1
    weight_filler {
      type: "xavier"
    }
    bias_filler {
      type: "constant"
      value: 0.2
    }
  }
}
layer {
  name: "inception_3a/relu_3x3_reduce"
  type: "ReLU"
  bottom: "inception_3a/3x3_reduce"
  top: "inception_3a/3x3_reduce"
}
layer {
  name: "inception_3a/3x3"
  type: "Convolution"
  bottom: "inception_3a/3x3_reduce"
  top: "inception_3a/3x3"
  param {
    lr_mult: 1
    decay_mult: 1
  }
  param {
    lr_mult: 2
    decay_mult: 0
  }
  convolution_param {
    num_output: 128
    pad: 1
    kernel_size: 3
    weight_filler {
      type: "xavier"
    }
    bias_filler {
      type: "constant"
      value: 0.2
    }
  }
}
layer {
  name: "inception_3a/relu_3x3"
  type: "ReLU"
  bottom: "inception_3a/3x3"
  top: "inception_3a/3x3"
}
layer {
  name: "inception_3a/5x5_reduce"
  type: "Convolution"
  bottom: "pool2/3x3_s2"
  top: "inception_3a/5x5_reduce"
  param {
    lr_mult: 1
    decay_mult: 1
  }
  param {
    lr_mult: 2
    decay_mult: 0
  }
  convolution_param {
    num_output: 16
    kernel_size: 1
    weight_filler {
      type: "xavier"
    }
    bias_filler {
      type: "constant"
      value: 0.2
    }
  }
}
layer {
  name: "inception_3a/relu_5x5_reduce"
  type: "ReLU"
  bottom: "inception_3a/5x5_reduce"
  top: "inception_3a/5x5_reduce"
}
layer {
  name: "inception_3a/5x5"
  type: "Convolution"
  bottom: "inception_3a/5x5_reduce"
  top: "inception_3a/5x5"
  param {
    lr_mult: 1
    decay_mult: 1
  }
  param {
    lr_mult: 2
    decay_mult: 0
  }
  convolution_param {
    num_output: 32
    pad: 2
    kernel_size: 5
    weight_filler {
      type: "xavier"
    }
    bias_filler {
      type: "constant"
      value: 0.2
    }
  }
}
layer {
  name: "inception_3a/relu_5x5"
  type: "ReLU"
  bottom: "inception_3a/5x5"
  top: "inception_3a/5x5"
}
layer {
  name: "inception_3a/pool"
  type: "Pooling"
  bottom: "pool2/3x3_s2"
  top: "inception_3a/pool"
  pooling_param {
    pool: MAX
    kernel_size: 3
    stride: 1
    pad: 1
  }
}
layer {
  name: "inception_3a/pool_proj"
  type: "Convolution"
  bottom: "inception_3a/pool"
  top: "inception_3a/pool_proj"
  param {
    lr_mult: 1
    decay_mult: 1
  }
  param {
    lr_mult: 2
    decay_mult: 0
  }
  convolution_param {
    num_output: 32
    kernel_size: 1
    weight_filler {
      type: "xavier"
    }
    bias_filler {
      type: "constant"
      value: 0.2
    }
  }
}
layer {
  name: "inception_3a/relu_pool_proj"
  type: "ReLU"
  bottom: "inception_3a/pool_proj"
  top: "inception_3a/pool_proj"
}
layer {
  name: "inception_3a/output"
  type: "Concat"
  bottom: "inception_3a/1x1"
  bottom: "inception_3a/3x3"
  bottom: "inception_3a/5x5"
  bottom: "inception_3a/pool_proj"
  top: "inception_3a/output"
}
layer {
  name: "inception_3b/1x1"
  type: "Convolution"
  bottom: "inception_3a/output"
  top: "inception_3b/1x1"
  param {
    lr_mult: 1
    decay_mult: 1
  }
  param {
    lr_mult: 2
    decay_mult: 0
  }
  convolution_param {
    num_output: 128
    kernel_size: 1
    weight_filler {
      type: "xavier"
    }
    bias_filler {
      type: "constant"
      value: 0.2
    }
  }
}
layer {
  name: "inception_3b/relu_1x1"
  type: "ReLU"
  bottom: "inception_3b/1x1"
  top: "inception_3b/1x1"
}
layer {
  name: "inception_3b/3x3_reduce"
  type: "Convolution"
  bottom: "inception_3a/output"
  top: "inception_3b/3x3_reduce"
  param {
    lr_mult: 1
    decay_mult: 1
  }
  param {
    lr_mult: 2
    decay_mult: 0
  }
  convolution_param {
    num_output: 128
    kernel_size: 1
    weight_filler {
      type: "xavier"
    }
    bias_filler {
      type: "constant"
      value: 0.2
    }
  }
}
layer {
  name: "inception_3b/relu_3x3_reduce"
  type: "ReLU"
  bottom: "inception_3b/3x3_reduce"
  top: "inception_3b/3x3_reduce"
}
layer {
  name: "inception_3b/3x3"
  type: "Convolution"
  bottom: "inception_3b/3x3_reduce"
  top: "inception_3b/3x3"
  param {
    lr_mult: 1
    decay_mult: 1
  }
  param {
    lr_mult: 2
    decay_mult: 0
  }
  convolution_param {
    num_output: 192
    pad: 1
    kernel_size: 3
    weight_filler {
      type: "xavier"
    }
    bias_filler {
      type: "constant"
      value: 0.2
    }
  }
}
layer {
  name: "inception_3b/relu_3x3"
  type: "ReLU"
  bottom: "inception_3b/3x3"
  top: "inception_3b/3x3"
}
layer {
  name: "inception_3b/5x5_reduce"
  type: "Convolution"
  bottom: "inception_3a/output"
  top: "inception_3b/5x5_reduce"
  param {
    lr_mult: 1
    decay_mult: 1
  }
  param {
    lr_mult: 2
    decay_mult: 0
  }
  convolution_param {
    num_output: 32
    kernel_size: 1
    weight_filler {
      type: "xavier"
    }
    bias_filler {
      type: "constant"
      value: 0.2
    }
  }
}
layer {
  name: "inception_3b/relu_5x5_reduce"
  type: "ReLU"
  bottom: "inception_3b/5x5_reduce"
  top: "inception_3b/5x5_reduce"
}
layer {
  name: "inception_3b/5x5"
  type: "Convolution"
  bottom: "inception_3b/5x5_reduce"
  top: "inception_3b/5x5"
  param {
    lr_mult: 1
    decay_mult: 1
  }
  param {
    lr_mult: 2
    decay_mult: 0
  }
  convolution_param {
    num_output: 96
    pad: 2
    kernel_size: 5
    weight_filler {
      type: "xavier"
    }
    bias_filler {
      type: "constant"
      value: 0.2
    }
  }
}
layer {
  name: "inception_3b/relu_5x5"
  type: "ReLU"
  bottom: "inception_3b/5x5"
  top: "inception_3b/5x5"
}
layer {
  name: "inception_3b/pool"
  type: "Pooling"
  bottom: "inception_3a/output"
  top: "inception_3b/pool"
  pooling_param {
    pool: MAX
    kernel_size: 3
    stride: 1
    pad: 1
  }
}
layer {
  name: "inception_3b/pool_proj"
  type: "Convolution"
  bottom: "inception_3b/pool"
  top: "inception_3b/pool_proj"
  param {
    lr_mult: 1
    decay_mult: 1
  }
  param {
    lr_mult: 2
    decay_mult: 0
  }
  convolution_param {
    num_output: 64
    kernel_size: 1
    weight_filler {
      type: "xavier"
    }
    bias_filler {
      type: "constant"
      value: 0.2
    }
  }
}
layer {
  name: "inception_3b/relu_pool_proj"
  type: "ReLU"
  bottom: "inception_3b/pool_proj"
  top: "inception_3b/pool_proj"
}
layer {
  name: "inception_3b/output"
  type: "Concat"
  bottom: "inception_3b/1x1"
  bottom: "inception_3b/3x3"
  bottom: "inception_3b/5x5"
  bottom: "inception_3b/pool_proj"
  top: "inception_3b/output"
}
layer {
  name: "pool3/3x3_s2"
  type: "Pooling"
  bottom: "inception_3b/output"
  top: "pool3/3x3_s2"
  pooling_param {
    pool: MAX
    kernel_size: 3
    stride: 2
  }
}
layer {
  name: "inception_4a/1x1"
  type: "Convolution"
  bottom: "pool3/3x3_s2"
  top: "inception_4a/1x1"
  param {
    lr_mult: 1
    decay_mult: 1
  }
  param {
    lr_mult: 2
    decay_mult: 0
  }
  convolution_param {
    num_output: 192
    kernel_size: 1
    weight_filler {
      type: "xavier"
    }
    bias_filler {
      type: "constant"
      value: 0.2
    }
  }
}
layer {
  name: "inception_4a/relu_1x1"
  type: "ReLU"
  bottom: "inception_4a/1x1"
  top: "inception_4a/1x1"
}
layer {
  name: "inception_4a/3x3_reduce"
  type: "Convolution"
  bottom: "pool3/3x3_s2"
  top: "inception_4a/3x3_reduce"
  param {
    lr_mult: 1
    decay_mult: 1
  }
  param {
    lr_mult: 2
    decay_mult: 0
  }
  convolution_param {
    num_output: 96
    kernel_size: 1
    weight_filler {
      type: "xavier"
    }
    bias_filler {
      type: "constant"
      value: 0.2
    }
  }
}
layer {
  name: "inception_4a/relu_3x3_reduce"
  type: "ReLU"
  bottom: "inception_4a/3x3_reduce"
  top: "inception_4a/3x3_reduce"
}
layer {
  name: "inception_4a/3x3"
  type: "Convolution"
  bottom: "inception_4a/3x3_reduce"
  top: "inception_4a/3x3"
  param {
    lr_mult: 1
    decay_mult: 1
  }
  param {
    lr_mult: 2
    decay_mult: 0
  }
  convolution_param {
    num_output: 208
    pad: 1
    kernel_size: 3
    weight_filler {
      type: "xavier"
    }
    bias_filler {
      type: "constant"
      value: 0.2
    }
  }
}
layer {
  name: "inception_4a/relu_3x3"
  type: "ReLU"
  bottom: "inception_4a/3x3"
  top: "inception_4a/3x3"
}
layer {
  name: "inception_4a/5x5_reduce"
  type: "Convolution"
  bottom: "pool3/3x3_s2"
  top: "inception_4a/5x5_reduce"
  param {
    lr_mult: 1
    decay_mult: 1
  }
  param {
    lr_mult: 2
    decay_mult: 0
  }
  convolution_param {
    num_output: 16
    kernel_size: 1
    weight_filler {
      type: "xavier"
    }
    bias_filler {
      type: "constant"
      value: 0.2
    }
  }
}
layer {
  name: "inception_4a/relu_5x5_reduce"
  type: "ReLU"
  bottom: "inception_4a/5x5_reduce"
  top: "inception_4a/5x5_reduce"
}
layer {
  name: "inception_4a/5x5"
  type: "Convolution"
  bottom: "inception_4a/5x5_reduce"
  top: "inception_4a/5x5"
  param {
    lr_mult: 1
    decay_mult: 1
  }
  param {
    lr_mult: 2
    decay_mult: 0
  }
  convolution_param {
    num_output: 48
    pad: 2
    kernel_size: 5
    weight_filler {
      type: "xavier"
    }
    bias_filler {
      type: "constant"
      value: 0.2
    }
  }
}
layer {
  name: "inception_4a/relu_5x5"
  type: "ReLU"
  bottom: "inception_4a/5x5"
  top: "inception_4a/5x5"
}
layer {
  name: "inception_4a/pool"
  type: "Pooling"
  bottom: "pool3/3x3_s2"
  top: "inception_4a/pool"
  pooling_param {
    pool: MAX
    kernel_size: 3
    stride: 1
    pad: 1
  }
}
layer {
  name: "inception_4a/pool_proj"
  type: "Convolution"
  bottom: "inception_4a/pool"
  top: "inception_4a/pool_proj"
  param {
    lr_mult: 1
    decay_mult: 1
  }
  param {
    lr_mult: 2
    decay_mult: 0
  }
  convolution_param {
    num_output: 64
    kernel_size: 1
    weight_filler {
      type: "xavier"
    }
    bias_filler {
      type: "constant"
      value: 0.2
    }
  }
}
layer {
  name: "inception_4a/relu_pool_proj"
  type: "ReLU"
  bottom: "inception_4a/pool_proj"
  top: "inception_4a/pool_proj"
}
layer {
  name: "inception_4a/output"
  type: "Concat"
  bottom: "inception_4a/1x1"
  bottom: "inception_4a/3x3"
  bottom: "inception_4a/5x5"
  bottom: "inception_4a/pool_proj"
  top: "inception_4a/output"
}
layer {
  name: "loss1/ave_pool"
  type: "Pooling"
  bottom: "inception_4a/output"
  top: "loss1/ave_pool"
  pooling_param {
    pool: AVE
    kernel_size: 5
    stride: 3
  }
}
layer {
  name: "loss1/conv"
  type: "Convolution"
  bottom: "loss1/ave_pool"
  top: "loss1/conv"
  param {
    lr_mult: 1
    decay_mult: 1
  }
  param {
    lr_mult: 2
    decay_mult: 0
  }
  convolution_param {
    num_output: 128
    kernel_size: 1
    weight_filler {
      type: "xavier"
    }
    bias_filler {
      type: "constant"
      value: 0.2
    }
  }
}
layer {
  name: "loss1/relu_conv"
  type: "ReLU"
  bottom: "loss1/conv"
  top: "loss1/conv"
}
layer {
  name: "loss1/fc"
  type: "InnerProduct"
  bottom: "loss1/conv"
  top: "loss1/fc"
  param {
    lr_mult: 1
    decay_mult: 1
  }
  param {
    lr_mult: 2
    decay_mult: 0
  }
  inner_product_param {
    num_output: 1024
    weight_filler {
      type: "xavier"
    }
    bias_filler {
      type: "constant"
      value: 0.2
    }
  }
}
layer {
  name: "loss1/relu_fc"
  type: "ReLU"
  bottom: "loss1/fc"
  top: "loss1/fc"
}
layer {
  name: "loss1/drop_fc"
  type: "Dropout"
  bottom: "loss1/fc"
  top: "loss1/fc"
  dropout_param {
    dropout_ratio: 0.7
  }
}
layer {
  name: "loss1/classifier"
  type: "InnerProduct"
  bottom: "loss1/fc"
  top: "loss1/classifier"
  param {
    lr_mult: 1
    decay_mult: 1
  }
  param {
    lr_mult: 2
    decay_mult: 0
  }
  inner_product_param {
    num_output: 1000
    weight_filler {
      type: "xavier"
    }
    bias_filler {
      type: "constant"
      value: 0
    }
  }
}
layer {
  name: "loss1/loss"
  type: "SoftmaxWithLoss"
  bottom: "loss1/classifier"
  bottom: "label"
  top: "loss1/loss1"
  loss_weight: 0.3
}
layer {
  name: "loss1/top-1"
  type: "Accuracy"
  bottom: "loss1/classifier"
  bottom: "label"
  top: "loss1/top-1"
  include {
    phase: TEST
  }
}
layer {
  name: "inception_4b/1x1"
  type: "Convolution"
  bottom: "inception_4a/output"
  top: "inception_4b/1x1"
  param {
    lr_mult: 1
    decay_mult: 1
  }
  param {
    lr_mult: 2
    decay_mult: 0
  }
  convolution_param {
    num_output: 160
    kernel_size: 1
    weight_filler {
      type: "xavier"
    }
    bias_filler {
      type: "constant"
      value: 0.2
    }
  }
}
layer {
  name: "inception_4b/relu_1x1"
  type: "ReLU"
  bottom: "inception_4b/1x1"
  top: "inception_4b/1x1"
}
layer {
  name: "inception_4b/3x3_reduce"
  type: "Convolution"
  bottom: "inception_4a/output"
  top: "inception_4b/3x3_reduce"
  param {
    lr_mult: 1
    decay_mult: 1
  }
  param {
    lr_mult: 2
    decay_mult: 0
  }
  convolution_param {
    num_output: 112
    kernel_size: 1
    weight_filler {
      type: "xavier"
    }
    bias_filler {
      type: "constant"
      value: 0.2
    }
  }
}
layer {
  name: "inception_4b/relu_3x3_reduce"
  type: "ReLU"
  bottom: "inception_4b/3x3_reduce"
  top: "inception_4b/3x3_reduce"
}
layer {
  name: "inception_4b/3x3"
  type: "Convolution"
  bottom: "inception_4b/3x3_reduce"
  top: "inception_4b/3x3"
  param {
    lr_mult: 1
    decay_mult: 1
  }
  param {
    lr_mult: 2
    decay_mult: 0
  }
  convolution_param {
    num_output: 224
    pad: 1
    kernel_size: 3
    weight_filler {
      type: "xavier"
    }
    bias_filler {
      type: "constant"
      value: 0.2
    }
  }
}
layer {
  name: "inception_4b/relu_3x3"
  type: "ReLU"
  bottom: "inception_4b/3x3"
  top: "inception_4b/3x3"
}
layer {
  name: "inception_4b/5x5_reduce"
  type: "Convolution"
  bottom: "inception_4a/output"
  top: "inception_4b/5x5_reduce"
  param {
    lr_mult: 1
    decay_mult: 1
  }
  param {
    lr_mult: 2
    decay_mult: 0
  }
  convolution_param {
    num_output: 24
    kernel_size: 1
    weight_filler {
      type: "xavier"
    }
    bias_filler {
      type: "constant"
      value: 0.2
    }
  }
}
layer {
  name: "inception_4b/relu_5x5_reduce"
  type: "ReLU"
  bottom: "inception_4b/5x5_reduce"
  top: "inception_4b/5x5_reduce"
}
layer {
  name: "inception_4b/5x5"
  type: "Convolution"
  bottom: "inception_4b/5x5_reduce"
  top: "inception_4b/5x5"
  param {
    lr_mult: 1
    decay_mult: 1
  }
  param {
    lr_mult: 2
    decay_mult: 0
  }
  convolution_param {
    num_output: 64
    pad: 2
    kernel_size: 5
    weight_filler {
      type: "xavier"
    }
    bias_filler {
      type: "constant"
      value: 0.2
    }
  }
}
layer {
  name: "inception_4b/relu_5x5"
  type: "ReLU"
  bottom: "inception_4b/5x5"
  top: "inception_4b/5x5"
}
layer {
  name: "inception_4b/pool"
  type: "Pooling"
  bottom: "inception_4a/output"
  top: "inception_4b/pool"
  pooling_param {
    pool: MAX
    kernel_size: 3
    stride: 1
    pad: 1
  }
}
layer {
  name: "inception_4b/pool_proj"
  type: "Convolution"
  bottom: "inception_4b/pool"
  top: "inception_4b/pool_proj"
  param {
    lr_mult: 1
    decay_mult: 1
  }
  param {
    lr_mult: 2
    decay_mult: 0
  }
  convolution_param {
    num_output: 64
    kernel_size: 1
    weight_filler {
      type: "xavier"
    }
    bias_filler {
      type: "constant"
      value: 0.2
    }
  }
}
layer {
  name: "inception_4b/relu_pool_proj"
  type: "ReLU"
  bottom: "inception_4b/pool_proj"
  top: "inception_4b/pool_proj"
}
layer {
  name: "inception_4b/output"
  type: "Concat"
  bottom: "inception_4b/1x1"
  bottom: "inception_4b/3x3"
  bottom: "inception_4b/5x5"
  bottom: "inception_4b/pool_proj"
  top: "inception_4b/output"
}
layer {
  name: "inception_4c/1x1"
  type: "Convolution"
  bottom: "inception_4b/output"
  top: "inception_4c/1x1"
  param {
    lr_mult: 1
    decay_mult: 1
  }
  param {
    lr_mult: 2
    decay_mult: 0
  }
  convolution_param {
    num_output: 128
    kernel_size: 1
    weight_filler {
      type: "xavier"
    }
    bias_filler {
      type: "constant"
      value: 0.2
    }
  }
}
layer {
  name: "inception_4c/relu_1x1"
  type: "ReLU"
  bottom: "inception_4c/1x1"
  top: "inception_4c/1x1"
}
layer {
  name: "inception_4c/3x3_reduce"
  type: "Convolution"
  bottom: "inception_4b/output"
  top: "inception_4c/3x3_reduce"
  param {
    lr_mult: 1
    decay_mult: 1
  }
  param {
    lr_mult: 2
    decay_mult: 0
  }
  convolution_param {
    num_output: 128
    kernel_size: 1
    weight_filler {
      type: "xavier"
    }
    bias_filler {
      type: "constant"
      value: 0.2
    }
  }
}
layer {
  name: "inception_4c/relu_3x3_reduce"
  type: "ReLU"
  bottom: "inception_4c/3x3_reduce"
  top: "inception_4c/3x3_reduce"
}
layer {
  name: "inception_4c/3x3"
  type: "Convolution"
  bottom: "inception_4c/3x3_reduce"
  top: "inception_4c/3x3"
  param {
    lr_mult: 1
    decay_mult: 1
  }
  param {
    lr_mult: 2
    decay_mult: 0
  }
  convolution_param {
    num_output: 256
    pad: 1
    kernel_size: 3
    weight_filler {
      type: "xavier"
    }
    bias_filler {
      type: "constant"
      value: 0.2
    }
  }
}
layer {
  name: "inception_4c/relu_3x3"
  type: "ReLU"
  bottom: "inception_4c/3x3"
  top: "inception_4c/3x3"
}
layer {
  name: "inception_4c/5x5_reduce"
  type: "Convolution"
  bottom: "inception_4b/output"
  top: "inception_4c/5x5_reduce"
  param {
    lr_mult: 1
    decay_mult: 1
  }
  param {
    lr_mult: 2
    decay_mult: 0
  }
  convolution_param {
    num_output: 24
    kernel_size: 1
    weight_filler {
      type: "xavier"
    }
    bias_filler {
      type: "constant"
      value: 0.2
    }
  }
}
layer {
  name: "inception_4c/relu_5x5_reduce"
  type: "ReLU"
  bottom: "inception_4c/5x5_reduce"
  top: "inception_4c/5x5_reduce"
}
layer {
  name: "inception_4c/5x5"
  type: "Convolution"
  bottom: "inception_4c/5x5_reduce"
  top: "inception_4c/5x5"
  param {
    lr_mult: 1
    decay_mult: 1
  }
  param {
    lr_mult: 2
    decay_mult: 0
  }
  convolution_param {
    num_output: 64
    pad: 2
    kernel_size: 5
    weight_filler {
      type: "xavier"
    }
    bias_filler {
      type: "constant"
      value: 0.2
    }
  }
}
layer {
  name: "inception_4c/relu_5x5"
  type: "ReLU"
  bottom: "inception_4c/5x5"
  top: "inception_4c/5x5"
}
layer {
  name: "inception_4c/pool"
  type: "Pooling"
  bottom: "inception_4b/output"
  top: "inception_4c/pool"
  pooling_param {
    pool: MAX
    kernel_size: 3
    stride: 1
    pad: 1
  }
}
layer {
  name: "inception_4c/pool_proj"
  type: "Convolution"
  bottom: "inception_4c/pool"
  top: "inception_4c/pool_proj"
  param {
    lr_mult: 1
    decay_mult: 1
  }
  param {
    lr_mult: 2
    decay_mult: 0
  }
  convolution_param {
    num_output: 64
    kernel_size: 1
    weight_filler {
      type: "xavier"
    }
    bias_filler {
      type: "constant"
      value: 0.2
    }
  }
}
layer {
  name: "inception_4c/relu_pool_proj"
  type: "ReLU"
  bottom: "inception_4c/pool_proj"
  top: "inception_4c/pool_proj"
}
layer {
  name: "inception_4c/output"
  type: "Concat"
  bottom: "inception_4c/1x1"
  bottom: "inception_4c/3x3"
  bottom: "inception_4c/5x5"
  bottom: "inception_4c/pool_proj"
  top: "inception_4c/output"
}
layer {
  name: "inception_4d/1x1"
  type: "Convolution"
  bottom: "inception_4c/output"
  top: "inception_4d/1x1"
  param {
    lr_mult: 1
    decay_mult: 1
  }
  param {
    lr_mult: 2
    decay_mult: 0
  }
  convolution_param {
    num_output: 112
    kernel_size: 1
    weight_filler {
      type: "xavier"
    }
    bias_filler {
      type: "constant"
      value: 0.2
    }
  }
}
layer {
  name: "inception_4d/relu_1x1"
  type: "ReLU"
  bottom: "inception_4d/1x1"
  top: "inception_4d/1x1"
}
layer {
  name: "inception_4d/3x3_reduce"
  type: "Convolution"
  bottom: "inception_4c/output"
  top: "inception_4d/3x3_reduce"
  param {
    lr_mult: 1
    decay_mult: 1
  }
  param {
    lr_mult: 2
    decay_mult: 0
  }
  convolution_param {
    num_output: 144
    kernel_size: 1
    weight_filler {
      type: "xavier"
    }
    bias_filler {
      type: "constant"
      value: 0.2
    }
  }
}
layer {
  name: "inception_4d/relu_3x3_reduce"
  type: "ReLU"
  bottom: "inception_4d/3x3_reduce"
  top: "inception_4d/3x3_reduce"
}
layer {
  name: "inception_4d/3x3"
  type: "Convolution"
  bottom: "inception_4d/3x3_reduce"
  top: "inception_4d/3x3"
  param {
    lr_mult: 1
    decay_mult: 1
  }
  param {
    lr_mult: 2
    decay_mult: 0
  }
  convolution_param {
    num_output: 288
    pad: 1
    kernel_size: 3
    weight_filler {
      type: "xavier"
    }
    bias_filler {
      type: "constant"
      value: 0.2
    }
  }
}
layer {
  name: "inception_4d/relu_3x3"
  type: "ReLU"
  bottom: "inception_4d/3x3"
  top: "inception_4d/3x3"
}
layer {
  name: "inception_4d/5x5_reduce"
  type: "Convolution"
  bottom: "inception_4c/output"
  top: "inception_4d/5x5_reduce"
  param {
    lr_mult: 1
    decay_mult: 1
  }
  param {
    lr_mult: 2
    decay_mult: 0
  }
  convolution_param {
    num_output: 32
    kernel_size: 1
    weight_filler {
      type: "xavier"
    }
    bias_filler {
      type: "constant"
      value: 0.2
    }
  }
}
layer {
  name: "inception_4d/relu_5x5_reduce"
  type: "ReLU"
  bottom: "inception_4d/5x5_reduce"
  top: "inception_4d/5x5_reduce"
}
layer {
  name: "inception_4d/5x5"
  type: "Convolution"
  bottom: "inception_4d/5x5_reduce"
  top: "inception_4d/5x5"
  param {
    lr_mult: 1
    decay_mult: 1
  }
  param {
    lr_mult: 2
    decay_mult: 0
  }
  convolution_param {
    num_output: 64
    pad: 2
    kernel_size: 5
    weight_filler {
      type: "xavier"
    }
    bias_filler {
      type: "constant"
      value: 0.2
    }
  }
}
layer {
  name: "inception_4d/relu_5x5"
  type: "ReLU"
  bottom: "inception_4d/5x5"
  top: "inception_4d/5x5"
}
layer {
  name: "inception_4d/pool"
  type: "Pooling"
  bottom: "inception_4c/output"
  top: "inception_4d/pool"
  pooling_param {
    pool: MAX
    kernel_size: 3
    stride: 1
    pad: 1
  }
}
layer {
  name: "inception_4d/pool_proj"
  type: "Convolution"
  bottom: "inception_4d/pool"
  top: "inception_4d/pool_proj"
  param {
    lr_mult: 1
    decay_mult: 1
  }
  param {
    lr_mult: 2
    decay_mult: 0
  }
  convolution_param {
    num_output: 64
    kernel_size: 1
    weight_filler {
      type: "xavier"
    }
    bias_filler {
      type: "constant"
      value: 0.2
    }
  }
}
layer {
  name: "inception_4d/relu_pool_proj"
  type: "ReLU"
  bottom: "inception_4d/pool_proj"
  top: "inception_4d/pool_proj"
}
layer {
  name: "inception_4d/output"
  type: "Concat"
  bottom: "inception_4d/1x1"
  bottom: "inception_4d/3x3"
  bottom: "inception_4d/5x5"
  bottom: "inception_4d/pool_proj"
  top: "inception_4d/output"
}
layer {
  name: "loss2/ave_pool"
  type: "Pooling"
  bottom: "inception_4d/output"
  top: "loss2/ave_pool"
  pooling_param {
    pool: AVE
    kernel_size: 5
    stride: 3
  }
}
layer {
  name: "loss2/conv"
  type: "Convolution"
  bottom: "loss2/ave_pool"
  top: "loss2/conv"
  param {
    lr_mult: 1
    decay_mult: 1
  }
  param {
    lr_mult: 2
    decay_mult: 0
  }
  convolution_param {
    num_output: 128
    kernel_size: 1
    weight_filler {
      type: "xavier"
    }
    bias_filler {
      type: "constant"
      value: 0.2
    }
  }
}
layer {
  name: "loss2/relu_conv"
  type: "ReLU"
  bottom: "loss2/conv"
  top: "loss2/conv"
}
layer {
  name: "loss2/fc"
  type: "InnerProduct"
  bottom: "loss2/conv"
  top: "loss2/fc"
  param {
    lr_mult: 1
    decay_mult: 1
  }
  param {
    lr_mult: 2
    decay_mult: 0
  }
  inner_product_param {
    num_output: 1024
    weight_filler {
      type: "xavier"
    }
    bias_filler {
      type: "constant"
      value: 0.2
    }
  }
}
layer {
  name: "loss2/relu_fc"
  type: "ReLU"
  bottom: "loss2/fc"
  top: "loss2/fc"
}
layer {
  name: "loss2/drop_fc"
  type: "Dropout"
  bottom: "loss2/fc"
  top: "loss2/fc"
  dropout_param {
    dropout_ratio: 0.7
  }
}
layer {
  name: "loss2/classifier"
  type: "InnerProduct"
  bottom: "loss2/fc"
  top: "loss2/classifier"
  param {
    lr_mult: 1
    decay_mult: 1
  }
  param {
    lr_mult: 2
    decay_mult: 0
  }
  inner_product_param {
    num_output: 1000
    weight_filler {
      type: "xavier"
    }
    bias_filler {
      type: "constant"
      value: 0
    }
  }
}
layer {
  name: "loss2/loss"
  type: "SoftmaxWithLoss"
  bottom: "loss2/classifier"
  bottom: "label"
  top: "loss2/loss1"
  loss_weight: 0.3
}
layer {
  name: "loss2/top-1"
  type: "Accuracy"
  bottom: "loss2/classifier"
  bottom: "label"
  top: "loss2/top-1"
  include {
    phase: TEST
  }
}
layer {
  name: "inception_4e/1x1"
  type: "Convolution"
  bottom: "inception_4d/output"
  top: "inception_4e/1x1"
  param {
    lr_mult: 1
    decay_mult: 1
  }
  param {
    lr_mult: 2
    decay_mult: 0
  }
  convolution_param {
    num_output: 256
    kernel_size: 1
    weight_filler {
      type: "xavier"
    }
    bias_filler {
      type: "constant"
      value: 0.2
    }
  }
}
layer {
  name: "inception_4e/relu_1x1"
  type: "ReLU"
  bottom: "inception_4e/1x1"
  top: "inception_4e/1x1"
}
layer {
  name: "inception_4e/3x3_reduce"
  type: "Convolution"
  bottom: "inception_4d/output"
  top: "inception_4e/3x3_reduce"
  param {
    lr_mult: 1
    decay_mult: 1
  }
  param {
    lr_mult: 2
    decay_mult: 0
  }
  convolution_param {
    num_output: 160
    kernel_size: 1
    weight_filler {
      type: "xavier"
    }
    bias_filler {
      type: "constant"
      value: 0.2
    }
  }
}
layer {
  name: "inception_4e/relu_3x3_reduce"
  type: "ReLU"
  bottom: "inception_4e/3x3_reduce"
  top: "inception_4e/3x3_reduce"
}
layer {
  name: "inception_4e/3x3"
  type: "Convolution"
  bottom: "inception_4e/3x3_reduce"
  top: "inception_4e/3x3"
  param {
    lr_mult: 1
    decay_mult: 1
  }
  param {
    lr_mult: 2
    decay_mult: 0
  }
  convolution_param {
    num_output: 320
    pad: 1
    kernel_size: 3
    weight_filler {
      type: "xavier"
    }
    bias_filler {
      type: "constant"
      value: 0.2
    }
  }
}
layer {
  name: "inception_4e/relu_3x3"
  type: "ReLU"
  bottom: "inception_4e/3x3"
  top: "inception_4e/3x3"
}
layer {
  name: "inception_4e/5x5_reduce"
  type: "Convolution"
  bottom: "inception_4d/output"
  top: "inception_4e/5x5_reduce"
  param {
    lr_mult: 1
    decay_mult: 1
  }
  param {
    lr_mult: 2
    decay_mult: 0
  }
  convolution_param {
    num_output: 32
    kernel_size: 1
    weight_filler {
      type: "xavier"
    }
    bias_filler {
      type: "constant"
      value: 0.2
    }
  }
}
layer {
  name: "inception_4e/relu_5x5_reduce"
  type: "ReLU"
  bottom: "inception_4e/5x5_reduce"
  top: "inception_4e/5x5_reduce"
}
layer {
  name: "inception_4e/5x5"
  type: "Convolution"
  bottom: "inception_4e/5x5_reduce"
  top: "inception_4e/5x5"
  param {
    lr_mult: 1
    decay_mult: 1
  }
  param {
    lr_mult: 2
    decay_mult: 0
  }
  convolution_param {
    num_output: 128
    pad: 2
    kernel_size: 5
    weight_filler {
      type: "xavier"
    }
    bias_filler {
      type: "constant"
      value: 0.2
    }
  }
}
layer {
  n
I1127 22:11:03.598325 17418 layer_factory.hpp:76] Creating layer data
I1127 22:11:03.598804 17418 net.cpp:110] Creating Layer data
I1127 22:11:03.598814 17418 net.cpp:433] data -> data
I1127 22:11:03.598865 17418 net.cpp:433] data -> label
I1127 22:11:03.599664 17424 db_lmdb.cpp:23] Opened lmdb ./ind_test_lmdb
I1127 22:11:03.605693 17418 data_layer.cpp:45] output data size: 50,3,224,224
I1127 22:11:03.663430 17418 net.cpp:155] Setting up data
I1127 22:11:03.663465 17418 net.cpp:163] Top shape: 50 3 224 224 (7526400)
I1127 22:11:03.663472 17418 net.cpp:163] Top shape: 50 (50)
I1127 22:11:03.663482 17418 layer_factory.hpp:76] Creating layer label_data_1_split
I1127 22:11:03.663497 17418 net.cpp:110] Creating Layer label_data_1_split
I1127 22:11:03.663502 17418 net.cpp:477] label_data_1_split <- label
I1127 22:11:03.663516 17418 net.cpp:433] label_data_1_split -> label_data_1_split_0
I1127 22:11:03.663530 17418 net.cpp:433] label_data_1_split -> label_data_1_split_1
I1127 22:11:03.663538 17418 net.cpp:433] label_data_1_split -> label_data_1_split_2
I1127 22:11:03.663547 17418 net.cpp:433] label_data_1_split -> label_data_1_split_3
I1127 22:11:03.663552 17418 net.cpp:433] label_data_1_split -> label_data_1_split_4
I1127 22:11:03.663558 17418 net.cpp:433] label_data_1_split -> label_data_1_split_5
I1127 22:11:03.663566 17418 net.cpp:433] label_data_1_split -> label_data_1_split_6
I1127 22:11:03.663650 17418 net.cpp:155] Setting up label_data_1_split
I1127 22:11:03.663657 17418 net.cpp:163] Top shape: 50 (50)
I1127 22:11:03.663661 17418 net.cpp:163] Top shape: 50 (50)
I1127 22:11:03.663666 17418 net.cpp:163] Top shape: 50 (50)
I1127 22:11:03.663669 17418 net.cpp:163] Top shape: 50 (50)
I1127 22:11:03.663672 17418 net.cpp:163] Top shape: 50 (50)
I1127 22:11:03.663676 17418 net.cpp:163] Top shape: 50 (50)
I1127 22:11:03.663681 17418 net.cpp:163] Top shape: 50 (50)
I1127 22:11:03.663684 17418 layer_factory.hpp:76] Creating layer conv1/7x7_s2
I1127 22:11:03.663697 17418 net.cpp:110] Creating Layer conv1/7x7_s2
I1127 22:11:03.663702 17418 net.cpp:477] conv1/7x7_s2 <- data
I1127 22:11:03.663707 17418 net.cpp:433] conv1/7x7_s2 -> conv1/7x7_s2
I1127 22:11:03.664340 17418 net.cpp:155] Setting up conv1/7x7_s2
I1127 22:11:03.664351 17418 net.cpp:163] Top shape: 50 64 112 112 (40140800)
I1127 22:11:03.664368 17418 layer_factory.hpp:76] Creating layer conv1/relu_7x7
I1127 22:11:03.664376 17418 net.cpp:110] Creating Layer conv1/relu_7x7
I1127 22:11:03.664379 17418 net.cpp:477] conv1/relu_7x7 <- conv1/7x7_s2
I1127 22:11:03.664384 17418 net.cpp:419] conv1/relu_7x7 -> conv1/7x7_s2 (in-place)
I1127 22:11:03.664392 17418 net.cpp:155] Setting up conv1/relu_7x7
I1127 22:11:03.664397 17418 net.cpp:163] Top shape: 50 64 112 112 (40140800)
I1127 22:11:03.664400 17418 layer_factory.hpp:76] Creating layer pool1/3x3_s2
I1127 22:11:03.664409 17418 net.cpp:110] Creating Layer pool1/3x3_s2
I1127 22:11:03.664414 17418 net.cpp:477] pool1/3x3_s2 <- conv1/7x7_s2
I1127 22:11:03.664419 17418 net.cpp:433] pool1/3x3_s2 -> pool1/3x3_s2
I1127 22:11:03.664624 17418 net.cpp:155] Setting up pool1/3x3_s2
I1127 22:11:03.664633 17418 net.cpp:163] Top shape: 50 64 56 56 (10035200)
I1127 22:11:03.664636 17418 layer_factory.hpp:76] Creating layer pool1/norm1
I1127 22:11:03.664649 17418 net.cpp:110] Creating Layer pool1/norm1
I1127 22:11:03.664654 17418 net.cpp:477] pool1/norm1 <- pool1/3x3_s2
I1127 22:11:03.664659 17418 net.cpp:433] pool1/norm1 -> pool1/norm1
I1127 22:11:03.673909 17418 net.cpp:155] Setting up pool1/norm1
I1127 22:11:03.673925 17418 net.cpp:163] Top shape: 50 64 56 56 (10035200)
I1127 22:11:03.673930 17418 layer_factory.hpp:76] Creating layer conv2/3x3_reduce
I1127 22:11:03.673940 17418 net.cpp:110] Creating Layer conv2/3x3_reduce
I1127 22:11:03.673944 17418 net.cpp:477] conv2/3x3_reduce <- pool1/norm1
I1127 22:11:03.673954 17418 net.cpp:433] conv2/3x3_reduce -> conv2/3x3_reduce
I1127 22:11:03.674496 17418 net.cpp:155] Setting up conv2/3x3_reduce
I1127 22:11:03.674509 17418 net.cpp:163] Top shape: 50 64 56 56 (10035200)
I1127 22:11:03.674518 17418 layer_factory.hpp:76] Creating layer conv2/relu_3x3_reduce
I1127 22:11:03.674525 17418 net.cpp:110] Creating Layer conv2/relu_3x3_reduce
I1127 22:11:03.674527 17418 net.cpp:477] conv2/relu_3x3_reduce <- conv2/3x3_reduce
I1127 22:11:03.674532 17418 net.cpp:419] conv2/relu_3x3_reduce -> conv2/3x3_reduce (in-place)
I1127 22:11:03.674538 17418 net.cpp:155] Setting up conv2/relu_3x3_reduce
I1127 22:11:03.674543 17418 net.cpp:163] Top shape: 50 64 56 56 (10035200)
I1127 22:11:03.674546 17418 layer_factory.hpp:76] Creating layer conv2/3x3
I1127 22:11:03.674559 17418 net.cpp:110] Creating Layer conv2/3x3
I1127 22:11:03.674563 17418 net.cpp:477] conv2/3x3 <- conv2/3x3_reduce
I1127 22:11:03.674571 17418 net.cpp:433] conv2/3x3 -> conv2/3x3
I1127 22:11:03.675693 17418 net.cpp:155] Setting up conv2/3x3
I1127 22:11:03.675704 17418 net.cpp:163] Top shape: 50 192 56 56 (30105600)
I1127 22:11:03.675714 17418 layer_factory.hpp:76] Creating layer conv2/relu_3x3
I1127 22:11:03.675719 17418 net.cpp:110] Creating Layer conv2/relu_3x3
I1127 22:11:03.675722 17418 net.cpp:477] conv2/relu_3x3 <- conv2/3x3
I1127 22:11:03.675727 17418 net.cpp:419] conv2/relu_3x3 -> conv2/3x3 (in-place)
I1127 22:11:03.675734 17418 net.cpp:155] Setting up conv2/relu_3x3
I1127 22:11:03.675739 17418 net.cpp:163] Top shape: 50 192 56 56 (30105600)
I1127 22:11:03.675741 17418 layer_factory.hpp:76] Creating layer conv2/norm2
I1127 22:11:03.675748 17418 net.cpp:110] Creating Layer conv2/norm2
I1127 22:11:03.675753 17418 net.cpp:477] conv2/norm2 <- conv2/3x3
I1127 22:11:03.675760 17418 net.cpp:433] conv2/norm2 -> conv2/norm2
I1127 22:11:03.675789 17418 net.cpp:155] Setting up conv2/norm2
I1127 22:11:03.675797 17418 net.cpp:163] Top shape: 50 192 56 56 (30105600)
I1127 22:11:03.675801 17418 layer_factory.hpp:76] Creating layer pool2/3x3_s2
I1127 22:11:03.675808 17418 net.cpp:110] Creating Layer pool2/3x3_s2
I1127 22:11:03.675812 17418 net.cpp:477] pool2/3x3_s2 <- conv2/norm2
I1127 22:11:03.675817 17418 net.cpp:433] pool2/3x3_s2 -> pool2/3x3_s2
I1127 22:11:03.675849 17418 net.cpp:155] Setting up pool2/3x3_s2
I1127 22:11:03.675856 17418 net.cpp:163] Top shape: 50 192 28 28 (7526400)
I1127 22:11:03.675859 17418 layer_factory.hpp:76] Creating layer pool2/3x3_s2_pool2/3x3_s2_0_split
I1127 22:11:03.675866 17418 net.cpp:110] Creating Layer pool2/3x3_s2_pool2/3x3_s2_0_split
I1127 22:11:03.675870 17418 net.cpp:477] pool2/3x3_s2_pool2/3x3_s2_0_split <- pool2/3x3_s2
I1127 22:11:03.675876 17418 net.cpp:433] pool2/3x3_s2_pool2/3x3_s2_0_split -> pool2/3x3_s2_pool2/3x3_s2_0_split_0
I1127 22:11:03.675885 17418 net.cpp:433] pool2/3x3_s2_pool2/3x3_s2_0_split -> pool2/3x3_s2_pool2/3x3_s2_0_split_1
I1127 22:11:03.675892 17418 net.cpp:433] pool2/3x3_s2_pool2/3x3_s2_0_split -> pool2/3x3_s2_pool2/3x3_s2_0_split_2
I1127 22:11:03.675899 17418 net.cpp:433] pool2/3x3_s2_pool2/3x3_s2_0_split -> pool2/3x3_s2_pool2/3x3_s2_0_split_3
I1127 22:11:03.675942 17418 net.cpp:155] Setting up pool2/3x3_s2_pool2/3x3_s2_0_split
I1127 22:11:03.675951 17418 net.cpp:163] Top shape: 50 192 28 28 (7526400)
I1127 22:11:03.675954 17418 net.cpp:163] Top shape: 50 192 28 28 (7526400)
I1127 22:11:03.675958 17418 net.cpp:163] Top shape: 50 192 28 28 (7526400)
I1127 22:11:03.675962 17418 net.cpp:163] Top shape: 50 192 28 28 (7526400)
I1127 22:11:03.675967 17418 layer_factory.hpp:76] Creating layer inception_3a/1x1
I1127 22:11:03.675976 17418 net.cpp:110] Creating Layer inception_3a/1x1
I1127 22:11:03.675981 17418 net.cpp:477] inception_3a/1x1 <- pool2/3x3_s2_pool2/3x3_s2_0_split_0
I1127 22:11:03.675986 17418 net.cpp:433] inception_3a/1x1 -> inception_3a/1x1
I1127 22:11:03.676561 17418 net.cpp:155] Setting up inception_3a/1x1
I1127 22:11:03.676571 17418 net.cpp:163] Top shape: 50 64 28 28 (2508800)
I1127 22:11:03.676578 17418 layer_factory.hpp:76] Creating layer inception_3a/relu_1x1
I1127 22:11:03.676587 17418 net.cpp:110] Creating Layer inception_3a/relu_1x1
I1127 22:11:03.676591 17418 net.cpp:477] inception_3a/relu_1x1 <- inception_3a/1x1
I1127 22:11:03.676596 17418 net.cpp:419] inception_3a/relu_1x1 -> inception_3a/1x1 (in-place)
I1127 22:11:03.676604 17418 net.cpp:155] Setting up inception_3a/relu_1x1
I1127 22:11:03.676609 17418 net.cpp:163] Top shape: 50 64 28 28 (2508800)
I1127 22:11:03.676611 17418 layer_factory.hpp:76] Creating layer inception_3a/3x3_reduce
I1127 22:11:03.676622 17418 net.cpp:110] Creating Layer inception_3a/3x3_reduce
I1127 22:11:03.676625 17418 net.cpp:477] inception_3a/3x3_reduce <- pool2/3x3_s2_pool2/3x3_s2_0_split_1
I1127 22:11:03.676631 17418 net.cpp:433] inception_3a/3x3_reduce -> inception_3a/3x3_reduce
I1127 22:11:03.677228 17418 net.cpp:155] Setting up inception_3a/3x3_reduce
I1127 22:11:03.677239 17418 net.cpp:163] Top shape: 50 96 28 28 (3763200)
I1127 22:11:03.677249 17418 layer_factory.hpp:76] Creating layer inception_3a/relu_3x3_reduce
I1127 22:11:03.677258 17418 net.cpp:110] Creating Layer inception_3a/relu_3x3_reduce
I1127 22:11:03.677261 17418 net.cpp:477] inception_3a/relu_3x3_reduce <- inception_3a/3x3_reduce
I1127 22:11:03.677266 17418 net.cpp:419] inception_3a/relu_3x3_reduce -> inception_3a/3x3_reduce (in-place)
I1127 22:11:03.677273 17418 net.cpp:155] Setting up inception_3a/relu_3x3_reduce
I1127 22:11:03.677276 17418 net.cpp:163] Top shape: 50 96 28 28 (3763200)
I1127 22:11:03.677283 17418 layer_factory.hpp:76] Creating layer inception_3a/3x3
I1127 22:11:03.677289 17418 net.cpp:110] Creating Layer inception_3a/3x3
I1127 22:11:03.677294 17418 net.cpp:477] inception_3a/3x3 <- inception_3a/3x3_reduce
I1127 22:11:03.677300 17418 net.cpp:433] inception_3a/3x3 -> inception_3a/3x3
I1127 22:11:03.678112 17418 net.cpp:155] Setting up inception_3a/3x3
I1127 22:11:03.678122 17418 net.cpp:163] Top shape: 50 128 28 28 (5017600)
I1127 22:11:03.678128 17418 layer_factory.hpp:76] Creating layer inception_3a/relu_3x3
I1127 22:11:03.678134 17418 net.cpp:110] Creating Layer inception_3a/relu_3x3
I1127 22:11:03.678139 17418 net.cpp:477] inception_3a/relu_3x3 <- inception_3a/3x3
I1127 22:11:03.678148 17418 net.cpp:419] inception_3a/relu_3x3 -> inception_3a/3x3 (in-place)
I1127 22:11:03.678153 17418 net.cpp:155] Setting up inception_3a/relu_3x3
I1127 22:11:03.678158 17418 net.cpp:163] Top shape: 50 128 28 28 (5017600)
I1127 22:11:03.678163 17418 layer_factory.hpp:76] Creating layer inception_3a/5x5_reduce
I1127 22:11:03.678169 17418 net.cpp:110] Creating Layer inception_3a/5x5_reduce
I1127 22:11:03.678174 17418 net.cpp:477] inception_3a/5x5_reduce <- pool2/3x3_s2_pool2/3x3_s2_0_split_2
I1127 22:11:03.678179 17418 net.cpp:433] inception_3a/5x5_reduce -> inception_3a/5x5_reduce
I1127 22:11:03.678352 17418 net.cpp:155] Setting up inception_3a/5x5_reduce
I1127 22:11:03.678361 17418 net.cpp:163] Top shape: 50 16 28 28 (627200)
I1127 22:11:03.678367 17418 layer_factory.hpp:76] Creating layer inception_3a/relu_5x5_reduce
I1127 22:11:03.678374 17418 net.cpp:110] Creating Layer inception_3a/relu_5x5_reduce
I1127 22:11:03.678377 17418 net.cpp:477] inception_3a/relu_5x5_reduce <- inception_3a/5x5_reduce
I1127 22:11:03.678382 17418 net.cpp:419] inception_3a/relu_5x5_reduce -> inception_3a/5x5_reduce (in-place)
I1127 22:11:03.678390 17418 net.cpp:155] Setting up inception_3a/relu_5x5_reduce
I1127 22:11:03.678395 17418 net.cpp:163] Top shape: 50 16 28 28 (627200)
I1127 22:11:03.678398 17418 layer_factory.hpp:76] Creating layer inception_3a/5x5
I1127 22:11:03.678407 17418 net.cpp:110] Creating Layer inception_3a/5x5
I1127 22:11:03.678411 17418 net.cpp:477] inception_3a/5x5 <- inception_3a/5x5_reduce
I1127 22:11:03.678417 17418 net.cpp:433] inception_3a/5x5 -> inception_3a/5x5
I1127 22:11:03.678643 17418 net.cpp:155] Setting up inception_3a/5x5
I1127 22:11:03.678653 17418 net.cpp:163] Top shape: 50 32 28 28 (1254400)
I1127 22:11:03.678658 17418 layer_factory.hpp:76] Creating layer inception_3a/relu_5x5
I1127 22:11:03.678665 17418 net.cpp:110] Creating Layer inception_3a/relu_5x5
I1127 22:11:03.678668 17418 net.cpp:477] inception_3a/relu_5x5 <- inception_3a/5x5
I1127 22:11:03.678673 17418 net.cpp:419] inception_3a/relu_5x5 -> inception_3a/5x5 (in-place)
I1127 22:11:03.678678 17418 net.cpp:155] Setting up inception_3a/relu_5x5
I1127 22:11:03.678683 17418 net.cpp:163] Top shape: 50 32 28 28 (1254400)
I1127 22:11:03.678686 17418 layer_factory.hpp:76] Creating layer inception_3a/pool
I1127 22:11:03.678719 17418 net.cpp:110] Creating Layer inception_3a/pool
I1127 22:11:03.678730 17418 net.cpp:477] inception_3a/pool <- pool2/3x3_s2_pool2/3x3_s2_0_split_3
I1127 22:11:03.678737 17418 net.cpp:433] inception_3a/pool -> inception_3a/pool
I1127 22:11:03.678769 17418 net.cpp:155] Setting up inception_3a/pool
I1127 22:11:03.678777 17418 net.cpp:163] Top shape: 50 192 28 28 (7526400)
I1127 22:11:03.678781 17418 layer_factory.hpp:76] Creating layer inception_3a/pool_proj
I1127 22:11:03.678791 17418 net.cpp:110] Creating Layer inception_3a/pool_proj
I1127 22:11:03.678796 17418 net.cpp:477] inception_3a/pool_proj <- inception_3a/pool
I1127 22:11:03.678803 17418 net.cpp:433] inception_3a/pool_proj -> inception_3a/pool_proj
I1127 22:11:03.678990 17418 net.cpp:155] Setting up inception_3a/pool_proj
I1127 22:11:03.678999 17418 net.cpp:163] Top shape: 50 32 28 28 (1254400)
I1127 22:11:03.679008 17418 layer_factory.hpp:76] Creating layer inception_3a/relu_pool_proj
I1127 22:11:03.679013 17418 net.cpp:110] Creating Layer inception_3a/relu_pool_proj
I1127 22:11:03.679016 17418 net.cpp:477] inception_3a/relu_pool_proj <- inception_3a/pool_proj
I1127 22:11:03.679021 17418 net.cpp:419] inception_3a/relu_pool_proj -> inception_3a/pool_proj (in-place)
I1127 22:11:03.679028 17418 net.cpp:155] Setting up inception_3a/relu_pool_proj
I1127 22:11:03.679031 17418 net.cpp:163] Top shape: 50 32 28 28 (1254400)
I1127 22:11:03.679034 17418 layer_factory.hpp:76] Creating layer inception_3a/output
I1127 22:11:03.679044 17418 net.cpp:110] Creating Layer inception_3a/output
I1127 22:11:03.679046 17418 net.cpp:477] inception_3a/output <- inception_3a/1x1
I1127 22:11:03.679052 17418 net.cpp:477] inception_3a/output <- inception_3a/3x3
I1127 22:11:03.679055 17418 net.cpp:477] inception_3a/output <- inception_3a/5x5
I1127 22:11:03.679059 17418 net.cpp:477] inception_3a/output <- inception_3a/pool_proj
I1127 22:11:03.679064 17418 net.cpp:433] inception_3a/output -> inception_3a/output
I1127 22:11:03.679088 17418 net.cpp:155] Setting up inception_3a/output
I1127 22:11:03.679096 17418 net.cpp:163] Top shape: 50 256 28 28 (10035200)
I1127 22:11:03.679100 17418 layer_factory.hpp:76] Creating layer inception_3a/output_inception_3a/output_0_split
I1127 22:11:03.679105 17418 net.cpp:110] Creating Layer inception_3a/output_inception_3a/output_0_split
I1127 22:11:03.679108 17418 net.cpp:477] inception_3a/output_inception_3a/output_0_split <- inception_3a/output
I1127 22:11:03.679116 17418 net.cpp:433] inception_3a/output_inception_3a/output_0_split -> inception_3a/output_inception_3a/output_0_split_0
I1127 22:11:03.679121 17418 net.cpp:433] inception_3a/output_inception_3a/output_0_split -> inception_3a/output_inception_3a/output_0_split_1
I1127 22:11:03.679127 17418 net.cpp:433] inception_3a/output_inception_3a/output_0_split -> inception_3a/output_inception_3a/output_0_split_2
I1127 22:11:03.679132 17418 net.cpp:433] inception_3a/output_inception_3a/output_0_split -> inception_3a/output_inception_3a/output_0_split_3
I1127 22:11:03.679177 17418 net.cpp:155] Setting up inception_3a/output_inception_3a/output_0_split
I1127 22:11:03.679183 17418 net.cpp:163] Top shape: 50 256 28 28 (10035200)
I1127 22:11:03.679188 17418 net.cpp:163] Top shape: 50 256 28 28 (10035200)
I1127 22:11:03.679191 17418 net.cpp:163] Top shape: 50 256 28 28 (10035200)
I1127 22:11:03.679194 17418 net.cpp:163] Top shape: 50 256 28 28 (10035200)
I1127 22:11:03.679198 17418 layer_factory.hpp:76] Creating layer inception_3b/1x1
I1127 22:11:03.679206 17418 net.cpp:110] Creating Layer inception_3b/1x1
I1127 22:11:03.679237 17418 net.cpp:477] inception_3b/1x1 <- inception_3a/output_inception_3a/output_0_split_0
I1127 22:11:03.679246 17418 net.cpp:433] inception_3b/1x1 -> inception_3b/1x1
I1127 22:11:03.679587 17418 net.cpp:155] Setting up inception_3b/1x1
I1127 22:11:03.679597 17418 net.cpp:163] Top shape: 50 128 28 28 (5017600)
I1127 22:11:03.679604 17418 layer_factory.hpp:76] Creating layer inception_3b/relu_1x1
I1127 22:11:03.679608 17418 net.cpp:110] Creating Layer inception_3b/relu_1x1
I1127 22:11:03.679612 17418 net.cpp:477] inception_3b/relu_1x1 <- inception_3b/1x1
I1127 22:11:03.679617 17418 net.cpp:419] inception_3b/relu_1x1 -> inception_3b/1x1 (in-place)
I1127 22:11:03.679623 17418 net.cpp:155] Setting up inception_3b/relu_1x1
I1127 22:11:03.679627 17418 net.cpp:163] Top shape: 50 128 28 28 (5017600)
I1127 22:11:03.679630 17418 layer_factory.hpp:76] Creating layer inception_3b/3x3_reduce
I1127 22:11:03.679636 17418 net.cpp:110] Creating Layer inception_3b/3x3_reduce
I1127 22:11:03.679641 17418 net.cpp:477] inception_3b/3x3_reduce <- inception_3a/output_inception_3a/output_0_split_1
I1127 22:11:03.679646 17418 net.cpp:433] inception_3b/3x3_reduce -> inception_3b/3x3_reduce
I1127 22:11:03.679988 17418 net.cpp:155] Setting up inception_3b/3x3_reduce
I1127 22:11:03.679998 17418 net.cpp:163] Top shape: 50 128 28 28 (5017600)
I1127 22:11:03.680003 17418 layer_factory.hpp:76] Creating layer inception_3b/relu_3x3_reduce
I1127 22:11:03.680011 17418 net.cpp:110] Creating Layer inception_3b/relu_3x3_reduce
I1127 22:11:03.680014 17418 net.cpp:477] inception_3b/relu_3x3_reduce <- inception_3b/3x3_reduce
I1127 22:11:03.680019 17418 net.cpp:419] inception_3b/relu_3x3_reduce -> inception_3b/3x3_reduce (in-place)
I1127 22:11:03.680025 17418 net.cpp:155] Setting up inception_3b/relu_3x3_reduce
I1127 22:11:03.680029 17418 net.cpp:163] Top shape: 50 128 28 28 (5017600)
I1127 22:11:03.680032 17418 layer_factory.hpp:76] Creating layer inception_3b/3x3
I1127 22:11:03.680040 17418 net.cpp:110] Creating Layer inception_3b/3x3
I1127 22:11:03.680044 17418 net.cpp:477] inception_3b/3x3 <- inception_3b/3x3_reduce
I1127 22:11:03.680050 17418 net.cpp:433] inception_3b/3x3 -> inception_3b/3x3
I1127 22:11:03.681861 17418 net.cpp:155] Setting up inception_3b/3x3
I1127 22:11:03.681874 17418 net.cpp:163] Top shape: 50 192 28 28 (7526400)
I1127 22:11:03.681880 17418 layer_factory.hpp:76] Creating layer inception_3b/relu_3x3
I1127 22:11:03.681887 17418 net.cpp:110] Creating Layer inception_3b/relu_3x3
I1127 22:11:03.681891 17418 net.cpp:477] inception_3b/relu_3x3 <- inception_3b/3x3
I1127 22:11:03.681896 17418 net.cpp:419] inception_3b/relu_3x3 -> inception_3b/3x3 (in-place)
I1127 22:11:03.681902 17418 net.cpp:155] Setting up inception_3b/relu_3x3
I1127 22:11:03.681907 17418 net.cpp:163] Top shape: 50 192 28 28 (7526400)
I1127 22:11:03.681910 17418 layer_factory.hpp:76] Creating layer inception_3b/5x5_reduce
I1127 22:11:03.681917 17418 net.cpp:110] Creating Layer inception_3b/5x5_reduce
I1127 22:11:03.681921 17418 net.cpp:477] inception_3b/5x5_reduce <- inception_3a/output_inception_3a/output_0_split_2
I1127 22:11:03.681928 17418 net.cpp:433] inception_3b/5x5_reduce -> inception_3b/5x5_reduce
I1127 22:11:03.682153 17418 net.cpp:155] Setting up inception_3b/5x5_reduce
I1127 22:11:03.682164 17418 net.cpp:163] Top shape: 50 32 28 28 (1254400)
I1127 22:11:03.682170 17418 layer_factory.hpp:76] Creating layer inception_3b/relu_5x5_reduce
I1127 22:11:03.682176 17418 net.cpp:110] Creating Layer inception_3b/relu_5x5_reduce
I1127 22:11:03.682180 17418 net.cpp:477] inception_3b/relu_5x5_reduce <- inception_3b/5x5_reduce
I1127 22:11:03.682185 17418 net.cpp:419] inception_3b/relu_5x5_reduce -> inception_3b/5x5_reduce (in-place)
I1127 22:11:03.682191 17418 net.cpp:155] Setting up inception_3b/relu_5x5_reduce
I1127 22:11:03.682196 17418 net.cpp:163] Top shape: 50 32 28 28 (1254400)
I1127 22:11:03.682199 17418 layer_factory.hpp:76] Creating layer inception_3b/5x5
I1127 22:11:03.682204 17418 net.cpp:110] Creating Layer inception_3b/5x5
I1127 22:11:03.682209 17418 net.cpp:477] inception_3b/5x5 <- inception_3b/5x5_reduce
I1127 22:11:03.682217 17418 net.cpp:433] inception_3b/5x5 -> inception_3b/5x5
I1127 22:11:03.683167 17418 net.cpp:155] Setting up inception_3b/5x5
I1127 22:11:03.683178 17418 net.cpp:163] Top shape: 50 96 28 28 (3763200)
I1127 22:11:03.683184 17418 layer_factory.hpp:76] Creating layer inception_3b/relu_5x5
I1127 22:11:03.683190 17418 net.cpp:110] Creating Layer inception_3b/relu_5x5
I1127 22:11:03.683193 17418 net.cpp:477] inception_3b/relu_5x5 <- inception_3b/5x5
I1127 22:11:03.683198 17418 net.cpp:419] inception_3b/relu_5x5 -> inception_3b/5x5 (in-place)
I1127 22:11:03.683204 17418 net.cpp:155] Setting up inception_3b/relu_5x5
I1127 22:11:03.683208 17418 net.cpp:163] Top shape: 50 96 28 28 (3763200)
I1127 22:11:03.683212 17418 layer_factory.hpp:76] Creating layer inception_3b/pool
I1127 22:11:03.683218 17418 net.cpp:110] Creating Layer inception_3b/pool
I1127 22:11:03.683220 17418 net.cpp:477] inception_3b/pool <- inception_3a/output_inception_3a/output_0_split_3
I1127 22:11:03.683225 17418 net.cpp:433] inception_3b/pool -> inception_3b/pool
I1127 22:11:03.683259 17418 net.cpp:155] Setting up inception_3b/pool
I1127 22:11:03.683267 17418 net.cpp:163] Top shape: 50 256 28 28 (10035200)
I1127 22:11:03.683270 17418 layer_factory.hpp:76] Creating layer inception_3b/pool_proj
I1127 22:11:03.683279 17418 net.cpp:110] Creating Layer inception_3b/pool_proj
I1127 22:11:03.683282 17418 net.cpp:477] inception_3b/pool_proj <- inception_3b/pool
I1127 22:11:03.683292 17418 net.cpp:433] inception_3b/pool_proj -> inception_3b/pool_proj
I1127 22:11:03.683564 17418 net.cpp:155] Setting up inception_3b/pool_proj
I1127 22:11:03.683574 17418 net.cpp:163] Top shape: 50 64 28 28 (2508800)
I1127 22:11:03.683580 17418 layer_factory.hpp:76] Creating layer inception_3b/relu_pool_proj
I1127 22:11:03.683585 17418 net.cpp:110] Creating Layer inception_3b/relu_pool_proj
I1127 22:11:03.683588 17418 net.cpp:477] inception_3b/relu_pool_proj <- inception_3b/pool_proj
I1127 22:11:03.683593 17418 net.cpp:419] inception_3b/relu_pool_proj -> inception_3b/pool_proj (in-place)
I1127 22:11:03.683599 17418 net.cpp:155] Setting up inception_3b/relu_pool_proj
I1127 22:11:03.683604 17418 net.cpp:163] Top shape: 50 64 28 28 (2508800)
I1127 22:11:03.683607 17418 layer_factory.hpp:76] Creating layer inception_3b/output
I1127 22:11:03.683612 17418 net.cpp:110] Creating Layer inception_3b/output
I1127 22:11:03.683615 17418 net.cpp:477] inception_3b/output <- inception_3b/1x1
I1127 22:11:03.683622 17418 net.cpp:477] inception_3b/output <- inception_3b/3x3
I1127 22:11:03.683626 17418 net.cpp:477] inception_3b/output <- inception_3b/5x5
I1127 22:11:03.683630 17418 net.cpp:477] inception_3b/output <- inception_3b/pool_proj
I1127 22:11:03.683634 17418 net.cpp:433] inception_3b/output -> inception_3b/output
I1127 22:11:03.683656 17418 net.cpp:155] Setting up inception_3b/output
I1127 22:11:03.683665 17418 net.cpp:163] Top shape: 50 480 28 28 (18816000)
I1127 22:11:03.683667 17418 layer_factory.hpp:76] Creating layer pool3/3x3_s2
I1127 22:11:03.683675 17418 net.cpp:110] Creating Layer pool3/3x3_s2
I1127 22:11:03.683677 17418 net.cpp:477] pool3/3x3_s2 <- inception_3b/output
I1127 22:11:03.683682 17418 net.cpp:433] pool3/3x3_s2 -> pool3/3x3_s2
I1127 22:11:03.683712 17418 net.cpp:155] Setting up pool3/3x3_s2
I1127 22:11:03.683719 17418 net.cpp:163] Top shape: 50 480 14 14 (4704000)
I1127 22:11:03.683722 17418 layer_factory.hpp:76] Creating layer pool3/3x3_s2_pool3/3x3_s2_0_split
I1127 22:11:03.683728 17418 net.cpp:110] Creating Layer pool3/3x3_s2_pool3/3x3_s2_0_split
I1127 22:11:03.683732 17418 net.cpp:477] pool3/3x3_s2_pool3/3x3_s2_0_split <- pool3/3x3_s2
I1127 22:11:03.683737 17418 net.cpp:433] pool3/3x3_s2_pool3/3x3_s2_0_split -> pool3/3x3_s2_pool3/3x3_s2_0_split_0
I1127 22:11:03.683743 17418 net.cpp:433] pool3/3x3_s2_pool3/3x3_s2_0_split -> pool3/3x3_s2_pool3/3x3_s2_0_split_1
I1127 22:11:03.683749 17418 net.cpp:433] pool3/3x3_s2_pool3/3x3_s2_0_split -> pool3/3x3_s2_pool3/3x3_s2_0_split_2
I1127 22:11:03.683754 17418 net.cpp:433] pool3/3x3_s2_pool3/3x3_s2_0_split -> pool3/3x3_s2_pool3/3x3_s2_0_split_3
I1127 22:11:03.683799 17418 net.cpp:155] Setting up pool3/3x3_s2_pool3/3x3_s2_0_split
I1127 22:11:03.683805 17418 net.cpp:163] Top shape: 50 480 14 14 (4704000)
I1127 22:11:03.683809 17418 net.cpp:163] Top shape: 50 480 14 14 (4704000)
I1127 22:11:03.683812 17418 net.cpp:163] Top shape: 50 480 14 14 (4704000)
I1127 22:11:03.683815 17418 net.cpp:163] Top shape: 50 480 14 14 (4704000)
I1127 22:11:03.683820 17418 layer_factory.hpp:76] Creating layer inception_4a/1x1
I1127 22:11:03.683826 17418 net.cpp:110] Creating Layer inception_4a/1x1
I1127 22:11:03.683830 17418 net.cpp:477] inception_4a/1x1 <- pool3/3x3_s2_pool3/3x3_s2_0_split_0
I1127 22:11:03.683837 17418 net.cpp:433] inception_4a/1x1 -> inception_4a/1x1
I1127 22:11:03.684519 17418 net.cpp:155] Setting up inception_4a/1x1
I1127 22:11:03.684527 17418 net.cpp:163] Top shape: 50 192 14 14 (1881600)
I1127 22:11:03.684533 17418 layer_factory.hpp:76] Creating layer inception_4a/relu_1x1
I1127 22:11:03.684538 17418 net.cpp:110] Creating Layer inception_4a/relu_1x1
I1127 22:11:03.684542 17418 net.cpp:477] inception_4a/relu_1x1 <- inception_4a/1x1
I1127 22:11:03.684546 17418 net.cpp:419] inception_4a/relu_1x1 -> inception_4a/1x1 (in-place)
I1127 22:11:03.684552 17418 net.cpp:155] Setting up inception_4a/relu_1x1
I1127 22:11:03.684556 17418 net.cpp:163] Top shape: 50 192 14 14 (1881600)
I1127 22:11:03.684559 17418 layer_factory.hpp:76] Creating layer inception_4a/3x3_reduce
I1127 22:11:03.684568 17418 net.cpp:110] Creating Layer inception_4a/3x3_reduce
I1127 22:11:03.684571 17418 net.cpp:477] inception_4a/3x3_reduce <- pool3/3x3_s2_pool3/3x3_s2_0_split_1
I1127 22:11:03.684578 17418 net.cpp:433] inception_4a/3x3_reduce -> inception_4a/3x3_reduce
I1127 22:11:03.685019 17418 net.cpp:155] Setting up inception_4a/3x3_reduce
I1127 22:11:03.685027 17418 net.cpp:163] Top shape: 50 96 14 14 (940800)
I1127 22:11:03.685039 17418 layer_factory.hpp:76] Creating layer inception_4a/relu_3x3_reduce
I1127 22:11:03.685045 17418 net.cpp:110] Creating Layer inception_4a/relu_3x3_reduce
I1127 22:11:03.685048 17418 net.cpp:477] inception_4a/relu_3x3_reduce <- inception_4a/3x3_reduce
I1127 22:11:03.685053 17418 net.cpp:419] inception_4a/relu_3x3_reduce -> inception_4a/3x3_reduce (in-place)
I1127 22:11:03.685060 17418 net.cpp:155] Setting up inception_4a/relu_3x3_reduce
I1127 22:11:03.685063 17418 net.cpp:163] Top shape: 50 96 14 14 (940800)
I1127 22:11:03.685066 17418 layer_factory.hpp:76] Creating layer inception_4a/3x3
I1127 22:11:03.685075 17418 net.cpp:110] Creating Layer inception_4a/3x3
I1127 22:11:03.685078 17418 net.cpp:477] inception_4a/3x3 <- inception_4a/3x3_reduce
I1127 22:11:03.685084 17418 net.cpp:433] inception_4a/3x3 -> inception_4a/3x3
I1127 22:11:03.686661 17418 net.cpp:155] Setting up inception_4a/3x3
I1127 22:11:03.686671 17418 net.cpp:163] Top shape: 50 208 14 14 (2038400)
I1127 22:11:03.686678 17418 layer_factory.hpp:76] Creating layer inception_4a/relu_3x3
I1127 22:11:03.686683 17418 net.cpp:110] Creating Layer inception_4a/relu_3x3
I1127 22:11:03.686687 17418 net.cpp:477] inception_4a/relu_3x3 <- inception_4a/3x3
I1127 22:11:03.686692 17418 net.cpp:419] inception_4a/relu_3x3 -> inception_4a/3x3 (in-place)
I1127 22:11:03.686699 17418 net.cpp:155] Setting up inception_4a/relu_3x3
I1127 22:11:03.686703 17418 net.cpp:163] Top shape: 50 208 14 14 (2038400)
I1127 22:11:03.686707 17418 layer_factory.hpp:76] Creating layer inception_4a/5x5_reduce
I1127 22:11:03.686713 17418 net.cpp:110] Creating Layer inception_4a/5x5_reduce
I1127 22:11:03.686717 17418 net.cpp:477] inception_4a/5x5_reduce <- pool3/3x3_s2_pool3/3x3_s2_0_split_2
I1127 22:11:03.686724 17418 net.cpp:433] inception_4a/5x5_reduce -> inception_4a/5x5_reduce
I1127 22:11:03.686931 17418 net.cpp:155] Setting up inception_4a/5x5_reduce
I1127 22:11:03.686940 17418 net.cpp:163] Top shape: 50 16 14 14 (156800)
I1127 22:11:03.686946 17418 layer_factory.hpp:76] Creating layer inception_4a/relu_5x5_reduce
I1127 22:11:03.686952 17418 net.cpp:110] Creating Layer inception_4a/relu_5x5_reduce
I1127 22:11:03.686955 17418 net.cpp:477] inception_4a/relu_5x5_reduce <- inception_4a/5x5_reduce
I1127 22:11:03.686960 17418 net.cpp:419] inception_4a/relu_5x5_reduce -> inception_4a/5x5_reduce (in-place)
I1127 22:11:03.686966 17418 net.cpp:155] Setting up inception_4a/relu_5x5_reduce
I1127 22:11:03.686970 17418 net.cpp:163] Top shape: 50 16 14 14 (156800)
I1127 22:11:03.686974 17418 layer_factory.hpp:76] Creating layer inception_4a/5x5
I1127 22:11:03.686981 17418 net.cpp:110] Creating Layer inception_4a/5x5
I1127 22:11:03.686986 17418 net.cpp:477] inception_4a/5x5 <- inception_4a/5x5_reduce
I1127 22:11:03.686992 17418 net.cpp:433] inception_4a/5x5 -> inception_4a/5x5
I1127 22:11:03.687266 17418 net.cpp:155] Setting up inception_4a/5x5
I1127 22:11:03.687275 17418 net.cpp:163] Top shape: 50 48 14 14 (470400)
I1127 22:11:03.687281 17418 layer_factory.hpp:76] Creating layer inception_4a/relu_5x5
I1127 22:11:03.687288 17418 net.cpp:110] Creating Layer inception_4a/relu_5x5
I1127 22:11:03.687291 17418 net.cpp:477] inception_4a/relu_5x5 <- inception_4a/5x5
I1127 22:11:03.687296 17418 net.cpp:419] inception_4a/relu_5x5 -> inception_4a/5x5 (in-place)
I1127 22:11:03.687302 17418 net.cpp:155] Setting up inception_4a/relu_5x5
I1127 22:11:03.687306 17418 net.cpp:163] Top shape: 50 48 14 14 (470400)
I1127 22:11:03.687309 17418 layer_factory.hpp:76] Creating layer inception_4a/pool
I1127 22:11:03.687314 17418 net.cpp:110] Creating Layer inception_4a/pool
I1127 22:11:03.687317 17418 net.cpp:477] inception_4a/pool <- pool3/3x3_s2_pool3/3x3_s2_0_split_3
I1127 22:11:03.687322 17418 net.cpp:433] inception_4a/pool -> inception_4a/pool
I1127 22:11:03.687356 17418 net.cpp:155] Setting up inception_4a/pool
I1127 22:11:03.687364 17418 net.cpp:163] Top shape: 50 480 14 14 (4704000)
I1127 22:11:03.687367 17418 layer_factory.hpp:76] Creating layer inception_4a/pool_proj
I1127 22:11:03.687374 17418 net.cpp:110] Creating Layer inception_4a/pool_proj
I1127 22:11:03.687377 17418 net.cpp:477] inception_4a/pool_proj <- inception_4a/pool
I1127 22:11:03.687384 17418 net.cpp:433] inception_4a/pool_proj -> inception_4a/pool_proj
I1127 22:11:03.687724 17418 net.cpp:155] Setting up inception_4a/pool_proj
I1127 22:11:03.687733 17418 net.cpp:163] Top shape: 50 64 14 14 (627200)
I1127 22:11:03.687739 17418 layer_factory.hpp:76] Creating layer inception_4a/relu_pool_proj
I1127 22:11:03.687746 17418 net.cpp:110] Creating Layer inception_4a/relu_pool_proj
I1127 22:11:03.687749 17418 net.cpp:477] inception_4a/relu_pool_proj <- inception_4a/pool_proj
I1127 22:11:03.687754 17418 net.cpp:419] inception_4a/relu_pool_proj -> inception_4a/pool_proj (in-place)
I1127 22:11:03.687760 17418 net.cpp:155] Setting up inception_4a/relu_pool_proj
I1127 22:11:03.687764 17418 net.cpp:163] Top shape: 50 64 14 14 (627200)
I1127 22:11:03.687767 17418 layer_factory.hpp:76] Creating layer inception_4a/output
I1127 22:11:03.687772 17418 net.cpp:110] Creating Layer inception_4a/output
I1127 22:11:03.687775 17418 net.cpp:477] inception_4a/output <- inception_4a/1x1
I1127 22:11:03.687779 17418 net.cpp:477] inception_4a/output <- inception_4a/3x3
I1127 22:11:03.687783 17418 net.cpp:477] inception_4a/output <- inception_4a/5x5
I1127 22:11:03.687786 17418 net.cpp:477] inception_4a/output <- inception_4a/pool_proj
I1127 22:11:03.687790 17418 net.cpp:433] inception_4a/output -> inception_4a/output
I1127 22:11:03.687810 17418 net.cpp:155] Setting up inception_4a/output
I1127 22:11:03.687818 17418 net.cpp:163] Top shape: 50 512 14 14 (5017600)
I1127 22:11:03.687821 17418 layer_factory.hpp:76] Creating layer inception_4a/output_inception_4a/output_0_split
I1127 22:11:03.687829 17418 net.cpp:110] Creating Layer inception_4a/output_inception_4a/output_0_split
I1127 22:11:03.687832 17418 net.cpp:477] inception_4a/output_inception_4a/output_0_split <- inception_4a/output
I1127 22:11:03.687839 17418 net.cpp:433] inception_4a/output_inception_4a/output_0_split -> inception_4a/output_inception_4a/output_0_split_0
I1127 22:11:03.687845 17418 net.cpp:433] inception_4a/output_inception_4a/output_0_split -> inception_4a/output_inception_4a/output_0_split_1
I1127 22:11:03.687851 17418 net.cpp:433] inception_4a/output_inception_4a/output_0_split -> inception_4a/output_inception_4a/output_0_split_2
I1127 22:11:03.687856 17418 net.cpp:433] inception_4a/output_inception_4a/output_0_split -> inception_4a/output_inception_4a/output_0_split_3
I1127 22:11:03.687863 17418 net.cpp:433] inception_4a/output_inception_4a/output_0_split -> inception_4a/output_inception_4a/output_0_split_4
I1127 22:11:03.687917 17418 net.cpp:155] Setting up inception_4a/output_inception_4a/output_0_split
I1127 22:11:03.687924 17418 net.cpp:163] Top shape: 50 512 14 14 (5017600)
I1127 22:11:03.687928 17418 net.cpp:163] Top shape: 50 512 14 14 (5017600)
I1127 22:11:03.687932 17418 net.cpp:163] Top shape: 50 512 14 14 (5017600)
I1127 22:11:03.687935 17418 net.cpp:163] Top shape: 50 512 14 14 (5017600)
I1127 22:11:03.687938 17418 net.cpp:163] Top shape: 50 512 14 14 (5017600)
I1127 22:11:03.687942 17418 layer_factory.hpp:76] Creating layer loss1/ave_pool
I1127 22:11:03.687949 17418 net.cpp:110] Creating Layer loss1/ave_pool
I1127 22:11:03.687952 17418 net.cpp:477] loss1/ave_pool <- inception_4a/output_inception_4a/output_0_split_0
I1127 22:11:03.687958 17418 net.cpp:433] loss1/ave_pool -> loss1/ave_pool
I1127 22:11:03.687978 17418 net.cpp:155] Setting up loss1/ave_pool
I1127 22:11:03.687984 17418 net.cpp:163] Top shape: 50 512 4 4 (409600)
I1127 22:11:03.687988 17418 layer_factory.hpp:76] Creating layer loss1/conv
I1127 22:11:03.687995 17418 net.cpp:110] Creating Layer loss1/conv
I1127 22:11:03.687999 17418 net.cpp:477] loss1/conv <- loss1/ave_pool
I1127 22:11:03.688006 17418 net.cpp:433] loss1/conv -> loss1/conv
I1127 22:11:03.688546 17418 net.cpp:155] Setting up loss1/conv
I1127 22:11:03.688555 17418 net.cpp:163] Top shape: 50 128 4 4 (102400)
I1127 22:11:03.688561 17418 layer_factory.hpp:76] Creating layer loss1/relu_conv
I1127 22:11:03.688566 17418 net.cpp:110] Creating Layer loss1/relu_conv
I1127 22:11:03.688570 17418 net.cpp:477] loss1/relu_conv <- loss1/conv
I1127 22:11:03.688575 17418 net.cpp:419] loss1/relu_conv -> loss1/conv (in-place)
I1127 22:11:03.688580 17418 net.cpp:155] Setting up loss1/relu_conv
I1127 22:11:03.688585 17418 net.cpp:163] Top shape: 50 128 4 4 (102400)
I1127 22:11:03.688587 17418 layer_factory.hpp:76] Creating layer loss1/fc
I1127 22:11:03.688602 17418 net.cpp:110] Creating Layer loss1/fc
I1127 22:11:03.688607 17418 net.cpp:477] loss1/fc <- loss1/conv
I1127 22:11:03.688614 17418 net.cpp:433] loss1/fc -> loss1/fc
I1127 22:11:03.703385 17418 net.cpp:155] Setting up loss1/fc
I1127 22:11:03.703410 17418 net.cpp:163] Top shape: 50 1024 (51200)
I1127 22:11:03.703420 17418 layer_factory.hpp:76] Creating layer loss1/relu_fc
I1127 22:11:03.703431 17418 net.cpp:110] Creating Layer loss1/relu_fc
I1127 22:11:03.703436 17418 net.cpp:477] loss1/relu_fc <- loss1/fc
I1127 22:11:03.703444 17418 net.cpp:419] loss1/relu_fc -> loss1/fc (in-place)
I1127 22:11:03.703454 17418 net.cpp:155] Setting up loss1/relu_fc
I1127 22:11:03.703459 17418 net.cpp:163] Top shape: 50 1024 (51200)
I1127 22:11:03.703461 17418 layer_factory.hpp:76] Creating layer loss1/drop_fc
I1127 22:11:03.703479 17418 net.cpp:110] Creating Layer loss1/drop_fc
I1127 22:11:03.703482 17418 net.cpp:477] loss1/drop_fc <- loss1/fc
I1127 22:11:03.703488 17418 net.cpp:419] loss1/drop_fc -> loss1/fc (in-place)
I1127 22:11:03.703517 17418 net.cpp:155] Setting up loss1/drop_fc
I1127 22:11:03.703526 17418 net.cpp:163] Top shape: 50 1024 (51200)
I1127 22:11:03.703531 17418 layer_factory.hpp:76] Creating layer loss1/classifier
I1127 22:11:03.703537 17418 net.cpp:110] Creating Layer loss1/classifier
I1127 22:11:03.703541 17418 net.cpp:477] loss1/classifier <- loss1/fc
I1127 22:11:03.703547 17418 net.cpp:433] loss1/classifier -> loss1/classifier
I1127 22:11:03.718736 17418 net.cpp:155] Setting up loss1/classifier
I1127 22:11:03.718755 17418 net.cpp:163] Top shape: 50 1000 (50000)
I1127 22:11:03.718765 17418 layer_factory.hpp:76] Creating layer loss1/classifier_loss1/classifier_0_split
I1127 22:11:03.718773 17418 net.cpp:110] Creating Layer loss1/classifier_loss1/classifier_0_split
I1127 22:11:03.718777 17418 net.cpp:477] loss1/classifier_loss1/classifier_0_split <- loss1/classifier
I1127 22:11:03.718783 17418 net.cpp:433] loss1/classifier_loss1/classifier_0_split -> loss1/classifier_loss1/classifier_0_split_0
I1127 22:11:03.718791 17418 net.cpp:433] loss1/classifier_loss1/classifier_0_split -> loss1/classifier_loss1/classifier_0_split_1
I1127 22:11:03.718825 17418 net.cpp:155] Setting up loss1/classifier_loss1/classifier_0_split
I1127 22:11:03.718833 17418 net.cpp:163] Top shape: 50 1000 (50000)
I1127 22:11:03.718837 17418 net.cpp:163] Top shape: 50 1000 (50000)
I1127 22:11:03.718840 17418 layer_factory.hpp:76] Creating layer loss1/loss
I1127 22:11:03.718848 17418 net.cpp:110] Creating Layer loss1/loss
I1127 22:11:03.718852 17418 net.cpp:477] loss1/loss <- loss1/classifier_loss1/classifier_0_split_0
I1127 22:11:03.718858 17418 net.cpp:477] loss1/loss <- label_data_1_split_0
I1127 22:11:03.718864 17418 net.cpp:433] loss1/loss -> loss1/loss1
I1127 22:11:03.718883 17418 layer_factory.hpp:76] Creating layer loss1/loss
…
I1127 22:11:03.719414 17418 net.cpp:433] loss1/top-1 -> loss1/top-1
I1127 22:11:03.719429 17418 net.cpp:155] Setting up loss1/top-1
I1127 22:11:03.719435 17418 net.cpp:163] Top shape: (1)
I1127 22:11:03.719439 17418 layer_factory.hpp:76] Creating layer inception_4b/1x1
I1127 22:11:03.719449 17418 net.cpp:110] Creating Layer inception_4b/1x1
I1127 22:11:03.719452 17418 net.cpp:477] inception_4b/1x1 <- inception_4a/output_inception_4a/output_0_split_1
I1127 22:11:03.719460 17418 net.cpp:433] inception_4b/1x1 -> inception_4b/1x1
I1127 22:11:03.720124 17418 net.cpp:155] Setting up inception_4b/1x1
I1127 22:11:03.720134 17418 net.cpp:163] Top shape: 50 160 14 14 (1568000)
I1127 22:11:03.720140 17418 layer_factory.hpp:76] Creating layer inception_4b/relu_1x1
I1127 22:11:03.720146 17418 net.cpp:110] Creating Layer inception_4b/relu_1x1
I1127 22:11:03.720149 17418 net.cpp:477] inception_4b/relu_1x1 <- inception_4b/1x1
I1127 22:11:03.720155 17418 net.cpp:419] inception_4b/relu_1x1 -> inception_4b/1x1 (in-place)
I1127 22:11:03.720160 17418 net.cpp:155] Setting up inception_4b/relu_1x1
I1127 22:11:03.720165 17418 net.cpp:163] Top shape: 50 160 14 14 (1568000)
I1127 22:11:03.720167 17418 layer_factory.hpp:76] Creating layer inception_4b/3x3_reduce
I1127 22:11:03.720175 17418 net.cpp:110] Creating Layer inception_4b/3x3_reduce
I1127 22:11:03.720178 17418 net.cpp:477] inception_4b/3x3_reduce <- inception_4a/output_inception_4a/output_0_split_2
I1127 22:11:03.720183 17418 net.cpp:433] inception_4b/3x3_reduce -> inception_4b/3x3_reduce
I1127 22:11:03.720686 17418 net.cpp:155] Setting up inception_4b/3x3_reduce
I1127 22:11:03.720695 17418 net.cpp:163] Top shape: 50 112 14 14 (1097600)
I1127 22:11:03.720710 17418 layer_factory.hpp:76] Creating layer inception_4b/relu_3x3_reduce
I1127 22:11:03.720716 17418 net.cpp:110] Creating Layer inception_4b/relu_3x3_reduce
I1127 22:11:03.720721 17418 net.cpp:477] inception_4b/relu_3x3_reduce <- inception_4b/3x3_reduce
I1127 22:11:03.720726 17418 net.cpp:419] inception_4b/relu_3x3_reduce -> inception_4b/3x3_reduce (in-place)
I1127 22:11:03.720731 17418 net.cpp:155] Setting up inception_4b/relu_3x3_reduce
I1127 22:11:03.720736 17418 net.cpp:163] Top shape: 50 112 14 14 (1097600)
I1127 22:11:03.720738 17418 layer_factory.hpp:76] Creating layer inception_4b/3x3
I1127 22:11:03.720746 17418 net.cpp:110] Creating Layer inception_4b/3x3
I1127 22:11:03.720749 17418 net.cpp:477] inception_4b/3x3 <- inception_4b/3x3_reduce
I1127 22:11:03.720755 17418 net.cpp:433] inception_4b/3x3 -> inception_4b/3x3
I1127 22:11:03.722585 17418 net.cpp:155] Setting up inception_4b/3x3
I1127 22:11:03.722599 17418 net.cpp:163] Top shape: 50 224 14 14 (2195200)
I1127 22:11:03.722605 17418 layer_factory.hpp:76] Creating layer inception_4b/relu_3x3
I1127 22:11:03.722611 17418 net.cpp:110] Creating Layer inception_4b/relu_3x3
I1127 22:11:03.722615 17418 net.cpp:477] inception_4b/relu_3x3 <- inception_4b/3x3
I1127 22:11:03.722620 17418 net.cpp:419] inception_4b/relu_3x3 -> inception_4b/3x3 (in-place)
I1127 22:11:03.722626 17418 net.cpp:155] Setting up inception_4b/relu_3x3
I1127 22:11:03.722630 17418 net.cpp:163] Top shape: 50 224 14 14 (2195200)
I1127 22:11:03.722633 17418 layer_factory.hpp:76] Creating layer inception_4b/5x5_reduce
I1127 22:11:03.722642 17418 net.cpp:110] Creating Layer inception_4b/5x5_reduce
I1127 22:11:03.722645 17418 net.cpp:477] inception_4b/5x5_reduce <- inception_4a/output_inception_4a/output_0_split_3
I1127 22:11:03.722652 17418 net.cpp:433] inception_4b/5x5_reduce -> inception_4b/5x5_reduce
I1127 22:11:03.722894 17418 net.cpp:155] Setting up inception_4b/5x5_reduce
I1127 22:11:03.722903 17418 net.cpp:163] Top shape: 50 24 14 14 (235200)
I1127 22:11:03.722909 17418 layer_factory.hpp:76] Creating layer inception_4b/relu_5x5_reduce
I1127 22:11:03.722914 17418 net.cpp:110] Creating Layer inception_4b/relu_5x5_reduce
I1127 22:11:03.722918 17418 net.cpp:477] inception_4b/relu_5x5_reduce <- inception_4b/5x5_reduce
I1127 22:11:03.722923 17418 net.cpp:419] inception_4b/relu_5x5_reduce -> inception_4b/5x5_reduce (in-place)
I1127 22:11:03.722929 17418 net.cpp:155] Setting up inception_4b/relu_5x5_reduce
I1127 22:11:03.722934 17418 net.cpp:163] Top shape: 50 24 14 14 (235200)
I1127 22:11:03.722936 17418 layer_factory.hpp:76] Creating layer inception_4b/5x5
I1127 22:11:03.722941 17418 net.cpp:110] Creating Layer inception_4b/5x5
I1127 22:11:03.722945 17418 net.cpp:477] inception_4b/5x5 <- inception_4b/5x5_reduce
I1127 22:11:03.722954 17418 net.cpp:433] inception_4b/5x5 -> inception_4b/5x5
I1127 22:11:03.723348 17418 net.cpp:155] Setting up inception_4b/5x5
I1127 22:11:03.723357 17418 net.cpp:163] Top shape: 50 64 14 14 (627200)
I1127 22:11:03.723363 17418 layer_factory.hpp:76] Creating layer inception_4b/relu_5x5
I1127 22:11:03.723368 17418 net.cpp:110] Creating Layer inception_4b/relu_5x5
I1127 22:11:03.723371 17418 net.cpp:477] inception_4b/relu_5x5 <- inception_4b/5x5
I1127 22:11:03.723377 17418 net.cpp:419] inception_4b/relu_5x5 -> inception_4b/5x5 (in-place)
I1127 22:11:03.723383 17418 net.cpp:155] Setting up inception_4b/relu_5x5
I1127 22:11:03.723387 17418 net.cpp:163] Top shape: 50 64 14 14 (627200)
I1127 22:11:03.723390 17418 layer_factory.hpp:76] Creating layer inception_4b/pool
I1127 22:11:03.723397 17418 net.cpp:110] Creating Layer inception_4b/pool
I1127 22:11:03.723399 17418 net.cpp:477] inception_4b/pool <- inception_4a/output_inception_4a/output_0_split_4
I1127 22:11:03.723404 17418 net.cpp:433] inception_4b/pool -> inception_4b/pool
I1127 22:11:03.723438 17418 net.cpp:155] Setting up inception_4b/pool
I1127 22:11:03.723445 17418 net.cpp:163] Top shape: 50 512 14 14 (5017600)
I1127 22:11:03.723448 17418 layer_factory.hpp:76] Creating layer inception_4b/pool_proj
I1127 22:11:03.723456 17418 net.cpp:110] Creating Layer inception_4b/pool_proj
I1127 22:11:03.723459 17418 net.cpp:477] inception_4b/pool_proj <- inception_4b/pool
I1127 22:11:03.723466 17418 net.cpp:433] inception_4b/pool_proj -> inception_4b/pool_proj
I1127 22:11:03.723819 17418 net.cpp:155] Setting up inception_4b/pool_proj
I1127 22:11:03.723829 17418 net.cpp:163] Top shape: 50 64 14 14 (627200)
I1127 22:11:03.723834 17418 layer_factory.hpp:76] Creating layer inception_4b/relu_pool_proj
I1127 22:11:03.723839 17418 net.cpp:110] Creating Layer inception_4b/relu_pool_proj
I1127 22:11:03.723844 17418 net.cpp:477] inception_4b/relu_pool_proj <- inception_4b/pool_proj
I1127 22:11:03.723850 17418 net.cpp:419] inception_4b/relu_pool_proj -> inception_4b/pool_proj (in-place)
I1127 22:11:03.723855 17418 net.cpp:155] Setting up inception_4b/relu_pool_proj
I1127 22:11:03.723860 17418 net.cpp:163] Top shape: 50 64 14 14 (627200)
I1127 22:11:03.723862 17418 layer_factory.hpp:76] Creating layer inception_4b/output
I1127 22:11:03.723867 17418 net.cpp:110] Creating Layer inception_4b/output
I1127 22:11:03.723870 17418 net.cpp:477] inception_4b/output <- inception_4b/1x1
I1127 22:11:03.723875 17418 net.cpp:477] inception_4b/output <- inception_4b/3x3
I1127 22:11:03.723878 17418 net.cpp:477] inception_4b/output <- inception_4b/5x5
I1127 22:11:03.723882 17418 net.cpp:477] inception_4b/output <- inception_4b/pool_proj
I1127 22:11:03.723886 17418 net.cpp:433] inception_4b/output -> inception_4b/output
I1127 22:11:03.723908 17418 net.cpp:155] Setting up inception_4b/output
I1127 22:11:03.723915 17418 net.cpp:163] Top shape: 50 512 14 14 (5017600)
I1127 22:11:03.723918 17418 layer_factory.hpp:76] Creating layer inception_4b/output_inception_4b/output_0_split
I1127 22:11:03.723927 17418 net.cpp:110] Creating Layer inception_4b/output_inception_4b/output_0_split
I1127 22:11:03.723930 17418 net.cpp:477] inception_4b/output_inception_4b/output_0_split <- inception_4b/output
I1127 22:11:03.723935 17418 net.cpp:433] inception_4b/output_inception_4b/output_0_split -> inception_4b/output_inception_4b/output_0_split_0
I1127 22:11:03.723942 17418 net.cpp:433] inception_4b/output_inception_4b/output_0_split -> inception_4b/output_inception_4b/output_0_split_1
I1127 22:11:03.723948 17418 net.cpp:433] inception_4b/output_inception_4b/output_0_split -> inception_4b/output_inception_4b/output_0_split_2
I1127 22:11:03.723954 17418 net.cpp:433] inception_4b/output_inception_4b/output_0_split -> inception_4b/output_inception_4b/output_0_split_3
I1127 22:11:03.724002 17418 net.cpp:155] Setting up inception_4b/output_inception_4b/output_0_split
I1127 22:11:03.724009 17418 net.cpp:163] Top shape: 50 512 14 14 (5017600)
I1127 22:11:03.724014 17418 net.cpp:163] Top shape: 50 512 14 14 (5017600)
I1127 22:11:03.724017 17418 net.cpp:163] Top shape: 50 512 14 14 (5017600)
I1127 22:11:03.724020 17418 net.cpp:163] Top shape: 50 512 14 14 (5017600)
I1127 22:11:03.724023 17418 layer_factory.hpp:76] Creating layer inception_4c/1x1
I1127 22:11:03.724030 17418 net.cpp:110] Creating Layer inception_4c/1x1
I1127 22:11:03.724035 17418 net.cpp:477] inception_4c/1x1 <- inception_4b/output_inception_4b/output_0_split_0
I1127 22:11:03.724040 17418 net.cpp:433] inception_4c/1x1 -> inception_4c/1x1
I1127 22:11:03.724586 17418 net.cpp:155] Setting up inception_4c/1x1
I1127 22:11:03.724596 17418 net.cpp:163] Top shape: 50 128 14 14 (1254400)
I1127 22:11:03.724601 17418 layer_factory.hpp:76] Creating layer inception_4c/relu_1x1
I1127 22:11:03.724606 17418 net.cpp:110] Creating Layer inception_4c/relu_1x1
I1127 22:11:03.724611 17418 net.cpp:477] inception_4c/relu_1x1 <- inception_4c/1x1
I1127 22:11:03.724616 17418 net.cpp:419] inception_4c/relu_1x1 -> inception_4c/1x1 (in-place)
I1127 22:11:03.724620 17418 net.cpp:155] Setting up inception_4c/relu_1x1
I1127 22:11:03.724624 17418 net.cpp:163] Top shape: 50 128 14 14 (1254400)
I1127 22:11:03.724627 17418 layer_factory.hpp:76] Creating layer inception_4c/3x3_reduce
I1127 22:11:03.724635 17418 net.cpp:110] Creating Layer inception_4c/3x3_reduce
I1127 22:11:03.724638 17418 net.cpp:477] inception_4c/3x3_reduce <- inception_4b/output_inception_4b/output_0_split_1
I1127 22:11:03.724644 17418 net.cpp:433] inception_4c/3x3_reduce -> inception_4c/3x3_reduce
I1127 22:11:03.725592 17418 net.cpp:155] Setting up inception_4c/3x3_reduce
I1127 22:11:03.725606 17418 net.cpp:163] Top shape: 50 128 14 14 (1254400)
I1127 22:11:03.725613 17418 layer_factory.hpp:76] Creating layer inception_4c/relu_3x3_reduce
I1127 22:11:03.725620 17418 net.cpp:110] Creating Layer inception_4c/relu_3x3_reduce
I1127 22:11:03.725625 17418 net.cpp:477] inception_4c/relu_3x3_reduce <- inception_4c/3x3_reduce
I1127 22:11:03.725630 17418 net.cpp:419] inception_4c/relu_3x3_reduce -> inception_4c/3x3_reduce (in-place)
I1127 22:11:03.725637 17418 net.cpp:155] Setting up inception_4c/relu_3x3_reduce
I1127 22:11:03.725641 17418 net.cpp:163] Top shape: 50 128 14 14 (1254400)
I1127 22:11:03.725644 17418 layer_factory.hpp:76] Creating layer inception_4c/3x3
I1127 22:11:03.725652 17418 net.cpp:110] Creating Layer inception_4c/3x3
I1127 22:11:03.725656 17418 net.cpp:477] inception_4c/3x3 <- inception_4c/3x3_reduce
I1127 22:11:03.725662 17418 net.cpp:433] inception_4c/3x3 -> inception_4c/3x3
I1127 22:11:03.728044 17418 net.cpp:155] Setting up inception_4c/3x3
I1127 22:11:03.728060 17418 net.cpp:163] Top shape: 50 256 14 14 (2508800)
I1127 22:11:03.728078 17418 layer_factory.hpp:76] Creating layer inception_4c/relu_3x3
I1127 22:11:03.728086 17418 net.cpp:110] Creating Layer inception_4c/relu_3x3
I1127 22:11:03.728091 17418 net.cpp:477] inception_4c/relu_3x3 <- inception_4c/3x3
I1127 22:11:03.728096 17418 net.cpp:419] inception_4c/relu_3x3 -> inception_4c/3x3 (in-place)
I1127 22:11:03.728104 17418 net.cpp:155] Setting up inception_4c/relu_3x3
I1127 22:11:03.728111 17418 net.cpp:163] Top shape: 50 256 14 14 (2508800)
I1127 22:11:03.728114 17418 layer_factory.hpp:76] Creating layer inception_4c/5x5_reduce
I1127 22:11:03.728121 17418 net.cpp:110] Creating Layer inception_4c/5x5_reduce
I1127 22:11:03.728126 17418 net.cpp:477] inception_4c/5x5_reduce <- inception_4b/output_inception_4b/output_0_split_2
I1127 22:11:03.728132 17418 net.cpp:433] inception_4c/5x5_reduce -> inception_4c/5x5_reduce
I1127 22:11:03.728384 17418 net.cpp:155] Setting up inception_4c/5x5_reduce
I1127 22:11:03.728394 17418 net.cpp:163] Top shape: 50 24 14 14 (235200)
I1127 22:11:03.728399 17418 layer_factory.hpp:76] Creating layer inception_4c/relu_5x5_reduce
I1127 22:11:03.728405 17418 net.cpp:110] Creating Layer inception_4c/relu_5x5_reduce
I1127 22:11:03.728410 17418 net.cpp:477] inception_4c/relu_5x5_reduce <- inception_4c/5x5_reduce
I1127 22:11:03.728415 17418 net.cpp:419] inception_4c/relu_5x5_reduce -> inception_4c/5x5_reduce (in-place)
I1127 22:11:03.728420 17418 net.cpp:155] Setting up inception_4c/relu_5x5_reduce
I1127 22:11:03.728425 17418 net.cpp:163] Top shape: 50 24 14 14 (235200)
I1127 22:11:03.728427 17418 layer_factory.hpp:76] Creating layer inception_4c/5x5
I1127 22:11:03.728432 17418 net.cpp:110] Creating Layer inception_4c/5x5
I1127 22:11:03.728436 17418 net.cpp:477] inception_4c/5x5 <- inception_4c/5x5_reduce
I1127 22:11:03.728441 17418 net.cpp:433] inception_4c/5x5 -> inception_4c/5x5
I1127 22:11:03.728837 17418 net.cpp:155] Setting up inception_4c/5x5
I1127 22:11:03.728847 17418 net.cpp:163] Top shape: 50 64 14 14 (627200)
I1127 22:11:03.728852 17418 layer_factory.hpp:76] Creating layer inception_4c/relu_5x5
I1127 22:11:03.728857 17418 net.cpp:110] Creating Layer inception_4c/relu_5x5
I1127 22:11:03.728862 17418 net.cpp:477] inception_4c/relu_5x5 <- inception_4c/5x5
I1127 22:11:03.728865 17418 net.cpp:419] inception_4c/relu_5x5 -> inception_4c/5x5 (in-place)
I1127 22:11:03.728871 17418 net.cpp:155] Setting up inception_4c/relu_5x5
I1127 22:11:03.728875 17418 net.cpp:163] Top shape: 50 64 14 14 (627200)
I1127 22:11:03.728878 17418 layer_factory.hpp:76] Creating layer inception_4c/pool
I1127 22:11:03.728885 17418 net.cpp:110] Creating Layer inception_4c/pool
I1127 22:11:03.728889 17418 net.cpp:477] inception_4c/pool <- inception_4b/output_inception_4b/output_0_split_3
I1127 22:11:03.728894 17418 net.cpp:433] inception_4c/pool -> inception_4c/pool
I1127 22:11:03.728929 17418 net.cpp:155] Setting up inception_4c/pool
I1127 22:11:03.728937 17418 net.cpp:163] Top shape: 50 512 14 14 (5017600)
I1127 22:11:03.728940 17418 layer_factory.hpp:76] Creating layer inception_4c/pool_proj
I1127 22:11:03.728948 17418 net.cpp:110] Creating Layer inception_4c/pool_proj
I1127 22:11:03.728952 17418 net.cpp:477] inception_4c/pool_proj <- inception_4c/pool
I1127 22:11:03.728957 17418 net.cpp:433] inception_4c/pool_proj -> inception_4c/pool_proj
I1127 22:11:03.729321 17418 net.cpp:155] Setting up inception_4c/pool_proj
I1127 22:11:03.729331 17418 net.cpp:163] Top shape: 50 64 14 14 (627200)
I1127 22:11:03.729336 17418 layer_factory.hpp:76] Creating layer inception_4c/relu_pool_proj
I1127 22:11:03.729341 17418 net.cpp:110] Creating Layer inception_4c/relu_pool_proj
I1127 22:11:03.729346 17418 net.cpp:477] inception_4c/relu_pool_proj <- inception_4c/pool_proj
I1127 22:11:03.729351 17418 net.cpp:419] inception_4c/relu_pool_proj -> inception_4c/pool_proj (in-place)
I1127 22:11:03.729356 17418 net.cpp:155] Setting up inception_4c/relu_pool_proj
I1127 22:11:03.729360 17418 net.cpp:163] Top shape: 50 64 14 14 (627200)
I1127 22:11:03.729362 17418 layer_factory.hpp:76] Creating layer inception_4c/output
I1127 22:11:03.729369 17418 net.cpp:110] Creating Layer inception_4c/output
I1127 22:11:03.729372 17418 net.cpp:477] inception_4c/output <- inception_4c/1x1
I1127 22:11:03.729377 17418 net.cpp:477] inception_4c/output <- inception_4c/3x3
I1127 22:11:03.729380 17418 net.cpp:477] inception_4c/output <- inception_4c/5x5
I1127 22:11:03.729384 17418 net.cpp:477] inception_4c/output <- inception_4c/pool_proj
I1127 22:11:03.729388 17418 net.cpp:433] inception_4c/output -> inception_4c/output
I1127 22:11:03.729413 17418 net.cpp:155] Setting up inception_4c/output
I1127 22:11:03.729420 17418 net.cpp:163] Top shape: 50 512 14 14 (5017600)
I1127 22:11:03.729423 17418 layer_factory.hpp:76] Creating layer inception_4c/output_inception_4c/output_0_split
I1127 22:11:03.729429 17418 net.cpp:110] Creating Layer inception_4c/output_inception_4c/output_0_split
I1127 22:11:03.729432 17418 net.cpp:477] inception_4c/output_inception_4c/output_0_split <- inception_4c/output
I1127 22:11:03.729439 17418 net.cpp:433] inception_4c/output_inception_4c/output_0_split -> inception_4c/output_inception_4c/output_0_split_0
I1127 22:11:03.729445 17418 net.cpp:433] inception_4c/output_inception_4c/output_0_split -> inception_4c/output_inception_4c/output_0_split_1
I1127 22:11:03.729454 17418 net.cpp:433] inception_4c/output_inception_4c/output_0_split -> inception_4c/output_inception_4c/output_0_split_2
I1127 22:11:03.729459 17418 net.cpp:433] inception_4c/output_inception_4c/output_0_split -> inception_4c/output_inception_4c/output_0_split_3
I1127 22:11:03.729506 17418 net.cpp:155] Setting up inception_4c/output_inception_4c/output_0_split
I1127 22:11:03.729512 17418 net.cpp:163] Top shape: 50 512 14 14 (5017600)
I1127 22:11:03.729516 17418 net.cpp:163] Top shape: 50 512 14 14 (5017600)
I1127 22:11:03.729519 17418 net.cpp:163] Top shape: 50 512 14 14 (5017600)
I1127 22:11:03.729523 17418 net.cpp:163] Top shape: 50 512 14 14 (5017600)
I1127 22:11:03.729526 17418 layer_factory.hpp:76] Creating layer inception_4d/1x1
I1127 22:11:03.729534 17418 net.cpp:110] Creating Layer inception_4d/1x1
I1127 22:11:03.729539 17418 net.cpp:477] inception_4d/1x1 <- inception_4c/output_inception_4c/output_0_split_0
I1127 22:11:03.729545 17418 net.cpp:433] inception_4d/1x1 -> inception_4d/1x1
I1127 22:11:03.730059 17418 net.cpp:155] Setting up inception_4d/1x1
I1127 22:11:03.730069 17418 net.cpp:163] Top shape: 50 112 14 14 (1097600)
I1127 22:11:03.730075 17418 layer_factory.hpp:76] Creating layer inception_4d/relu_1x1
I1127 22:11:03.730080 17418 net.cpp:110] Creating Layer inception_4d/relu_1x1
I1127 22:11:03.730084 17418 net.cpp:477] inception_4d/relu_1x1 <- inception_4d/1x1
I1127 22:11:03.730089 17418 net.cpp:419] inception_4d/relu_1x1 -> inception_4d/1x1 (in-place)
I1127 22:11:03.730095 17418 net.cpp:155] Setting up inception_4d/relu_1x1
I1127 22:11:03.730099 17418 net.cpp:163] Top shape: 50 112 14 14 (1097600)
I1127 22:11:03.730103 17418 layer_factory.hpp:76] Creating layer inception_4d/3x3_reduce
I1127 22:11:03.730109 17418 net.cpp:110] Creating Layer inception_4d/3x3_reduce
I1127 22:11:03.730113 17418 net.cpp:477] inception_4d/3x3_reduce <- inception_4c/output_inception_4c/output_0_split_1
I1127 22:11:03.730120 17418 net.cpp:433] inception_4d/3x3_reduce -> inception_4d/3x3_reduce
I1127 22:11:03.730727 17418 net.cpp:155] Setting up inception_4d/3x3_reduce
I1127 22:11:03.730736 17418 net.cpp:163] Top shape: 50 144 14 14 (1411200)
I1127 22:11:03.730742 17418 layer_factory.hpp:76] Creating layer inception_4d/relu_3x3_reduce
I1127 22:11:03.730747 17418 net.cpp:110] Creating Layer inception_4d/relu_3x3_reduce
I1127 22:11:03.730751 17418 net.cpp:477] inception_4d/relu_3x3_reduce <- inception_4d/3x3_reduce
I1127 22:11:03.730756 17418 net.cpp:419] inception_4d/relu_3x3_reduce -> inception_4d/3x3_reduce (in-place)
I1127 22:11:03.730762 17418 net.cpp:155] Setting up inception_4d/relu_3x3_reduce
I1127 22:11:03.730765 17418 net.cpp:163] Top shape: 50 144 14 14 (1411200)
I1127 22:11:03.730768 17418 layer_factory.hpp:76] Creating layer inception_4d/3x3
I1127 22:11:03.730773 17418 net.cpp:110] Creating Layer inception_4d/3x3
I1127 22:11:03.730777 17418 net.cpp:477] inception_4d/3x3 <- inception_4d/3x3_reduce
I1127 22:11:03.730784 17418 net.cpp:433] inception_4d/3x3 -> inception_4d/3x3
I1127 22:11:03.733726 17418 net.cpp:155] Setting up inception_4d/3x3
I1127 22:11:03.733741 17418 net.cpp:163] Top shape: 50 288 14 14 (2822400)
I1127 22:11:03.733749 17418 layer_factory.hpp:76] Creating layer inception_4d/relu_3x3
I1127 22:11:03.733755 17418 net.cpp:110] Creating Layer inception_4d/relu_3x3
I1127 22:11:03.733759 17418 net.cpp:477] inception_4d/relu_3x3 <- inception_4d/3x3
I1127 22:11:03.733765 17418 net.cpp:419] inception_4d/relu_3x3 -> inception_4d/3x3 (in-place)
I1127 22:11:03.733773 17418 net.cpp:155] Setting up inception_4d/relu_3x3
I1127 22:11:03.733777 17418 net.cpp:163] Top shape: 50 288 14 14 (2822400)
I1127 22:11:03.733780 17418 layer_factory.hpp:76] Creating layer inception_4d/5x5_reduce
I1127 22:11:03.733786 17418 net.cpp:110] Creating Layer inception_4d/5x5_reduce
I1127 22:11:03.733790 17418 net.cpp:477] inception_4d/5x5_reduce <- inception_4c/output_inception_4c/output_0_split_2
I1127 22:11:03.733798 17418 net.cpp:433] inception_4d/5x5_reduce -> inception_4d/5x5_reduce
I1127 22:11:03.734094 17418 net.cpp:155] Setting up inception_4d/5x5_reduce
I1127 22:11:03.734105 17418 net.cpp:163] Top shape: 50 32 14 14 (313600)
I1127 22:11:03.734112 17418 layer_factory.hpp:76] Creating layer inception_4d/relu_5x5_reduce
I1127 22:11:03.734117 17418 net.cpp:110] Creating Layer inception_4d/relu_5x5_reduce
I1127 22:11:03.734120 17418 net.cpp:477] inception_4d/relu_5x5_reduce <- inception_4d/5x5_reduce
I1127 22:11:03.734127 17418 net.cpp:419] inception_4d/relu_5x5_reduce -> inception_4d/5x5_reduce (in-place)
I1127 22:11:03.734133 17418 net.cpp:155] Setting up inception_4d/relu_5x5_reduce
I1127 22:11:03.734136 17418 net.cpp:163] Top shape: 50 32 14 14 (313600)
I1127 22:11:03.734139 17418 layer_factory.hpp:76] Creating layer inception_4d/5x5
I1127 22:11:03.734145 17418 net.cpp:110] Creating Layer inception_4d/5x5
I1127 22:11:03.734148 17418 net.cpp:477] inception_4d/5x5 <- inception_4d/5x5_reduce
I1127 22:11:03.734153 17418 net.cpp:433] inception_4d/5x5 -> inception_4d/5x5
I1127 22:11:03.734666 17418 net.cpp:155] Setting up inception_4d/5x5
I1127 22:11:03.734676 17418 net.cpp:163] Top shape: 50 64 14 14 (627200)
I1127 22:11:03.734683 17418 layer_factory.hpp:76] Creating layer inception_4d/relu_5x5
I1127 22:11:03.734688 17418 net.cpp:110] Creating Layer inception_4d/relu_5x5
I1127 22:11:03.734691 17418 net.cpp:477] inception_4d/relu_5x5 <- inception_4d/5x5
I1127 22:11:03.734696 17418 net.cpp:419] inception_4d/relu_5x5 -> inception_4d/5x5 (in-place)
I1127 22:11:03.734702 17418 net.cpp:155] Setting up inception_4d/relu_5x5
I1127 22:11:03.734706 17418 net.cpp:163] Top shape: 50 64 14 14 (627200)
I1127 22:11:03.734709 17418 layer_factory.hpp:76] Creating layer inception_4d/pool
I1127 22:11:03.734715 17418 net.cpp:110] Creating Layer inception_4d/pool
I1127 22:11:03.734719 17418 net.cpp:477] inception_4d/pool <- inception_4c/output_inception_4c/output_0_split_3
I1127 22:11:03.734724 17418 net.cpp:433] inception_4d/pool -> inception_4d/pool
I1127 22:11:03.734758 17418 net.cpp:155] Setting up inception_4d/pool
I1127 22:11:03.734766 17418 net.cpp:163] Top shape: 50 512 14 14 (5017600)
I1127 22:11:03.734769 17418 layer_factory.hpp:76] Creating layer inception_4d/pool_proj
I1127 22:11:03.734778 17418 net.cpp:110] Creating Layer inception_4d/pool_proj
I1127 22:11:03.734781 17418 net.cpp:477] inception_4d/pool_proj <- inception_4d/pool
I1127 22:11:03.734787 17418 net.cpp:433] inception_4d/pool_proj -> inception_4d/pool_proj
I1127 22:11:03.735594 17418 net.cpp:155] Setting up inception_4d/pool_proj
I1127 22:11:03.735606 17418 net.cpp:163] Top shape: 50 64 14 14 (627200)
I1127 22:11:03.735620 17418 layer_factory.hpp:76] Creating layer inception_4d/relu_pool_proj
I1127 22:11:03.735626 17418 net.cpp:110] Creating Layer inception_4d/relu_pool_proj
I1127 22:11:03.735630 17418 net.cpp:477] inception_4d/relu_pool_proj <- inception_4d/pool_proj
I1127 22:11:03.735635 17418 net.cpp:419] inception_4d/relu_pool_proj -> inception_4d/pool_proj (in-place)
I1127 22:11:03.735642 17418 net.cpp:155] Setting up inception_4d/relu_pool_proj
I1127 22:11:03.735646 17418 net.cpp:163] Top shape: 50 64 14 14 (627200)
I1127 22:11:03.735649 17418 layer_factory.hpp:76] Creating layer inception_4d/output
I1127 22:11:03.735656 17418 net.cpp:110] Creating Layer inception_4d/output
I1127 22:11:03.735659 17418 net.cpp:477] inception_4d/output <- inception_4d/1x1
I1127 22:11:03.735663 17418 net.cpp:477] inception_4d/output <- inception_4d/3x3
I1127 22:11:03.735667 17418 net.cpp:477] inception_4d/output <- inception_4d/5x5
I1127 22:11:03.735671 17418 net.cpp:477] inception_4d/output <- inception_4d/pool_proj
I1127 22:11:03.735676 17418 net.cpp:433] inception_4d/output -> inception_4d/output
I1127 22:11:03.735698 17418 net.cpp:155] Setting up inception_4d/output
I1127 22:11:03.735705 17418 net.cpp:163] Top shape: 50 528 14 14 (5174400)
I1127 22:11:03.735709 17418 layer_factory.hpp:76] Creating layer inception_4d/output_inception_4d/output_0_split
I1127 22:11:03.735716 17418 net.cpp:110] Creating Layer inception_4d/output_inception_4d/output_0_split
I1127 22:11:03.735720 17418 net.cpp:477] inception_4d/output_inception_4d/output_0_split <- inception_4d/output
I1127 22:11:03.735726 17418 net.cpp:433] inception_4d/output_inception_4d/output_0_split -> inception_4d/output_inception_4d/output_0_split_0
I1127 22:11:03.735733 17418 net.cpp:433] inception_4d/output_inception_4d/output_0_split -> inception_4d/output_inception_4d/output_0_split_1
I1127 22:11:03.735739 17418 net.cpp:433] inception_4d/output_inception_4d/output_0_split -> inception_4d/output_inception_4d/output_0_split_2
I1127 22:11:03.735748 17418 net.cpp:433] inception_4d/output_inception_4d/output_0_split -> inception_4d/output_inception_4d/output_0_split_3
I1127 22:11:03.735752 17418 net.cpp:433] inception_4d/output_inception_4d/output_0_split -> inception_4d/output_inception_4d/output_0_split_4
I1127 22:11:03.735810 17418 net.cpp:155] Setting up inception_4d/output_inception_4d/output_0_split
I1127 22:11:03.735817 17418 net.cpp:163] Top shape: 50 528 14 14 (5174400)
I1127 22:11:03.735821 17418 net.cpp:163] Top shape: 50 528 14 14 (5174400)
I1127 22:11:03.735826 17418 net.cpp:163] Top shape: 50 528 14 14 (5174400)
I1127 22:11:03.735828 17418 net.cpp:163] Top shape: 50 528 14 14 (5174400)
I1127 22:11:03.735831 17418 net.cpp:163] Top shape: 50 528 14 14 (5174400)
I1127 22:11:03.735834 17418 layer_factory.hpp:76] Creating layer loss2/ave_pool
I1127 22:11:03.735841 17418 net.cpp:110] Creating Layer loss2/ave_pool
I1127 22:11:03.735844 17418 net.cpp:477] loss2/ave_pool <- inception_4d/output_inception_4d/output_0_split_0
I1127 22:11:03.735852 17418 net.cpp:433] loss2/ave_pool -> loss2/ave_pool
I1127 22:11:03.735879 17418 net.cpp:155] Setting up loss2/ave_pool
I1127 22:11:03.735888 17418 net.cpp:163] Top shape: 50 528 4 4 (422400)
I1127 22:11:03.735890 17418 layer_factory.hpp:76] Creating layer loss2/conv
I1127 22:11:03.735898 17418 net.cpp:110] Creating Layer loss2/conv
I1127 22:11:03.735903 17418 net.cpp:477] loss2/conv <- loss2/ave_pool
I1127 22:11:03.735909 17418 net.cpp:433] loss2/conv -> loss2/conv
I1127 22:11:03.736829 17418 net.cpp:155] Setting up loss2/conv
I1127 22:11:03.736840 17418 net.cpp:163] Top shape: 50 128 4 4 (102400)
I1127 22:11:03.736846 17418 layer_factory.hpp:76] Creating layer loss2/relu_conv
I1127 22:11:03.736852 17418 net.cpp:110] Creating Layer loss2/relu_conv
I1127 22:11:03.736857 17418 net.cpp:477] loss2/relu_conv <- loss2/conv
I1127 22:11:03.736862 17418 net.cpp:419] loss2/relu_conv -> loss2/conv (in-place)
I1127 22:11:03.736870 17418 net.cpp:155] Setting up loss2/relu_conv
I1127 22:11:03.736873 17418 net.cpp:163] Top shape: 50 128 4 4 (102400)
I1127 22:11:03.736876 17418 layer_factory.hpp:76] Creating layer loss2/fc
I1127 22:11:03.736884 17418 net.cpp:110] Creating Layer loss2/fc
I1127 22:11:03.736891 17418 net.cpp:477] loss2/fc <- loss2/conv
I1127 22:11:03.736896 17418 net.cpp:433] loss2/fc -> loss2/fc
I1127 22:11:03.751703 17418 net.cpp:155] Setting up loss2/fc
I1127 22:11:03.751727 17418 net.cpp:163] Top shape: 50 1024 (51200)
I1127 22:11:03.751737 17418 layer_factory.hpp:76] Creating layer loss2/relu_fc
I1127 22:11:03.751747 17418 net.cpp:110] Creating Layer loss2/relu_fc
I1127 22:11:03.751752 17418 net.cpp:477] loss2/relu_fc <- loss2/fc
I1127 22:11:03.751761 17418 net.cpp:419] loss2/relu_fc -> loss2/fc (in-place)
I1127 22:11:03.751775 17418 net.cpp:155] Setting up loss2/relu_fc
I1127 22:11:03.751780 17418 net.cpp:163] Top shape: 50 1024 (51200)
I1127 22:11:03.751783 17418 layer_factory.hpp:76] Creating layer loss2/drop_fc
I1127 22:11:03.751790 17418 net.cpp:110] Creating Layer loss2/drop_fc
I1127 22:11:03.751792 17418 net.cpp:477] loss2/drop_fc <- loss2/fc
I1127 22:11:03.751798 17418 net.cpp:419] loss2/drop_fc -> loss2/fc (in-place)
I1127 22:11:03.751822 17418 net.cpp:155] Setting up loss2/drop_fc
I1127 22:11:03.751829 17418 net.cpp:163] Top shape: 50 1024 (51200)
I1127 22:11:03.751832 17418 layer_factory.hpp:76] Creating layer loss2/classifier
I1127 22:11:03.751842 17418 net.cpp:110] Creating Layer loss2/classifier
I1127 22:11:03.751848 17418 net.cpp:477] loss2/classifier <- loss2/fc
I1127 22:11:03.751855 17418 net.cpp:433] loss2/classifier -> loss2/classifier
I1127 22:11:03.763659 17418 net.cpp:155] Setting up loss2/classifier
I1127 22:11:03.763684 17418 net.cpp:163] Top shape: 50 1000 (50000)
I1127 22:11:03.763695 17418 layer_factory.hpp:76] Creating layer loss2/classifier_loss2/classifier_0_split
I1127 22:11:03.763703 17418 net.cpp:110] Creating Layer loss2/classifier_loss2/classifier_0_split
I1127 22:11:03.763707 17418 net.cpp:477] loss2/classifier_loss2/classifier_0_split <- loss2/classifier
I1127 22:11:03.763715 17418 net.cpp:433] loss2/classifier_loss2/classifier_0_split -> loss2/classifier_loss2/classifier_0_split_0
I1127 22:11:03.763725 17418 net.cpp:433] loss2/classifier_loss2/classifier_0_split -> loss2/classifier_loss2/classifier_0_split_1
I1127 22:11:03.763764 17418 net.cpp:155] Setting up loss2/classifier_loss2/classifier_0_split
I1127 22:11:03.763773 17418 net.cpp:163] Top shape: 50 1000 (50000)
I1127 22:11:03.763777 17418 net.cpp:163] Top shape: 50 1000 (50000)
I1127 22:11:03.763780 17418 layer_factory.hpp:76] Creating layer loss2/loss
I1127 22:11:03.763785 17418 net.cpp:110] Creating Layer loss2/loss
I1127 22:11:03.763789 17418 net.cpp:477] loss2/loss <- loss2/classifier_loss2/classifier_0_split_0
I1127 22:11:03.763794 17418 net.cpp:477] loss2/loss <- label_data_1_split_2
I1127 22:11:03.763800 17418 net.cpp:433] loss2/loss -> loss2/loss1
I1127 22:11:03.763809 17418 layer_factory.hpp:76] Creating layer loss2/loss
…
I1127 22:11:03.763972 17418 net.cpp:433] loss2/top-1 -> loss2/top-1
I1127 22:11:03.763981 17418 net.cpp:155] Setting up loss2/top-1
I1127 22:11:03.763988 17418 net.cpp:163] Top shape: (1)
I1127 22:11:03.763991 17418 layer_factory.hpp:76] Creating layer inception_4e/1x1
I1127 22:11:03.764000 17418 net.cpp:110] Creating Layer inception_4e/1x1
I1127 22:11:03.764004 17418 net.cpp:477] inception_4e/1x1 <- inception_4d/output_inception_4d/output_0_split_1
I1127 22:11:03.764013 17418 net.cpp:433] inception_4e/1x1 -> inception_4e/1x1
I1127 22:11:03.765008 17418 net.cpp:155] Setting up inception_4e/1x1
I1127 22:11:03.765018 17418 net.cpp:163] Top shape: 50 256 14 14 (2508800)
I1127 22:11:03.765024 17418 layer_factory.hpp:76] Creating layer inception_4e/relu_1x1
I1127 22:11:03.765032 17418 net.cpp:110] Creating Layer inception_4e/relu_1x1
I1127 22:11:03.765034 17418 net.cpp:477] inception_4e/relu_1x1 <- inception_4e/1x1
I1127 22:11:03.765039 17418 net.cpp:419] inception_4e/relu_1x1 -> inception_4e/1x1 (in-place)
I1127 22:11:03.765045 17418 net.cpp:155] Setting up inception_4e/relu_1x1
I1127 22:11:03.765050 17418 net.cpp:163] Top shape: 50 256 14 14 (2508800)
I1127 22:11:03.765053 17418 layer_factory.hpp:76] Creating layer inception_4e/3x3_reduce
I1127 22:11:03.765060 17418 net.cpp:110] Creating Layer inception_4e/3x3_reduce
I1127 22:11:03.765064 17418 net.cpp:477] inception_4e/3x3_reduce <- inception_4d/output_inception_4d/output_0_split_2
I1127 22:11:03.765069 17418 net.cpp:433] inception_4e/3x3_reduce -> inception_4e/3x3_reduce
I1127 22:11:03.766152 17418 net.cpp:155] Setting up inception_4e/3x3_reduce
I1127 22:11:03.766163 17418 net.cpp:163] Top shape: 50 160 14 14 (1568000)
I1127 22:11:03.766170 17418 layer_factory.hpp:76] Creating layer inception_4e/relu_3x3_reduce
I1127 22:11:03.766176 17418 net.cpp:110] Creating Layer inception_4e/relu_3x3_reduce
I1127 22:11:03.766180 17418 net.cpp:477] inception_4e/relu_3x3_reduce <- inception_4e/3x3_reduce
I1127 22:11:03.766186 17418 net.cpp:419] inception_4e/relu_3x3_reduce -> inception_4e/3x3_reduce (in-place)
I1127 22:11:03.766193 17418 net.cpp:155] Setting up inception_4e/relu_3x3_reduce
I1127 22:11:03.766197 17418 net.cpp:163] Top shape: 50 160 14 14 (1568000)
I1127 22:11:03.766201 17418 layer_factory.hpp:76] Creating layer inception_4e/3x3
I1127 22:11:03.766219 17418 net.cpp:110] Creating Layer inception_4e/3x3
I1127 22:11:03.766228 17418 net.cpp:477] inception_4e/3x3 <- inception_4e/3x3_reduce
I1127 22:11:03.766234 17418 net.cpp:433] inception_4e/3x3 -> inception_4e/3x3
I1127 22:11:03.769824 17418 net.cpp:155] Setting up inception_4e/3x3
I1127 22:11:03.769842 17418 net.cpp:163] Top shape: 50 320 14 14 (3136000)
I1127 22:11:03.769852 17418 layer_factory.hpp:76] Creating layer inception_4e/relu_3x3
I1127 22:11:03.769860 17418 net.cpp:110] Creating Layer inception_4e/relu_3x3
I1127 22:11:03.769865 17418 net.cpp:477] inception_4e/relu_3x3 <- inception_4e/3x3
I1127 22:11:03.769872 17418 net.cpp:419] inception_4e/relu_3x3 -> inception_4e/3x3 (in-place)
I1127 22:11:03.769881 17418 net.cpp:155] Setting up inception_4e/relu_3x3
I1127 22:11:03.769886 17418 net.cpp:163] Top shape: 50 320 14 14 (3136000)
I1127 22:11:03.769889 17418 layer_factory.hpp:76] Creating layer inception_4e/5x5_reduce
I1127 22:11:03.769896 17418 net.cpp:110] Creating Layer inception_4e/5x5_reduce
I1127 22:11:03.769901 17418 net.cpp:477] inception_4e/5x5_reduce <- inception_4d/output_inception_4d/output_0_split_3
I1127 22:11:03.769907 17418 net.cpp:433] inception_4e/5x5_reduce -> inception_4e/5x5_reduce
I1127 22:11:03.770222 17418 net.cpp:155] Setting up inception_4e/5x5_reduce
I1127 22:11:03.770232 17418 net.cpp:163] Top shape: 50 32 14 14 (313600)
I1127 22:11:03.770238 17418 layer_factory.hpp:76] Creating layer inception_4e/relu_5x5_reduce
I1127 22:11:03.770244 17418 net.cpp:110] Creating Layer inception_4e/relu_5x5_reduce
I1127 22:11:03.770247 17418 net.cpp:477] inception_4e/relu_5x5_reduce <- inception_4e/5x5_reduce
I1127 22:11:03.770252 17418 net.cpp:419] inception_4e/relu_5x5_reduce -> inception_4e/5x5_reduce (in-place)
I1127 22:11:03.770258 17418 net.cpp:155] Setting up inception_4e/relu_5x5_reduce
I1127 22:11:03.770263 17418 net.cpp:163] Top shape: 50 32 14 14 (313600)
I1127 22:11:03.770267 17418 layer_factory.hpp:76] Creating layer inception_4e/5x5
I1127 22:11:03.770273 17418 net.cpp:110] Creating Layer inception_4e/5x5
I1127 22:11:03.770277 17418 net.cpp:477] inception_4e/5x5 <- inception_4e/5x5_reduce
I1127 22:11:03.770283 17418 net.cpp:433] inception_4e/5x5 -> inception_4e/5x5
I1127 22:11:03.771067 17418 net.cpp:155] Setting up inception_4e/5x5
I1127 22:11:03.771076 17418 net.cpp:163] Top shape: 50 128 14 14 (1254400)
I1127 22:11:03.771083 17418 layer_factory.hpp:76] Creating layer inception_4e/relu_5x5
I1127 22:11:03.771090 17418 net.cpp:110] Creating Layer inception_4e/relu_5x5
I1127 22:11:03.771093 17418 net.cpp:477] inception_4e/relu_5x5 <- inception_4e/5x5
I1127 22:11:03.771097 17418 net.cpp:419] inception_4e/relu_5x5 -> inception_4e/5x5 (in-place)
I1127 22:11:03.771103 17418 net.cpp:155] Setting up inception_4e/relu_5x5
I1127 22:11:03.771107 17418 net.cpp:163] Top shape: 50 128 14 14 (1254400)
I1127 22:11:03.771111 17418 layer_factory.hpp:76] Creating layer inception_4e/pool
I1127 22:11:03.771116 17418 net.cpp:110] Creating Layer inception_4e/pool
I1127 22:11:03.771119 17418 net.cpp:477] inception_4e/pool <- inception_4d/output_inception_4d/output_0_split_4
I1127 22:11:03.771124 17418 net.cpp:433] inception_4e/pool -> inception_4e/pool
I1127 22:11:03.771160 17418 net.cpp:155] Setting up inception_4e/pool
I1127 22:11:03.771168 17418 net.cpp:163] Top shape: 50 528 14 14 (5174400)
I1127 22:11:03.771173 17418 layer_factory.hpp:76] Creating layer inception_4e/pool_proj
I1127 22:11:03.771179 17418 net.cpp:110] Creating Layer inception_4e/pool_proj
I1127 22:11:03.771183 17418 net.cpp:477] inception_4e/pool_proj <- inception_4e/pool
I1127 22:11:03.771188 17418 net.cpp:433] inception_4e/pool_proj -> inception_4e/pool_proj
I1127 22:11:03.771756 17418 net.cpp:155] Setting up inception_4e/pool_proj
I1127 22:11:03.771765 17418 net.cpp:163] Top shape: 50 128 14 14 (1254400)
I1127 22:11:03.771771 17418 layer_factory.hpp:76] Creating layer inception_4e/relu_pool_proj
I1127 22:11:03.771777 17418 net.cpp:110] Creating Layer inception_4e/relu_pool_proj
I1127 22:11:03.771781 17418 net.cpp:477] inception_4e/relu_pool_proj <- inception_4e/pool_proj
I1127 22:11:03.771786 17418 net.cpp:419] inception_4e/relu_pool_proj -> inception_4e/pool_proj (in-place)
I1127 22:11:03.771792 17418 net.cpp:155] Setting up inception_4e/relu_pool_proj
I1127 22:11:03.771796 17418 net.cpp:163] Top shape: 50 128 14 14 (1254400)
I1127 22:11:03.771800 17418 layer_factory.hpp:76] Creating layer inception_4e/output
I1127 22:11:03.771805 17418 net.cpp:110] Creating Layer inception_4e/output
I1127 22:11:03.771808 17418 net.cpp:477] inception_4e/output <- inception_4e/1x1
I1127 22:11:03.771812 17418 net.cpp:477] inception_4e/output <- inception_4e/3x3
I1127 22:11:03.771816 17418 net.cpp:477] inception_4e/output <- inception_4e/5x5
I1127 22:11:03.771819 17418 net.cpp:477] inception_4e/output <- inception_4e/pool_proj
I1127 22:11:03.771824 17418 net.cpp:433] inception_4e/output -> inception_4e/output
I1127 22:11:03.771845 17418 net.cpp:155] Setting up inception_4e/output
I1127 22:11:03.771855 17418 net.cpp:163] Top shape: 50 832 14 14 (8153600)
I1127 22:11:03.771858 17418 layer_factory.hpp:76] Creating layer pool4/3x3_s2
I1127 22:11:03.771865 17418 net.cpp:110] Creating Layer pool4/3x3_s2
I1127 22:11:03.771869 17418 net.cpp:477] pool4/3x3_s2 <- inception_4e/output
I1127 22:11:03.771875 17418 net.cpp:433] pool4/3x3_s2 -> pool4/3x3_s2
I1127 22:11:03.771906 17418 net.cpp:155] Setting up pool4/3x3_s2
I1127 22:11:03.771914 17418 net.cpp:163] Top shape: 50 832 7 7 (2038400)
I1127 22:11:03.771917 17418 layer_factory.hpp:76] Creating layer pool4/3x3_s2_pool4/3x3_s2_0_split
I1127 22:11:03.771925 17418 net.cpp:110] Creating Layer pool4/3x3_s2_pool4/3x3_s2_0_split
I1127 22:11:03.771929 17418 net.cpp:477] pool4/3x3_s2_pool4/3x3_s2_0_split <- pool4/3x3_s2
I1127 22:11:03.771934 17418 net.cpp:433] pool4/3x3_s2_pool4/3x3_s2_0_split -> pool4/3x3_s2_pool4/3x3_s2_0_split_0
I1127 22:11:03.771939 17418 net.cpp:433] pool4/3x3_s2_pool4/3x3_s2_0_split -> pool4/3x3_s2_pool4/3x3_s2_0_split_1
I1127 22:11:03.771945 17418 net.cpp:433] pool4/3x3_s2_pool4/3x3_s2_0_split -> pool4/3x3_s2_pool4/3x3_s2_0_split_2
I1127 22:11:03.771950 17418 net.cpp:433] pool4/3x3_s2_pool4/3x3_s2_0_split -> pool4/3x3_s2_pool4/3x3_s2_0_split_3
I1127 22:11:03.771998 17418 net.cpp:155] Setting up pool4/3x3_s2_pool4/3x3_s2_0_split
I1127 22:11:03.772006 17418 net.cpp:163] Top shape: 50 832 7 7 (2038400)
I1127 22:11:03.772011 17418 net.cpp:163] Top shape: 50 832 7 7 (2038400)
I1127 22:11:03.772013 17418 net.cpp:163] Top shape: 50 832 7 7 (2038400)
I1127 22:11:03.772017 17418 net.cpp:163] Top shape: 50 832 7 7 (2038400)
I1127 22:11:03.772020 17418 layer_factory.hpp:76] Creating layer inception_5a/1x1
I1127 22:11:03.772027 17418 net.cpp:110] Creating Layer inception_5a/1x1
I1127 22:11:03.772032 17418 net.cpp:477] inception_5a/1x1 <- pool4/3x3_s2_pool4/3x3_s2_0_split_0
I1127 22:11:03.772038 17418 net.cpp:433] inception_5a/1x1 -> inception_5a/1x1
I1127 22:11:03.773874 17418 net.cpp:155] Setting up inception_5a/1x1
I1127 22:11:03.773887 17418 net.cpp:163] Top shape: 50 256 7 7 (627200)
I1127 22:11:03.773895 17418 layer_factory.hpp:76] Creating layer inception_5a/relu_1x1
I1127 22:11:03.773900 17418 net.cpp:110] Creating Layer inception_5a/relu_1x1
I1127 22:11:03.773903 17418 net.cpp:477] inception_5a/relu_1x1 <- inception_5a/1x1
I1127 22:11:03.773908 17418 net.cpp:419] inception_5a/relu_1x1 -> inception_5a/1x1 (in-place)
I1127 22:11:03.773916 17418 net.cpp:155] Setting up inception_5a/relu_1x1
I1127 22:11:03.773919 17418 net.cpp:163] Top shape: 50 256 7 7 (627200)
I1127 22:11:03.773922 17418 layer_factory.hpp:76] Creating layer inception_5a/3x3_reduce
I1127 22:11:03.773929 17418 net.cpp:110] Creating Layer inception_5a/3x3_reduce
I1127 22:11:03.773933 17418 net.cpp:477] inception_5a/3x3_reduce <- pool4/3x3_s2_pool4/3x3_s2_0_split_1
I1127 22:11:03.773941 17418 net.cpp:433] inception_5a/3x3_reduce -> inception_5a/3x3_reduce
I1127 22:11:03.775243 17418 net.cpp:155] Setting up inception_5a/3x3_reduce
I1127 22:11:03.775255 17418 net.cpp:163] Top shape: 50 160 7 7 (392000)
I1127 22:11:03.775262 17418 layer_factory.hpp:76] Creating layer inception_5a/relu_3x3_reduce
I1127 22:11:03.775267 17418 net.cpp:110] Creating Layer inception_5a/relu_3x3_reduce
I1127 22:11:03.775271 17418 net.cpp:477] inception_5a/relu_3x3_reduce <- inception_5a/3x3_reduce
I1127 22:11:03.775276 17418 net.cpp:419] inception_5a/relu_3x3_reduce -> inception_5a/3x3_reduce (in-place)
I1127 22:11:03.775284 17418 net.cpp:155] Setting up inception_5a/relu_3x3_reduce
I1127 22:11:03.775287 17418 net.cpp:163] Top shape: 50 160 7 7 (392000)
I1127 22:11:03.775291 17418 layer_factory.hpp:76] Creating layer inception_5a/3x3
I1127 22:11:03.775298 17418 net.cpp:110] Creating Layer inception_5a/3x3
I1127 22:11:03.775302 17418 net.cpp:477] inception_5a/3x3 <- inception_5a/3x3_reduce
I1127 22:11:03.775308 17418 net.cpp:433] inception_5a/3x3 -> inception_5a/3x3
I1127 22:11:03.778800 17418 net.cpp:155] Setting up inception_5a/3x3
I1127 22:11:03.778815 17418 net.cpp:163] Top shape: 50 320 7 7 (784000)
I1127 22:11:03.778823 17418 layer_factory.hpp:76] Creating layer inception_5a/relu_3x3
I1127 22:11:03.778831 17418 net.cpp:110] Creating Layer inception_5a/relu_3x3
I1127 22:11:03.778836 17418 net.cpp:477] inception_5a/relu_3x3 <- inception_5a/3x3
I1127 22:11:03.778842 17418 net.cpp:419] inception_5a/relu_3x3 -> inception_5a/3x3 (in-place)
I1127 22:11:03.778849 17418 net.cpp:155] Setting up inception_5a/relu_3x3
I1127 22:11:03.778853 17418 net.cpp:163] Top shape: 50 320 7 7 (784000)
I1127 22:11:03.778856 17418 layer_factory.hpp:76] Creating layer inception_5a/5x5_reduce
I1127 22:11:03.778866 17418 net.cpp:110] Creating Layer inception_5a/5x5_reduce
I1127 22:11:03.778869 17418 net.cpp:477] inception_5a/5x5_reduce <- pool4/3x3_s2_pool4/3x3_s2_0_split_2
I1127 22:11:03.778877 17418 net.cpp:433] inception_5a/5x5_reduce -> inception_5a/5x5_reduce
I1127 22:11:03.779220 17418 net.cpp:155] Setting up inception_5a/5x5_reduce
I1127 22:11:03.779230 17418 net.cpp:163] Top shape: 50 32 7 7 (78400)
I1127 22:11:03.779237 17418 layer_factory.hpp:76] Creating layer inception_5a/relu_5x5_reduce
I1127 22:11:03.779242 17418 net.cpp:110] Creating Layer inception_5a/relu_5x5_reduce
I1127 22:11:03.779244 17418 net.cpp:477] inception_5a/relu_5x5_reduce <- inception_5a/5x5_reduce
I1127 22:11:03.779249 17418 net.cpp:419] inception_5a/relu_5x5_reduce -> inception_5a/5x5_reduce (in-place)
I1127 22:11:03.779255 17418 net.cpp:155] Setting up inception_5a/relu_5x5_reduce
I1127 22:11:03.779259 17418 net.cpp:163] Top shape: 50 32 7 7 (78400)
I1127 22:11:03.779263 17418 layer_factory.hpp:76] Creating layer inception_5a/5x5
I1127 22:11:03.779270 17418 net.cpp:110] Creating Layer inception_5a/5x5
I1127 22:11:03.779273 17418 net.cpp:477] inception_5a/5x5 <- inception_5a/5x5_reduce
I1127 22:11:03.779279 17418 net.cpp:433] inception_5a/5x5 -> inception_5a/5x5
I1127 22:11:03.780092 17418 net.cpp:155] Setting up inception_5a/5x5
I1127 22:11:03.780102 17418 net.cpp:163] Top shape: 50 128 7 7 (313600)
I1127 22:11:03.780108 17418 layer_factory.hpp:76] Creating layer inception_5a/relu_5x5
I1127 22:11:03.780113 17418 net.cpp:110] Creating Layer inception_5a/relu_5x5
I1127 22:11:03.780117 17418 net.cpp:477] inception_5a/relu_5x5 <- inception_5a/5x5
I1127 22:11:03.780128 17418 net.cpp:419] inception_5a/relu_5x5 -> inception_5a/5x5 (in-place)
I1127 22:11:03.780134 17418 net.cpp:155] Setting up inception_5a/relu_5x5
I1127 22:11:03.780138 17418 net.cpp:163] Top shape: 50 128 7 7 (313600)
I1127 22:11:03.780143 17418 layer_factory.hpp:76] Creating layer inception_5a/pool
I1127 22:11:03.780148 17418 net.cpp:110] Creating Layer inception_5a/pool
I1127 22:11:03.780151 17418 net.cpp:477] inception_5a/pool <- pool4/3x3_s2_pool4/3x3_s2_0_split_3
I1127 22:11:03.780158 17418 net.cpp:433] inception_5a/pool -> inception_5a/pool
I1127 22:11:03.780194 17418 net.cpp:155] Setting up inception_5a/pool
I1127 22:11:03.780201 17418 net.cpp:163] Top shape: 50 832 7 7 (2038400)
I1127 22:11:03.780205 17418 layer_factory.hpp:76] Creating layer inception_5a/pool_proj
I1127 22:11:03.780211 17418 net.cpp:110] Creating Layer inception_5a/pool_proj
I1127 22:11:03.780215 17418 net.cpp:477] inception_5a/pool_proj <- inception_5a/pool
I1127 22:11:03.780222 17418 net.cpp:433] inception_5a/pool_proj -> inception_5a/pool_proj
I1127 22:11:03.781388 17418 net.cpp:155] Setting up inception_5a/pool_proj
I1127 22:11:03.781399 17418 net.cpp:163] Top shape: 50 128 7 7 (313600)
I1127 22:11:03.781407 17418 layer_factory.hpp:76] Creating layer inception_5a/relu_pool_proj
I1127 22:11:03.781414 17418 net.cpp:110] Creating Layer inception_5a/relu_pool_proj
I1127 22:11:03.781416 17418 net.cpp:477] inception_5a/relu_pool_proj <- inception_5a/pool_proj
I1127 22:11:03.781421 17418 net.cpp:419] inception_5a/relu_pool_proj -> inception_5a/pool_proj (in-place)
I1127 22:11:03.781429 17418 net.cpp:155] Setting up inception_5a/relu_pool_proj
I1127 22:11:03.781432 17418 net.cpp:163] Top shape: 50 128 7 7 (313600)
I1127 22:11:03.781435 17418 layer_factory.hpp:76] Creating layer inception_5a/output
I1127 22:11:03.781440 17418 net.cpp:110] Creating Layer inception_5a/output
I1127 22:11:03.781443 17418 net.cpp:477] inception_5a/output <- inception_5a/1x1
I1127 22:11:03.781447 17418 net.cpp:477] inception_5a/output <- inception_5a/3x3
I1127 22:11:03.781451 17418 net.cpp:477] inception_5a/output <- inception_5a/5x5
I1127 22:11:03.781455 17418 net.cpp:477] inception_5a/output <- inception_5a/pool_proj
I1127 22:11:03.781460 17418 net.cpp:433] inception_5a/output -> inception_5a/output
I1127 22:11:03.781486 17418 net.cpp:155] Setting up inception_5a/output
I1127 22:11:03.781493 17418 net.cpp:163] Top shape: 50 832 7 7 (2038400)
I1127 22:11:03.781497 17418 layer_factory.hpp:76] Creating layer inception_5a/output_inception_5a/output_0_split
I1127 22:11:03.781502 17418 net.cpp:110] Creating Layer inception_5a/output_inception_5a/output_0_split
I1127 22:11:03.781507 17418 net.cpp:477] inception_5a/output_inception_5a/output_0_split <- inception_5a/output
I1127 22:11:03.781512 17418 net.cpp:433] inception_5a/output_inception_5a/output_0_split -> inception_5a/output_inception_5a/output_0_split_0
I1127 22:11:03.781519 17418 net.cpp:433] inception_5a/output_inception_5a/output_0_split -> inception_5a/output_inception_5a/output_0_split_1
I1127 22:11:03.781525 17418 net.cpp:433] inception_5a/output_inception_5a/output_0_split -> inception_5a/output_inception_5a/output_0_split_2
I1127 22:11:03.781535 17418 net.cpp:433] inception_5a/output_inception_5a/output_0_split -> inception_5a/output_inception_5a/output_0_split_3
I1127 22:11:03.781584 17418 net.cpp:155] Setting up inception_5a/output_inception_5a/output_0_split
I1127 22:11:03.781592 17418 net.cpp:163] Top shape: 50 832 7 7 (2038400)
I1127 22:11:03.781596 17418 net.cpp:163] Top shape: 50 832 7 7 (2038400)
I1127 22:11:03.781600 17418 net.cpp:163] Top shape: 50 832 7 7 (2038400)
I1127 22:11:03.781604 17418 net.cpp:163] Top shape: 50 832 7 7 (2038400)
I1127 22:11:03.781606 17418 layer_factory.hpp:76] Creating layer inception_5b/1x1
I1127 22:11:03.781612 17418 net.cpp:110] Creating Layer inception_5b/1x1
I1127 22:11:03.781616 17418 net.cpp:477] inception_5b/1x1 <- inception_5a/output_inception_5a/output_0_split_0
I1127 22:11:03.781623 17418 net.cpp:433] inception_5b/1x1 -> inception_5b/1x1
I1127 22:11:03.784236 17418 net.cpp:155] Setting up inception_5b/1x1
I1127 22:11:03.784252 17418 net.cpp:163] Top shape: 50 384 7 7 (940800)
I1127 22:11:03.784260 17418 layer_factory.hpp:76] Creating layer inception_5b/relu_1x1
I1127 22:11:03.784266 17418 net.cpp:110] Creating Layer inception_5b/relu_1x1
I1127 22:11:03.784271 17418 net.cpp:477] inception_5b/relu_1x1 <- inception_5b/1x1
I1127 22:11:03.784276 17418 net.cpp:419] inception_5b/relu_1x1 -> inception_5b/1x1 (in-place)
I1127 22:11:03.784283 17418 net.cpp:155] Setting up inception_5b/relu_1x1
I1127 22:11:03.784287 17418 net.cpp:163] Top shape: 50 384 7 7 (940800)
I1127 22:11:03.784291 17418 layer_factory.hpp:76] Creating layer inception_5b/3x3_reduce
I1127 22:11:03.784299 17418 net.cpp:110] Creating Layer inception_5b/3x3_reduce
I1127 22:11:03.784303 17418 net.cpp:477] inception_5b/3x3_reduce <- inception_5a/output_inception_5a/output_0_split_1
I1127 22:11:03.784310 17418 net.cpp:433] inception_5b/3x3_reduce -> inception_5b/3x3_reduce
I1127 22:11:03.785799 17418 net.cpp:155] Setting up inception_5b/3x3_reduce
I1127 22:11:03.785810 17418 net.cpp:163] Top shape: 50 192 7 7 (470400)
I1127 22:11:03.785817 17418 layer_factory.hpp:76] Creating layer inception_5b/relu_3x3_reduce
I1127 22:11:03.785823 17418 net.cpp:110] Creating Layer inception_5b/relu_3x3_reduce
I1127 22:11:03.785827 17418 net.cpp:477] inception_5b/relu_3x3_reduce <- inception_5b/3x3_reduce
I1127 22:11:03.785833 17418 net.cpp:419] inception_5b/relu_3x3_reduce -> inception_5b/3x3_reduce (in-place)
I1127 22:11:03.785840 17418 net.cpp:155] Setting up inception_5b/relu_3x3_reduce
I1127 22:11:03.785845 17418 net.cpp:163] Top shape: 50 192 7 7 (470400)
I1127 22:11:03.785847 17418 layer_factory.hpp:76] Creating layer inception_5b/3x3
I1127 22:11:03.785856 17418 net.cpp:110] Creating Layer inception_5b/3x3
I1127 22:11:03.785858 17418 net.cpp:477] inception_5b/3x3 <- inception_5b/3x3_reduce
I1127 22:11:03.785866 17418 net.cpp:433] inception_5b/3x3 -> inception_5b/3x3
I1127 22:11:03.790930 17418 net.cpp:155] Setting up inception_5b/3x3
I1127 22:11:03.790953 17418 net.cpp:163] Top shape: 50 384 7 7 (940800)
I1127 22:11:03.790963 17418 layer_factory.hpp:76] Creating layer inception_5b/relu_3x3
I1127 22:11:03.790973 17418 net.cpp:110] Creating Layer inception_5b/relu_3x3
I1127 22:11:03.790978 17418 net.cpp:477] inception_5b/relu_3x3 <- inception_5b/3x3
I1127 22:11:03.790985 17418 net.cpp:419] inception_5b/relu_3x3 -> inception_5b/3x3 (in-place)
I1127 22:11:03.790997 17418 net.cpp:155] Setting up inception_5b/relu_3x3
I1127 22:11:03.791000 17418 net.cpp:163] Top shape: 50 384 7 7 (940800)
I1127 22:11:03.791003 17418 layer_factory.hpp:76] Creating layer inception_5b/5x5_reduce
I1127 22:11:03.791013 17418 net.cpp:110] Creating Layer inception_5b/5x5_reduce
I1127 22:11:03.791016 17418 net.cpp:477] inception_5b/5x5_reduce <- inception_5a/output_inception_5a/output_0_split_2
I1127 22:11:03.791023 17418 net.cpp:433] inception_5b/5x5_reduce -> inception_5b/5x5_reduce
I1127 22:11:03.791457 17418 net.cpp:155] Setting up inception_5b/5x5_reduce
I1127 22:11:03.791467 17418 net.cpp:163] Top shape: 50 48 7 7 (117600)
I1127 22:11:03.791473 17418 layer_factory.hpp:76] Creating layer inception_5b/relu_5x5_reduce
I1127 22:11:03.791478 17418 net.cpp:110] Creating Layer inception_5b/relu_5x5_reduce
I1127 22:11:03.791481 17418 net.cpp:477] inception_5b/relu_5x5_reduce <- inception_5b/5x5_reduce
I1127 22:11:03.791486 17418 net.cpp:419] inception_5b/relu_5x5_reduce -> inception_5b/5x5_reduce (in-place)
I1127 22:11:03.791493 17418 net.cpp:155] Setting up inception_5b/relu_5x5_reduce
I1127 22:11:03.791497 17418 net.cpp:163] Top shape: 50 48 7 7 (117600)
I1127 22:11:03.791501 17418 layer_factory.hpp:76] Creating layer inception_5b/5x5
I1127 22:11:03.791507 17418 net.cpp:110] Creating Layer inception_5b/5x5
I1127 22:11:03.791509 17418 net.cpp:477] inception_5b/5x5 <- inception_5b/5x5_reduce
I1127 22:11:03.791517 17418 net.cpp:433] inception_5b/5x5 -> inception_5b/5x5
I1127 22:11:03.792610 17418 net.cpp:155] Setting up inception_5b/5x5
I1127 22:11:03.792619 17418 net.cpp:163] Top shape: 50 128 7 7 (313600)
I1127 22:11:03.792625 17418 layer_factory.hpp:76] Creating layer inception_5b/relu_5x5
I1127 22:11:03.792630 17418 net.cpp:110] Creating Layer inception_5b/relu_5x5
I1127 22:11:03.792634 17418 net.cpp:477] inception_5b/relu_5x5 <- inception_5b/5x5
I1127 22:11:03.792640 17418 net.cpp:419] inception_5b/relu_5x5 -> inception_5b/5x5 (in-place)
I1127 22:11:03.792646 17418 net.cpp:155] Setting up inception_5b/relu_5x5
I1127 22:11:03.792650 17418 net.cpp:163] Top shape: 50 128 7 7 (313600)
I1127 22:11:03.792654 17418 layer_factory.hpp:76] Creating layer inception_5b/pool
I1127 22:11:03.792659 17418 net.cpp:110] Creating Layer inception_5b/pool
I1127 22:11:03.792662 17418 net.cpp:477] inception_5b/pool <- inception_5a/output_inception_5a/output_0_split_3
I1127 22:11:03.792667 17418 net.cpp:433] inception_5b/pool -> inception_5b/pool
I1127 22:11:03.792703 17418 net.cpp:155] Setting up inception_5b/pool
I1127 22:11:03.792711 17418 net.cpp:163] Top shape: 50 832 7 7 (2038400)
I1127 22:11:03.792716 17418 layer_factory.hpp:76] Creating layer inception_5b/pool_proj
I1127 22:11:03.792722 17418 net.cpp:110] Creating Layer inception_5b/pool_proj
I1127 22:11:03.792726 17418 net.cpp:477] inception_5b/pool_proj <- inception_5b/pool
I1127 22:11:03.792732 17418 net.cpp:433] inception_5b/pool_proj -> inception_5b/pool_proj
I1127 22:11:03.793905 17418 net.cpp:155] Setting up inception_5b/pool_proj
I1127 22:11:03.793916 17418 net.cpp:163] Top shape: 50 128 7 7 (313600)
I1127 22:11:03.793923 17418 layer_factory.hpp:76] Creating layer inception_5b/relu_pool_proj
I1127 22:11:03.793929 17418 net.cpp:110] Creating Layer inception_5b/relu_pool_proj
I1127 22:11:03.793933 17418 net.cpp:477] inception_5b/relu_pool_proj <- inception_5b/pool_proj
I1127 22:11:03.793938 17418 net.cpp:419] inception_5b/relu_pool_proj -> inception_5b/pool_proj (in-place)
I1127 22:11:03.793946 17418 net.cpp:155] Setting up inception_5b/relu_pool_proj
I1127 22:11:03.793949 17418 net.cpp:163] Top shape: 50 128 7 7 (313600)
I1127 22:11:03.793952 17418 layer_factory.hpp:76] Creating layer inception_5b/output
I1127 22:11:03.793957 17418 net.cpp:110] Creating Layer inception_5b/output
I1127 22:11:03.793961 17418 net.cpp:477] inception_5b/output <- inception_5b/1x1
I1127 22:11:03.793964 17418 net.cpp:477] inception_5b/output <- inception_5b/3x3
I1127 22:11:03.793968 17418 net.cpp:477] inception_5b/output <- inception_5b/5x5
I1127 22:11:03.793972 17418 net.cpp:477] inception_5b/output <- inception_5b/pool_proj
I1127 22:11:03.793977 17418 net.cpp:433] inception_5b/output -> inception_5b/output
I1127 22:11:03.794034 17418 net.cpp:155] Setting up inception_5b/output
I1127 22:11:03.794042 17418 net.cpp:163] Top shape: 50 1024 7 7 (2508800)
I1127 22:11:03.794045 17418 layer_factory.hpp:76] Creating layer pool5/7x7_s1
I1127 22:11:03.794051 17418 net.cpp:110] Creating Layer pool5/7x7_s1
I1127 22:11:03.794054 17418 net.cpp:477] pool5/7x7_s1 <- inception_5b/output
I1127 22:11:03.794062 17418 net.cpp:433] pool5/7x7_s1 -> pool5/7x7_s1
I1127 22:11:03.794083 17418 net.cpp:155] Setting up pool5/7x7_s1
I1127 22:11:03.794091 17418 net.cpp:163] Top shape: 50 1024 1 1 (51200)
I1127 22:11:03.794095 17418 layer_factory.hpp:76] Creating layer pool5/drop_7x7_s1
I1127 22:11:03.794102 17418 net.cpp:110] Creating Layer pool5/drop_7x7_s1
I1127 22:11:03.794106 17418 net.cpp:477] pool5/drop_7x7_s1 <- pool5/7x7_s1
I1127 22:11:03.794111 17418 net.cpp:419] pool5/drop_7x7_s1 -> pool5/7x7_s1 (in-place)
I1127 22:11:03.794132 17418 net.cpp:155] Setting up pool5/drop_7x7_s1
I1127 22:11:03.794140 17418 net.cpp:163] Top shape: 50 1024 1 1 (51200)
I1127 22:11:03.794143 17418 layer_factory.hpp:76] Creating layer loss3/classifier
I1127 22:11:03.794152 17418 net.cpp:110] Creating Layer loss3/classifier
I1127 22:11:03.794155 17418 net.cpp:477] loss3/classifier <- pool5/7x7_s1
I1127 22:11:03.794162 17418 net.cpp:433] loss3/classifier -> loss3/classifier
I1127 22:11:03.801517 17418 net.cpp:155] Setting up loss3/classifier
I1127 22:11:03.801529 17418 net.cpp:163] Top shape: 50 1000 (50000)
I1127 22:11:03.801535 17418 layer_factory.hpp:76] Creating layer loss3/classifier_loss3/classifier_0_split
I1127 22:11:03.801542 17418 net.cpp:110] Creating Layer loss3/classifier_loss3/classifier_0_split
I1127 22:11:03.801545 17418 net.cpp:477] loss3/classifier_loss3/classifier_0_split <- loss3/classifier
I1127 22:11:03.801551 17418 net.cpp:433] loss3/classifier_loss3/classifier_0_split -> loss3/classifier_loss3/classifier_0_split_0
I1127 22:11:03.801558 17418 net.cpp:433] loss3/classifier_loss3/classifier_0_split -> loss3/classifier_loss3/classifier_0_split_1
I1127 22:11:03.801565 17418 net.cpp:433] loss3/classifier_loss3/classifier_0_split -> loss3/classifier_loss3/classifier_0_split_2
I1127 22:11:03.801611 17418 net.cpp:155] Setting up loss3/classifier_loss3/classifier_0_split
I1127 22:11:03.801620 17418 net.cpp:163] Top shape: 50 1000 (50000)
I1127 22:11:03.801623 17418 net.cpp:163] Top shape: 50 1000 (50000)
I1127 22:11:03.801627 17418 net.cpp:163] Top shape: 50 1000 (50000)
I1127 22:11:03.801630 17418 layer_factory.hpp:76] Creating layer loss3/loss3
I1127 22:11:03.801635 17418 net.cpp:110] Creating Layer loss3/loss3
I1127 22:11:03.801638 17418 net.cpp:477] loss3/loss3 <- loss3/classifier_loss3/classifier_0_split_0
I1127 22:11:03.801643 17418 net.cpp:477] loss3/loss3 <- label_data_1_split_4
I1127 22:11:03.801648 17418 net.cpp:433] loss3/loss3 -> loss3/loss3
…
