I1013 12:51:26.793048  5727 caffe.cpp:230] Use GPU with device ID 1
I1013 12:51:27.003965  5727 net.cpp:50] Initializing net from parameters: 
name: "AlexNet_ind_testing"
state {
  phase: TEST
}
layer {
  name: "data"
  type: "Data"
  top: "data"
  top: "label"
  transform_param {
    mirror: false
    crop_size: 227
    mean_file: "imagenet_mean.binaryproto"
  }
  data_param {
    source: "./ind_test_lmdb"
    batch_size: 50
    backend: LMDB
  }
}
layer {
  name: "conv1"
  type: "Convolution"
  bottom: "data"
  top: "conv1"
  param {
    lr_mult: 1
    decay_mult: 1
  }
  param {
    lr_mult: 2
    decay_mult: 0
  }
  convolution_param {
    num_output: 96
    kernel_size: 11
    stride: 4
    weight_filler {
      type: "gaussian"
      std: 0.01
    }
    bias_filler {
      type: "constant"
      value: 0
    }
  }
}
layer {
  name: "relu1"
  type: "ReLU"
  bottom: "conv1"
  top: "conv1"
}
layer {
  name: "norm1"
  type: "LRN"
  bottom: "conv1"
  top: "norm1"
  lrn_param {
    local_size: 5
    alpha: 0.0001
    beta: 0.75
  }
}
layer {
  name: "pool1"
  type: "Pooling"
  bottom: "norm1"
  top: "pool1"
  pooling_param {
    pool: MAX
    kernel_size: 3
    stride: 2
  }
}
layer {
  name: "conv2"
  type: "Convolution"
  bottom: "pool1"
  top: "conv2"
  param {
    lr_mult: 1
    decay_mult: 1
  }
  param {
    lr_mult: 2
    decay_mult: 0
  }
  convolution_param {
    num_output: 256
    pad: 2
    kernel_size: 5
    group: 2
    weight_filler {
      type: "gaussian"
      std: 0.01
    }
    bias_filler {
      type: "constant"
      value: 0.1
    }
  }
}
layer {
  name: "relu2"
  type: "ReLU"
  bottom: "conv2"
  top: "conv2"
}
layer {
  name: "norm2"
  type: "LRN"
  bottom: "conv2"
  top: "norm2"
  lrn_param {
    local_size: 5
    alpha: 0.0001
    beta: 0.75
  }
}
layer {
  name: "pool2"
  type: "Pooling"
  bottom: "norm2"
  top: "pool2"
  pooling_param {
    pool: MAX
    kernel_size: 3
    stride: 2
  }
}
layer {
  name: "conv3"
  type: "Convolution"
  bottom: "pool2"
  top: "conv3"
  param {
    lr_mult: 1
    decay_mult: 1
  }
  param {
    lr_mult: 2
    decay_mult: 0
  }
  convolution_param {
    num_output: 384
    pad: 1
    kernel_size: 3
    weight_filler {
      type: "gaussian"
      std: 0.01
    }
    bias_filler {
      type: "constant"
      value: 0
    }
  }
}
layer {
  name: "relu3"
  type: "ReLU"
  bottom: "conv3"
  top: "conv3"
}
layer {
  name: "conv4"
  type: "Convolution"
  bottom: "conv3"
  top: "conv4"
  param {
    lr_mult: 1
    decay_mult: 1
  }
  param {
    lr_mult: 2
    decay_mult: 0
  }
  convolution_param {
    num_output: 384
    pad: 1
    kernel_size: 3
    group: 2
    weight_filler {
      type: "gaussian"
      std: 0.01
    }
    bias_filler {
      type: "constant"
      value: 0.1
    }
  }
}
layer {
  name: "relu4"
  type: "ReLU"
  bottom: "conv4"
  top: "conv4"
}
layer {
  name: "conv5"
  type: "Convolution"
  bottom: "conv4"
  top: "conv5"
  param {
    lr_mult: 1
    decay_mult: 1
  }
  param {
    lr_mult: 2
    decay_mult: 0
  }
  convolution_param {
    num_output: 256
    pad: 1
    kernel_size: 3
    group: 2
    weight_filler {
      type: "gaussian"
      std: 0.01
    }
    bias_filler {
      type: "constant"
      value: 0.1
    }
  }
}
layer {
  name: "relu5"
  type: "ReLU"
  bottom: "conv5"
  top: "conv5"
}
layer {
  name: "pool5"
  type: "Pooling"
  bottom: "conv5"
  top: "pool5"
  pooling_param {
    pool: MAX
    kernel_size: 3
    stride: 2
  }
}
layer {
  name: "fc6"
  type: "InnerProduct"
  bottom: "pool5"
  top: "fc6"
  param {
    lr_mult: 1
    decay_mult: 1
  }
  param {
    lr_mult: 2
    decay_mult: 0
  }
  inner_product_param {
    num_output: 4096
    weight_filler {
      type: "gaussian"
      std: 0.005
    }
    bias_filler {
      type: "constant"
      value: 0.1
    }
  }
}
layer {
  name: "relu6"
  type: "ReLU"
  bottom: "fc6"
  top: "fc6"
}
layer {
  name: "drop6"
  type: "Dropout"
  bottom: "fc6"
  top: "fc6"
  dropout_param {
    dropout_ratio: 0.5
  }
}
layer {
  name: "fc7"
  type: "InnerProduct"
  bottom: "fc6"
  top: "fc7"
  param {
    lr_mult: 1
    decay_mult: 1
  }
  param {
    lr_mult: 2
    decay_mult: 0
  }
  inner_product_param {
    num_output: 4096
    weight_filler {
      type: "gaussian"
      std: 0.005
    }
    bias_filler {
      type: "constant"
      value: 0.1
    }
  }
}
layer {
  name: "relu7"
  type: "ReLU"
  bottom: "fc7"
  top: "fc7"
}
layer {
  name: "drop7"
  type: "Dropout"
  bottom: "fc7"
  top: "fc7"
  dropout_param {
    dropout_ratio: 0.5
  }
}
layer {
  name: "fc8_ind"
  type: "InnerProduct"
  bottom: "fc7"
  top: "fc8_ind"
  param {
    lr_mult: 1
    decay_mult: 1
  }
  param {
    lr_mult: 2
    decay_mult: 0
  }
  inner_product_param {
    num_output: 10
    weight_filler {
      type: "gaussian"
      std: 0.01
    }
    bias_filler {
      type: "constant"
      value: 0
    }
  }
}
layer {
  name: "prob"
  type: "Softmax"
  bottom: "fc8_ind"
  top: "prob"
}
layer {
  name: "accuracy"
  type: "Accuracy"
  bottom: "prob"
  bottom: "label"
  top: "accuracy"
}
I1013 12:51:27.004070  5727 layer_factory.hpp:76] Creating layer data
I1013 12:51:27.004539  5727 net.cpp:110] Creating Layer data
I1013 12:51:27.004549  5727 net.cpp:433] data -> data
I1013 12:51:27.004586  5727 net.cpp:433] data -> label
I1013 12:51:27.004603  5727 data_transformer.cpp:25] Loading mean file from: imagenet_mean.binaryproto
I1013 12:51:27.005365  5729 db_lmdb.cpp:23] Opened lmdb ./ind_test_lmdb
I1013 12:51:27.011297  5727 data_layer.cpp:45] output data size: 50,3,227,227
I1013 12:51:27.070974  5727 net.cpp:155] Setting up data
I1013 12:51:27.071025  5727 net.cpp:163] Top shape: 50 3 227 227 (7729350)
I1013 12:51:27.071032  5727 net.cpp:163] Top shape: 50 (50)
I1013 12:51:27.071040  5727 layer_factory.hpp:76] Creating layer conv1
I1013 12:51:27.071058  5727 net.cpp:110] Creating Layer conv1
I1013 12:51:27.071064  5727 net.cpp:477] conv1 <- data
I1013 12:51:27.071076  5727 net.cpp:433] conv1 -> conv1
I1013 12:51:27.081847  5727 net.cpp:155] Setting up conv1
I1013 12:51:27.081873  5727 net.cpp:163] Top shape: 50 96 55 55 (14520000)
I1013 12:51:27.081892  5727 layer_factory.hpp:76] Creating layer relu1
I1013 12:51:27.081902  5727 net.cpp:110] Creating Layer relu1
I1013 12:51:27.081909  5727 net.cpp:477] relu1 <- conv1
I1013 12:51:27.081919  5727 net.cpp:419] relu1 -> conv1 (in-place)
I1013 12:51:27.081935  5727 net.cpp:155] Setting up relu1
I1013 12:51:27.081946  5727 net.cpp:163] Top shape: 50 96 55 55 (14520000)
I1013 12:51:27.081955  5727 layer_factory.hpp:76] Creating layer norm1
I1013 12:51:27.081966  5727 net.cpp:110] Creating Layer norm1
I1013 12:51:27.081972  5727 net.cpp:477] norm1 <- conv1
I1013 12:51:27.081980  5727 net.cpp:433] norm1 -> norm1
I1013 12:51:27.082036  5727 net.cpp:155] Setting up norm1
I1013 12:51:27.082047  5727 net.cpp:163] Top shape: 50 96 55 55 (14520000)
I1013 12:51:27.082052  5727 layer_factory.hpp:76] Creating layer pool1
I1013 12:51:27.082067  5727 net.cpp:110] Creating Layer pool1
I1013 12:51:27.082075  5727 net.cpp:477] pool1 <- norm1
I1013 12:51:27.082083  5727 net.cpp:433] pool1 -> pool1
I1013 12:51:27.082131  5727 net.cpp:155] Setting up pool1
I1013 12:51:27.082142  5727 net.cpp:163] Top shape: 50 96 27 27 (3499200)
I1013 12:51:27.082149  5727 layer_factory.hpp:76] Creating layer conv2
I1013 12:51:27.082164  5727 net.cpp:110] Creating Layer conv2
I1013 12:51:27.082167  5727 net.cpp:477] conv2 <- pool1
I1013 12:51:27.082172  5727 net.cpp:433] conv2 -> conv2
I1013 12:51:27.092494  5727 net.cpp:155] Setting up conv2
I1013 12:51:27.092530  5727 net.cpp:163] Top shape: 50 256 27 27 (9331200)
I1013 12:51:27.092543  5727 layer_factory.hpp:76] Creating layer relu2
I1013 12:51:27.092553  5727 net.cpp:110] Creating Layer relu2
I1013 12:51:27.092556  5727 net.cpp:477] relu2 <- conv2
I1013 12:51:27.092566  5727 net.cpp:419] relu2 -> conv2 (in-place)
I1013 12:51:27.092576  5727 net.cpp:155] Setting up relu2
I1013 12:51:27.092582  5727 net.cpp:163] Top shape: 50 256 27 27 (9331200)
I1013 12:51:27.092584  5727 layer_factory.hpp:76] Creating layer norm2
I1013 12:51:27.092591  5727 net.cpp:110] Creating Layer norm2
I1013 12:51:27.092593  5727 net.cpp:477] norm2 <- conv2
I1013 12:51:27.092598  5727 net.cpp:433] norm2 -> norm2
I1013 12:51:27.092628  5727 net.cpp:155] Setting up norm2
I1013 12:51:27.092634  5727 net.cpp:163] Top shape: 50 256 27 27 (9331200)
I1013 12:51:27.092639  5727 layer_factory.hpp:76] Creating layer pool2
I1013 12:51:27.092648  5727 net.cpp:110] Creating Layer pool2
I1013 12:51:27.092653  5727 net.cpp:477] pool2 <- norm2
I1013 12:51:27.092659  5727 net.cpp:433] pool2 -> pool2
I1013 12:51:27.092689  5727 net.cpp:155] Setting up pool2
I1013 12:51:27.092695  5727 net.cpp:163] Top shape: 50 256 13 13 (2163200)
I1013 12:51:27.092699  5727 layer_factory.hpp:76] Creating layer conv3
I1013 12:51:27.092707  5727 net.cpp:110] Creating Layer conv3
I1013 12:51:27.092711  5727 net.cpp:477] conv3 <- pool2
I1013 12:51:27.092717  5727 net.cpp:433] conv3 -> conv3
I1013 12:51:27.124301  5727 net.cpp:155] Setting up conv3
I1013 12:51:27.124330  5727 net.cpp:163] Top shape: 50 384 13 13 (3244800)
I1013 12:51:27.124347  5727 layer_factory.hpp:76] Creating layer relu3
I1013 12:51:27.124359  5727 net.cpp:110] Creating Layer relu3
I1013 12:51:27.124364  5727 net.cpp:477] relu3 <- conv3
I1013 12:51:27.124374  5727 net.cpp:419] relu3 -> conv3 (in-place)
I1013 12:51:27.124387  5727 net.cpp:155] Setting up relu3
I1013 12:51:27.124408  5727 net.cpp:163] Top shape: 50 384 13 13 (3244800)
I1013 12:51:27.124413  5727 layer_factory.hpp:76] Creating layer conv4
I1013 12:51:27.124428  5727 net.cpp:110] Creating Layer conv4
I1013 12:51:27.124433  5727 net.cpp:477] conv4 <- conv3
I1013 12:51:27.124439  5727 net.cpp:433] conv4 -> conv4
I1013 12:51:27.149190  5727 net.cpp:155] Setting up conv4
I1013 12:51:27.149214  5727 net.cpp:163] Top shape: 50 384 13 13 (3244800)
I1013 12:51:27.149222  5727 layer_factory.hpp:76] Creating layer relu4
I1013 12:51:27.149233  5727 net.cpp:110] Creating Layer relu4
I1013 12:51:27.149237  5727 net.cpp:477] relu4 <- conv4
I1013 12:51:27.149245  5727 net.cpp:419] relu4 -> conv4 (in-place)
I1013 12:51:27.149255  5727 net.cpp:155] Setting up relu4
I1013 12:51:27.149258  5727 net.cpp:163] Top shape: 50 384 13 13 (3244800)
I1013 12:51:27.149261  5727 layer_factory.hpp:76] Creating layer conv5
I1013 12:51:27.149269  5727 net.cpp:110] Creating Layer conv5
I1013 12:51:27.149272  5727 net.cpp:477] conv5 <- conv4
I1013 12:51:27.149277  5727 net.cpp:433] conv5 -> conv5
I1013 12:51:27.168124  5727 net.cpp:155] Setting up conv5
I1013 12:51:27.168160  5727 net.cpp:163] Top shape: 50 256 13 13 (2163200)
I1013 12:51:27.168177  5727 layer_factory.hpp:76] Creating layer relu5
I1013 12:51:27.168191  5727 net.cpp:110] Creating Layer relu5
I1013 12:51:27.168196  5727 net.cpp:477] relu5 <- conv5
I1013 12:51:27.168205  5727 net.cpp:419] relu5 -> conv5 (in-place)
I1013 12:51:27.168216  5727 net.cpp:155] Setting up relu5
I1013 12:51:27.168228  5727 net.cpp:163] Top shape: 50 256 13 13 (2163200)
I1013 12:51:27.168233  5727 layer_factory.hpp:76] Creating layer pool5
I1013 12:51:27.168242  5727 net.cpp:110] Creating Layer pool5
I1013 12:51:27.168249  5727 net.cpp:477] pool5 <- conv5
I1013 12:51:27.168257  5727 net.cpp:433] pool5 -> pool5
I1013 12:51:27.168303  5727 net.cpp:155] Setting up pool5
I1013 12:51:27.168314  5727 net.cpp:163] Top shape: 50 256 6 6 (460800)
I1013 12:51:27.168319  5727 layer_factory.hpp:76] Creating layer fc6
I1013 12:51:27.168339  5727 net.cpp:110] Creating Layer fc6
I1013 12:51:27.168345  5727 net.cpp:477] fc6 <- pool5
I1013 12:51:27.168357  5727 net.cpp:433] fc6 -> fc6
I1013 12:51:28.401865  5727 net.cpp:155] Setting up fc6
I1013 12:51:28.401891  5727 net.cpp:163] Top shape: 50 4096 (204800)
I1013 12:51:28.401901  5727 layer_factory.hpp:76] Creating layer relu6
I1013 12:51:28.401912  5727 net.cpp:110] Creating Layer relu6
I1013 12:51:28.401916  5727 net.cpp:477] relu6 <- fc6
I1013 12:51:28.401922  5727 net.cpp:419] relu6 -> fc6 (in-place)
I1013 12:51:28.401947  5727 net.cpp:155] Setting up relu6
I1013 12:51:28.401950  5727 net.cpp:163] Top shape: 50 4096 (204800)
I1013 12:51:28.401953  5727 layer_factory.hpp:76] Creating layer drop6
I1013 12:51:28.401963  5727 net.cpp:110] Creating Layer drop6
I1013 12:51:28.401967  5727 net.cpp:477] drop6 <- fc6
I1013 12:51:28.401973  5727 net.cpp:419] drop6 -> fc6 (in-place)
I1013 12:51:28.402007  5727 net.cpp:155] Setting up drop6
I1013 12:51:28.402014  5727 net.cpp:163] Top shape: 50 4096 (204800)
I1013 12:51:28.402019  5727 layer_factory.hpp:76] Creating layer fc7
I1013 12:51:28.402025  5727 net.cpp:110] Creating Layer fc7
I1013 12:51:28.402029  5727 net.cpp:477] fc7 <- fc6
I1013 12:51:28.402036  5727 net.cpp:433] fc7 -> fc7
I1013 12:51:28.919791  5727 net.cpp:155] Setting up fc7
I1013 12:51:28.919817  5727 net.cpp:163] Top shape: 50 4096 (204800)
I1013 12:51:28.919826  5727 layer_factory.hpp:76] Creating layer relu7
I1013 12:51:28.919836  5727 net.cpp:110] Creating Layer relu7
I1013 12:51:28.919841  5727 net.cpp:477] relu7 <- fc7
I1013 12:51:28.919849  5727 net.cpp:419] relu7 -> fc7 (in-place)
I1013 12:51:28.919874  5727 net.cpp:155] Setting up relu7
I1013 12:51:28.919878  5727 net.cpp:163] Top shape: 50 4096 (204800)
I1013 12:51:28.919881  5727 layer_factory.hpp:76] Creating layer drop7
I1013 12:51:28.919888  5727 net.cpp:110] Creating Layer drop7
I1013 12:51:28.919889  5727 net.cpp:477] drop7 <- fc7
I1013 12:51:28.919893  5727 net.cpp:419] drop7 -> fc7 (in-place)
I1013 12:51:28.919917  5727 net.cpp:155] Setting up drop7
I1013 12:51:28.919924  5727 net.cpp:163] Top shape: 50 4096 (204800)
I1013 12:51:28.919929  5727 layer_factory.hpp:76] Creating layer fc8_ind
I1013 12:51:28.919936  5727 net.cpp:110] Creating Layer fc8_ind
I1013 12:51:28.919940  5727 net.cpp:477] fc8_ind <- fc7
I1013 12:51:28.919945  5727 net.cpp:433] fc8_ind -> fc8_ind
I1013 12:51:28.921257  5727 net.cpp:155] Setting up fc8_ind
I1013 12:51:28.921265  5727 net.cpp:163] Top shape: 50 10 (500)
I1013 12:51:28.921270  5727 layer_factory.hpp:76] Creating layer prob
I1013 12:51:28.921277  5727 net.cpp:110] Creating Layer prob
I1013 12:51:28.921280  5727 net.cpp:477] prob <- fc8_ind
I1013 12:51:28.921285  5727 net.cpp:433] prob -> prob
I1013 12:51:28.921334  5727 net.cpp:155] Setting up prob
I1013 12:51:28.921340  5727 net.cpp:163] Top shape: 50 10 (500)
I1013 12:51:28.921344  5727 layer_factory.hpp:76] Creating layer accuracy
I1013 12:51:28.921351  5727 net.cpp:110] Creating Layer accuracy
I1013 12:51:28.921355  5727 net.cpp:477] accuracy <- prob
I1013 12:51:28.921360  5727 net.cpp:477] accuracy <- label
I1013 12:51:28.921366  5727 net.cpp:433] accuracy -> accuracy
I1013 12:51:28.921378  5727 net.cpp:155] Setting up accuracy
I1013 12:51:28.921385  5727 net.cpp:163] Top shape: (1)
…
