I1012 20:54:46.293987 25070 caffe.cpp:230] Use GPU with device ID 1
I1012 20:54:46.741893 25070 net.cpp:50] Initializing net from parameters: 
name: "AlexNet_ind_testing"
state {
  phase: TEST
}
layer {
  name: "data"
  type: "Data"
  top: "data"
  top: "label"
  transform_param {
    mirror: false
    crop_size: 227
    mean_file: "imagenet_mean.binaryproto"
  }
  data_param {
    source: "./ind_test_lmdb"
    batch_size: 50
    backend: LMDB
  }
}
layer {
  name: "conv1"
  type: "Convolution"
  bottom: "data"
  top: "conv1"
  param {
    lr_mult: 1
    decay_mult: 1
  }
  param {
    lr_mult: 2
    decay_mult: 0
  }
  convolution_param {
    num_output: 96
    kernel_size: 11
    stride: 4
    weight_filler {
      type: "gaussian"
      std: 0.01
    }
    bias_filler {
      type: "constant"
      value: 0
    }
  }
}
layer {
  name: "relu1"
  type: "ReLU"
  bottom: "conv1"
  top: "conv1"
}
layer {
  name: "norm1"
  type: "LRN"
  bottom: "conv1"
  top: "norm1"
  lrn_param {
    local_size: 5
    alpha: 0.0001
    beta: 0.75
  }
}
layer {
  name: "pool1"
  type: "Pooling"
  bottom: "norm1"
  top: "pool1"
  pooling_param {
    pool: MAX
    kernel_size: 3
    stride: 2
  }
}
layer {
  name: "conv2"
  type: "Convolution"
  bottom: "pool1"
  top: "conv2"
  param {
    lr_mult: 1
    decay_mult: 1
  }
  param {
    lr_mult: 2
    decay_mult: 0
  }
  convolution_param {
    num_output: 256
    pad: 2
    kernel_size: 5
    group: 2
    weight_filler {
      type: "gaussian"
      std: 0.01
    }
    bias_filler {
      type: "constant"
      value: 0.1
    }
  }
}
layer {
  name: "relu2"
  type: "ReLU"
  bottom: "conv2"
  top: "conv2"
}
layer {
  name: "norm2"
  type: "LRN"
  bottom: "conv2"
  top: "norm2"
  lrn_param {
    local_size: 5
    alpha: 0.0001
    beta: 0.75
  }
}
layer {
  name: "pool2"
  type: "Pooling"
  bottom: "norm2"
  top: "pool2"
  pooling_param {
    pool: MAX
    kernel_size: 3
    stride: 2
  }
}
layer {
  name: "conv3"
  type: "Convolution"
  bottom: "pool2"
  top: "conv3"
  param {
    lr_mult: 1
    decay_mult: 1
  }
  param {
    lr_mult: 2
    decay_mult: 0
  }
  convolution_param {
    num_output: 384
    pad: 1
    kernel_size: 3
    weight_filler {
      type: "gaussian"
      std: 0.01
    }
    bias_filler {
      type: "constant"
      value: 0
    }
  }
}
layer {
  name: "relu3"
  type: "ReLU"
  bottom: "conv3"
  top: "conv3"
}
layer {
  name: "conv4"
  type: "Convolution"
  bottom: "conv3"
  top: "conv4"
  param {
    lr_mult: 1
    decay_mult: 1
  }
  param {
    lr_mult: 2
    decay_mult: 0
  }
  convolution_param {
    num_output: 384
    pad: 1
    kernel_size: 3
    group: 2
    weight_filler {
      type: "gaussian"
      std: 0.01
    }
    bias_filler {
      type: "constant"
      value: 0.1
    }
  }
}
layer {
  name: "relu4"
  type: "ReLU"
  bottom: "conv4"
  top: "conv4"
}
layer {
  name: "conv5"
  type: "Convolution"
  bottom: "conv4"
  top: "conv5"
  param {
    lr_mult: 1
    decay_mult: 1
  }
  param {
    lr_mult: 2
    decay_mult: 0
  }
  convolution_param {
    num_output: 256
    pad: 1
    kernel_size: 3
    group: 2
    weight_filler {
      type: "gaussian"
      std: 0.01
    }
    bias_filler {
      type: "constant"
      value: 0.1
    }
  }
}
layer {
  name: "relu5"
  type: "ReLU"
  bottom: "conv5"
  top: "conv5"
}
layer {
  name: "pool5"
  type: "Pooling"
  bottom: "conv5"
  top: "pool5"
  pooling_param {
    pool: MAX
    kernel_size: 3
    stride: 2
  }
}
layer {
  name: "fc6"
  type: "InnerProduct"
  bottom: "pool5"
  top: "fc6"
  param {
    lr_mult: 1
    decay_mult: 1
  }
  param {
    lr_mult: 2
    decay_mult: 0
  }
  inner_product_param {
    num_output: 4096
    weight_filler {
      type: "gaussian"
      std: 0.005
    }
    bias_filler {
      type: "constant"
      value: 0.1
    }
  }
}
layer {
  name: "relu6"
  type: "ReLU"
  bottom: "fc6"
  top: "fc6"
}
layer {
  name: "drop6"
  type: "Dropout"
  bottom: "fc6"
  top: "fc6"
  dropout_param {
    dropout_ratio: 0.5
  }
}
layer {
  name: "fc7"
  type: "InnerProduct"
  bottom: "fc6"
  top: "fc7"
  param {
    lr_mult: 1
    decay_mult: 1
  }
  param {
    lr_mult: 2
    decay_mult: 0
  }
  inner_product_param {
    num_output: 4096
    weight_filler {
      type: "gaussian"
      std: 0.005
    }
    bias_filler {
      type: "constant"
      value: 0.1
    }
  }
}
layer {
  name: "relu7"
  type: "ReLU"
  bottom: "fc7"
  top: "fc7"
}
layer {
  name: "drop7"
  type: "Dropout"
  bottom: "fc7"
  top: "fc7"
  dropout_param {
    dropout_ratio: 0.5
  }
}
layer {
  name: "fc8_ind"
  type: "InnerProduct"
  bottom: "fc7"
  top: "fc8_ind"
  param {
    lr_mult: 1
    decay_mult: 1
  }
  param {
    lr_mult: 2
    decay_mult: 0
  }
  inner_product_param {
    num_output: 10
    weight_filler {
      type: "gaussian"
      std: 0.01
    }
    bias_filler {
      type: "constant"
      value: 0
    }
  }
}
layer {
  name: "prob"
  type: "Softmax"
  bottom: "fc8_ind"
  top: "prob"
}
layer {
  name: "accuracy"
  type: "Accuracy"
  bottom: "prob"
  bottom: "label"
  top: "accuracy"
}
I1012 20:54:46.742022 25070 layer_factory.hpp:76] Creating layer data
I1012 20:54:46.742483 25070 net.cpp:110] Creating Layer data
I1012 20:54:46.742494 25070 net.cpp:433] data -> data
I1012 20:54:46.742549 25070 net.cpp:433] data -> label
I1012 20:54:46.742566 25070 data_transformer.cpp:25] Loading mean file from: imagenet_mean.binaryproto
I1012 20:54:46.743371 25074 db_lmdb.cpp:23] Opened lmdb ./ind_test_lmdb
I1012 20:54:46.785857 25070 data_layer.cpp:45] output data size: 50,3,227,227
I1012 20:54:46.917704 25070 net.cpp:155] Setting up data
I1012 20:54:46.917749 25070 net.cpp:163] Top shape: 50 3 227 227 (7729350)
I1012 20:54:46.917757 25070 net.cpp:163] Top shape: 50 (50)
I1012 20:54:46.917764 25070 layer_factory.hpp:76] Creating layer conv1
I1012 20:54:46.917798 25070 net.cpp:110] Creating Layer conv1
I1012 20:54:46.917803 25070 net.cpp:477] conv1 <- data
I1012 20:54:46.917814 25070 net.cpp:433] conv1 -> conv1
I1012 20:54:46.928910 25070 net.cpp:155] Setting up conv1
I1012 20:54:46.928939 25070 net.cpp:163] Top shape: 50 96 55 55 (14520000)
I1012 20:54:46.928957 25070 layer_factory.hpp:76] Creating layer relu1
I1012 20:54:46.928969 25070 net.cpp:110] Creating Layer relu1
I1012 20:54:46.928977 25070 net.cpp:477] relu1 <- conv1
I1012 20:54:46.928983 25070 net.cpp:419] relu1 -> conv1 (in-place)
I1012 20:54:46.928993 25070 net.cpp:155] Setting up relu1
I1012 20:54:46.928998 25070 net.cpp:163] Top shape: 50 96 55 55 (14520000)
I1012 20:54:46.929000 25070 layer_factory.hpp:76] Creating layer norm1
I1012 20:54:46.929008 25070 net.cpp:110] Creating Layer norm1
I1012 20:54:46.929011 25070 net.cpp:477] norm1 <- conv1
I1012 20:54:46.929016 25070 net.cpp:433] norm1 -> norm1
I1012 20:54:46.929049 25070 net.cpp:155] Setting up norm1
I1012 20:54:46.929059 25070 net.cpp:163] Top shape: 50 96 55 55 (14520000)
I1012 20:54:46.929061 25070 layer_factory.hpp:76] Creating layer pool1
I1012 20:54:46.929069 25070 net.cpp:110] Creating Layer pool1
I1012 20:54:46.929075 25070 net.cpp:477] pool1 <- norm1
I1012 20:54:46.929082 25070 net.cpp:433] pool1 -> pool1
I1012 20:54:46.929134 25070 net.cpp:155] Setting up pool1
I1012 20:54:46.929147 25070 net.cpp:163] Top shape: 50 96 27 27 (3499200)
I1012 20:54:46.929152 25070 layer_factory.hpp:76] Creating layer conv2
I1012 20:54:46.929168 25070 net.cpp:110] Creating Layer conv2
I1012 20:54:46.929174 25070 net.cpp:477] conv2 <- pool1
I1012 20:54:46.929180 25070 net.cpp:433] conv2 -> conv2
I1012 20:54:46.939961 25070 net.cpp:155] Setting up conv2
I1012 20:54:46.939996 25070 net.cpp:163] Top shape: 50 256 27 27 (9331200)
I1012 20:54:46.940009 25070 layer_factory.hpp:76] Creating layer relu2
I1012 20:54:46.940021 25070 net.cpp:110] Creating Layer relu2
I1012 20:54:46.940024 25070 net.cpp:477] relu2 <- conv2
I1012 20:54:46.940031 25070 net.cpp:419] relu2 -> conv2 (in-place)
I1012 20:54:46.940042 25070 net.cpp:155] Setting up relu2
I1012 20:54:46.940045 25070 net.cpp:163] Top shape: 50 256 27 27 (9331200)
I1012 20:54:46.940048 25070 layer_factory.hpp:76] Creating layer norm2
I1012 20:54:46.940055 25070 net.cpp:110] Creating Layer norm2
I1012 20:54:46.940058 25070 net.cpp:477] norm2 <- conv2
I1012 20:54:46.940062 25070 net.cpp:433] norm2 -> norm2
I1012 20:54:46.940093 25070 net.cpp:155] Setting up norm2
I1012 20:54:46.940100 25070 net.cpp:163] Top shape: 50 256 27 27 (9331200)
I1012 20:54:46.940104 25070 layer_factory.hpp:76] Creating layer pool2
I1012 20:54:46.940110 25070 net.cpp:110] Creating Layer pool2
I1012 20:54:46.940114 25070 net.cpp:477] pool2 <- norm2
I1012 20:54:46.940119 25070 net.cpp:433] pool2 -> pool2
I1012 20:54:46.940147 25070 net.cpp:155] Setting up pool2
I1012 20:54:46.940155 25070 net.cpp:163] Top shape: 50 256 13 13 (2163200)
I1012 20:54:46.940157 25070 layer_factory.hpp:76] Creating layer conv3
I1012 20:54:46.940167 25070 net.cpp:110] Creating Layer conv3
I1012 20:54:46.940172 25070 net.cpp:477] conv3 <- pool2
I1012 20:54:46.940177 25070 net.cpp:433] conv3 -> conv3
I1012 20:54:46.972741 25070 net.cpp:155] Setting up conv3
I1012 20:54:46.972769 25070 net.cpp:163] Top shape: 50 384 13 13 (3244800)
I1012 20:54:46.972781 25070 layer_factory.hpp:76] Creating layer relu3
I1012 20:54:46.972793 25070 net.cpp:110] Creating Layer relu3
I1012 20:54:46.972796 25070 net.cpp:477] relu3 <- conv3
I1012 20:54:46.972803 25070 net.cpp:419] relu3 -> conv3 (in-place)
I1012 20:54:46.972815 25070 net.cpp:155] Setting up relu3
I1012 20:54:46.972818 25070 net.cpp:163] Top shape: 50 384 13 13 (3244800)
I1012 20:54:46.972821 25070 layer_factory.hpp:76] Creating layer conv4
I1012 20:54:46.972831 25070 net.cpp:110] Creating Layer conv4
I1012 20:54:46.972834 25070 net.cpp:477] conv4 <- conv3
I1012 20:54:46.972841 25070 net.cpp:433] conv4 -> conv4
I1012 20:54:46.994215 25070 net.cpp:155] Setting up conv4
I1012 20:54:46.994238 25070 net.cpp:163] Top shape: 50 384 13 13 (3244800)
I1012 20:54:46.994247 25070 layer_factory.hpp:76] Creating layer relu4
I1012 20:54:46.994257 25070 net.cpp:110] Creating Layer relu4
I1012 20:54:46.994261 25070 net.cpp:477] relu4 <- conv4
I1012 20:54:46.994268 25070 net.cpp:419] relu4 -> conv4 (in-place)
I1012 20:54:46.994278 25070 net.cpp:155] Setting up relu4
I1012 20:54:46.994282 25070 net.cpp:163] Top shape: 50 384 13 13 (3244800)
I1012 20:54:46.994285 25070 layer_factory.hpp:76] Creating layer conv5
I1012 20:54:46.994295 25070 net.cpp:110] Creating Layer conv5
I1012 20:54:46.994298 25070 net.cpp:477] conv5 <- conv4
I1012 20:54:46.994303 25070 net.cpp:433] conv5 -> conv5
I1012 20:54:47.008510 25070 net.cpp:155] Setting up conv5
I1012 20:54:47.008534 25070 net.cpp:163] Top shape: 50 256 13 13 (2163200)
I1012 20:54:47.008546 25070 layer_factory.hpp:76] Creating layer relu5
I1012 20:54:47.008554 25070 net.cpp:110] Creating Layer relu5
I1012 20:54:47.008558 25070 net.cpp:477] relu5 <- conv5
I1012 20:54:47.008566 25070 net.cpp:419] relu5 -> conv5 (in-place)
I1012 20:54:47.008576 25070 net.cpp:155] Setting up relu5
I1012 20:54:47.008580 25070 net.cpp:163] Top shape: 50 256 13 13 (2163200)
I1012 20:54:47.008584 25070 layer_factory.hpp:76] Creating layer pool5
I1012 20:54:47.008589 25070 net.cpp:110] Creating Layer pool5
I1012 20:54:47.008591 25070 net.cpp:477] pool5 <- conv5
I1012 20:54:47.008595 25070 net.cpp:433] pool5 -> pool5
I1012 20:54:47.018084 25070 net.cpp:155] Setting up pool5
I1012 20:54:47.018100 25070 net.cpp:163] Top shape: 50 256 6 6 (460800)
I1012 20:54:47.018103 25070 layer_factory.hpp:76] Creating layer fc6
I1012 20:54:47.018122 25070 net.cpp:110] Creating Layer fc6
I1012 20:54:47.018126 25070 net.cpp:477] fc6 <- pool5
I1012 20:54:47.018132 25070 net.cpp:433] fc6 -> fc6
I1012 20:54:48.268369 25070 net.cpp:155] Setting up fc6
I1012 20:54:48.268395 25070 net.cpp:163] Top shape: 50 4096 (204800)
I1012 20:54:48.268405 25070 layer_factory.hpp:76] Creating layer relu6
I1012 20:54:48.268415 25070 net.cpp:110] Creating Layer relu6
I1012 20:54:48.268419 25070 net.cpp:477] relu6 <- fc6
I1012 20:54:48.268427 25070 net.cpp:419] relu6 -> fc6 (in-place)
I1012 20:54:48.268453 25070 net.cpp:155] Setting up relu6
I1012 20:54:48.268457 25070 net.cpp:163] Top shape: 50 4096 (204800)
I1012 20:54:48.268460 25070 layer_factory.hpp:76] Creating layer drop6
I1012 20:54:48.268468 25070 net.cpp:110] Creating Layer drop6
I1012 20:54:48.268471 25070 net.cpp:477] drop6 <- fc6
I1012 20:54:48.268474 25070 net.cpp:419] drop6 -> fc6 (in-place)
I1012 20:54:48.268506 25070 net.cpp:155] Setting up drop6
I1012 20:54:48.268512 25070 net.cpp:163] Top shape: 50 4096 (204800)
I1012 20:54:48.268515 25070 layer_factory.hpp:76] Creating layer fc7
I1012 20:54:48.268522 25070 net.cpp:110] Creating Layer fc7
I1012 20:54:48.268527 25070 net.cpp:477] fc7 <- fc6
I1012 20:54:48.268532 25070 net.cpp:433] fc7 -> fc7
I1012 20:54:48.832623 25070 net.cpp:155] Setting up fc7
I1012 20:54:48.832653 25070 net.cpp:163] Top shape: 50 4096 (204800)
I1012 20:54:48.832669 25070 layer_factory.hpp:76] Creating layer relu7
I1012 20:54:48.832684 25070 net.cpp:110] Creating Layer relu7
I1012 20:54:48.832692 25070 net.cpp:477] relu7 <- fc7
I1012 20:54:48.832718 25070 net.cpp:419] relu7 -> fc7 (in-place)
I1012 20:54:48.832733 25070 net.cpp:155] Setting up relu7
I1012 20:54:48.832741 25070 net.cpp:163] Top shape: 50 4096 (204800)
I1012 20:54:48.832746 25070 layer_factory.hpp:76] Creating layer drop7
I1012 20:54:48.832759 25070 net.cpp:110] Creating Layer drop7
I1012 20:54:48.832767 25070 net.cpp:477] drop7 <- fc7
I1012 20:54:48.832777 25070 net.cpp:419] drop7 -> fc7 (in-place)
I1012 20:54:48.832810 25070 net.cpp:155] Setting up drop7
I1012 20:54:48.832821 25070 net.cpp:163] Top shape: 50 4096 (204800)
I1012 20:54:48.832828 25070 layer_factory.hpp:76] Creating layer fc8_ind
I1012 20:54:48.832844 25070 net.cpp:110] Creating Layer fc8_ind
I1012 20:54:48.832850 25070 net.cpp:477] fc8_ind <- fc7
I1012 20:54:48.832864 25070 net.cpp:433] fc8_ind -> fc8_ind
I1012 20:54:48.834892 25070 net.cpp:155] Setting up fc8_ind
I1012 20:54:48.834903 25070 net.cpp:163] Top shape: 50 10 (500)
I1012 20:54:48.834915 25070 layer_factory.hpp:76] Creating layer prob
I1012 20:54:48.834930 25070 net.cpp:110] Creating Layer prob
I1012 20:54:48.834938 25070 net.cpp:477] prob <- fc8_ind
I1012 20:54:48.834947 25070 net.cpp:433] prob -> prob
I1012 20:54:48.835027 25070 net.cpp:155] Setting up prob
I1012 20:54:48.835038 25070 net.cpp:163] Top shape: 50 10 (500)
I1012 20:54:48.835046 25070 layer_factory.hpp:76] Creating layer accuracy
I1012 20:54:48.835057 25070 net.cpp:110] Creating Layer accuracy
I1012 20:54:48.835064 25070 net.cpp:477] accuracy <- prob
I1012 20:54:48.835072 25070 net.cpp:477] accuracy <- label
I1012 20:54:48.835088 25070 net.cpp:433] accuracy -> accuracy
I1012 20:54:48.835109 25070 net.cpp:155] Setting up accuracy
I1012 20:54:48.835119 25070 net.cpp:163] Top shape: (1)
…
