I1126 15:16:22.028257  1251 caffe.cpp:230] Use GPU with device ID 1
I1126 15:16:22.486202  1251 net.cpp:50] Initializing net from parameters: 
name: "AlexNet_ind_testing"
state {
  phase: TEST
}
layer {
  name: "data"
  type: "Data"
  top: "data"
  top: "label"
  transform_param {
    mirror: false
    crop_size: 227
    mean_file: "imagenet_mean.binaryproto"
  }
  data_param {
    source: "./ind_test_lmdb"
    batch_size: 50
    backend: LMDB
  }
}
layer {
  name: "conv1"
  type: "Convolution"
  bottom: "data"
  top: "conv1"
  param {
    lr_mult: 1
    decay_mult: 1
  }
  param {
    lr_mult: 2
    decay_mult: 0
  }
  convolution_param {
    num_output: 96
    kernel_size: 11
    stride: 4
    weight_filler {
      type: "gaussian"
      std: 0.01
    }
    bias_filler {
      type: "constant"
      value: 0
    }
  }
}
layer {
  name: "relu1"
  type: "ReLU"
  bottom: "conv1"
  top: "conv1"
}
layer {
  name: "norm1"
  type: "LRN"
  bottom: "conv1"
  top: "norm1"
  lrn_param {
    local_size: 5
    alpha: 0.0001
    beta: 0.75
  }
}
layer {
  name: "pool1"
  type: "Pooling"
  bottom: "norm1"
  top: "pool1"
  pooling_param {
    pool: MAX
    kernel_size: 3
    stride: 2
  }
}
layer {
  name: "conv2"
  type: "Convolution"
  bottom: "pool1"
  top: "conv2"
  param {
    lr_mult: 1
    decay_mult: 1
  }
  param {
    lr_mult: 2
    decay_mult: 0
  }
  convolution_param {
    num_output: 256
    pad: 2
    kernel_size: 5
    group: 2
    weight_filler {
      type: "gaussian"
      std: 0.01
    }
    bias_filler {
      type: "constant"
      value: 0.1
    }
  }
}
layer {
  name: "relu2"
  type: "ReLU"
  bottom: "conv2"
  top: "conv2"
}
layer {
  name: "norm2"
  type: "LRN"
  bottom: "conv2"
  top: "norm2"
  lrn_param {
    local_size: 5
    alpha: 0.0001
    beta: 0.75
  }
}
layer {
  name: "pool2"
  type: "Pooling"
  bottom: "norm2"
  top: "pool2"
  pooling_param {
    pool: MAX
    kernel_size: 3
    stride: 2
  }
}
layer {
  name: "conv3"
  type: "Convolution"
  bottom: "pool2"
  top: "conv3"
  param {
    lr_mult: 1
    decay_mult: 1
  }
  param {
    lr_mult: 2
    decay_mult: 0
  }
  convolution_param {
    num_output: 384
    pad: 1
    kernel_size: 3
    weight_filler {
      type: "gaussian"
      std: 0.01
    }
    bias_filler {
      type: "constant"
      value: 0
    }
  }
}
layer {
  name: "relu3"
  type: "ReLU"
  bottom: "conv3"
  top: "conv3"
}
layer {
  name: "conv4"
  type: "Convolution"
  bottom: "conv3"
  top: "conv4"
  param {
    lr_mult: 1
    decay_mult: 1
  }
  param {
    lr_mult: 2
    decay_mult: 0
  }
  convolution_param {
    num_output: 384
    pad: 1
    kernel_size: 3
    group: 2
    weight_filler {
      type: "gaussian"
      std: 0.01
    }
    bias_filler {
      type: "constant"
      value: 0.1
    }
  }
}
layer {
  name: "relu4"
  type: "ReLU"
  bottom: "conv4"
  top: "conv4"
}
layer {
  name: "conv5"
  type: "Convolution"
  bottom: "conv4"
  top: "conv5"
  param {
    lr_mult: 1
    decay_mult: 1
  }
  param {
    lr_mult: 2
    decay_mult: 0
  }
  convolution_param {
    num_output: 256
    pad: 1
    kernel_size: 3
    group: 2
    weight_filler {
      type: "gaussian"
      std: 0.01
    }
    bias_filler {
      type: "constant"
      value: 0.1
    }
  }
}
layer {
  name: "relu5"
  type: "ReLU"
  bottom: "conv5"
  top: "conv5"
}
layer {
  name: "pool5"
  type: "Pooling"
  bottom: "conv5"
  top: "pool5"
  pooling_param {
    pool: MAX
    kernel_size: 3
    stride: 2
  }
}
layer {
  name: "fc6"
  type: "InnerProduct"
  bottom: "pool5"
  top: "fc6"
  param {
    lr_mult: 1
    decay_mult: 1
  }
  param {
    lr_mult: 2
    decay_mult: 0
  }
  inner_product_param {
    num_output: 4096
    weight_filler {
      type: "gaussian"
      std: 0.005
    }
    bias_filler {
      type: "constant"
      value: 0.1
    }
  }
}
layer {
  name: "relu6"
  type: "ReLU"
  bottom: "fc6"
  top: "fc6"
}
layer {
  name: "drop6"
  type: "Dropout"
  bottom: "fc6"
  top: "fc6"
  dropout_param {
    dropout_ratio: 0.5
  }
}
layer {
  name: "fc7"
  type: "InnerProduct"
  bottom: "fc6"
  top: "fc7"
  param {
    lr_mult: 1
    decay_mult: 1
  }
  param {
    lr_mult: 2
    decay_mult: 0
  }
  inner_product_param {
    num_output: 4096
    weight_filler {
      type: "gaussian"
      std: 0.005
    }
    bias_filler {
      type: "constant"
      value: 0.1
    }
  }
}
layer {
  name: "relu7"
  type: "ReLU"
  bottom: "fc7"
  top: "fc7"
}
layer {
  name: "drop7"
  type: "Dropout"
  bottom: "fc7"
  top: "fc7"
  dropout_param {
    dropout_ratio: 0.5
  }
}
layer {
  name: "fc8_ind"
  type: "InnerProduct"
  bottom: "fc7"
  top: "fc8_ind"
  param {
    lr_mult: 1
    decay_mult: 1
  }
  param {
    lr_mult: 2
    decay_mult: 0
  }
  inner_product_param {
    num_output: 10
    weight_filler {
      type: "gaussian"
      std: 0.01
    }
    bias_filler {
      type: "constant"
      value: 0
    }
  }
}
layer {
  name: "prob"
  type: "Softmax"
  bottom: "fc8_ind"
  top: "prob"
}
layer {
  name: "accuracy"
  type: "Accuracy"
  bottom: "prob"
  bottom: "label"
  top: "accuracy"
}
I1126 15:16:22.486347  1251 layer_factory.hpp:76] Creating layer data
I1126 15:16:22.486981  1251 net.cpp:110] Creating Layer data
I1126 15:16:22.486994  1251 net.cpp:433] data -> data
I1126 15:16:22.487053  1251 net.cpp:433] data -> label
I1126 15:16:22.487076  1251 data_transformer.cpp:25] Loading mean file from: imagenet_mean.binaryproto
I1126 15:16:22.487838  1263 db_lmdb.cpp:23] Opened lmdb ./ind_test_lmdb
I1126 15:16:22.522996  1251 data_layer.cpp:45] output data size: 50,3,227,227
I1126 15:16:22.611733  1251 net.cpp:155] Setting up data
I1126 15:16:22.611779  1251 net.cpp:163] Top shape: 50 3 227 227 (7729350)
I1126 15:16:22.611788  1251 net.cpp:163] Top shape: 50 (50)
I1126 15:16:22.611801  1251 layer_factory.hpp:76] Creating layer conv1
I1126 15:16:22.611824  1251 net.cpp:110] Creating Layer conv1
I1126 15:16:22.611834  1251 net.cpp:477] conv1 <- data
I1126 15:16:22.611851  1251 net.cpp:433] conv1 -> conv1
I1126 15:16:22.623158  1251 net.cpp:155] Setting up conv1
I1126 15:16:22.623178  1251 net.cpp:163] Top shape: 50 96 55 55 (14520000)
I1126 15:16:22.623200  1251 layer_factory.hpp:76] Creating layer relu1
I1126 15:16:22.623217  1251 net.cpp:110] Creating Layer relu1
I1126 15:16:22.623224  1251 net.cpp:477] relu1 <- conv1
I1126 15:16:22.623232  1251 net.cpp:419] relu1 -> conv1 (in-place)
I1126 15:16:22.623248  1251 net.cpp:155] Setting up relu1
I1126 15:16:22.623257  1251 net.cpp:163] Top shape: 50 96 55 55 (14520000)
I1126 15:16:22.623265  1251 layer_factory.hpp:76] Creating layer norm1
I1126 15:16:22.623278  1251 net.cpp:110] Creating Layer norm1
I1126 15:16:22.623286  1251 net.cpp:477] norm1 <- conv1
I1126 15:16:22.623292  1251 net.cpp:433] norm1 -> norm1
I1126 15:16:22.623344  1251 net.cpp:155] Setting up norm1
I1126 15:16:22.623354  1251 net.cpp:163] Top shape: 50 96 55 55 (14520000)
I1126 15:16:22.623361  1251 layer_factory.hpp:76] Creating layer pool1
I1126 15:16:22.623373  1251 net.cpp:110] Creating Layer pool1
I1126 15:16:22.623378  1251 net.cpp:477] pool1 <- norm1
I1126 15:16:22.623388  1251 net.cpp:433] pool1 -> pool1
I1126 15:16:22.623440  1251 net.cpp:155] Setting up pool1
I1126 15:16:22.623451  1251 net.cpp:163] Top shape: 50 96 27 27 (3499200)
I1126 15:16:22.623458  1251 layer_factory.hpp:76] Creating layer conv2
I1126 15:16:22.623473  1251 net.cpp:110] Creating Layer conv2
I1126 15:16:22.623479  1251 net.cpp:477] conv2 <- pool1
I1126 15:16:22.623487  1251 net.cpp:433] conv2 -> conv2
I1126 15:16:22.639832  1251 net.cpp:155] Setting up conv2
I1126 15:16:22.639860  1251 net.cpp:163] Top shape: 50 256 27 27 (9331200)
I1126 15:16:22.639878  1251 layer_factory.hpp:76] Creating layer relu2
I1126 15:16:22.639891  1251 net.cpp:110] Creating Layer relu2
I1126 15:16:22.639899  1251 net.cpp:477] relu2 <- conv2
I1126 15:16:22.639912  1251 net.cpp:419] relu2 -> conv2 (in-place)
I1126 15:16:22.639925  1251 net.cpp:155] Setting up relu2
I1126 15:16:22.639932  1251 net.cpp:163] Top shape: 50 256 27 27 (9331200)
I1126 15:16:22.639937  1251 layer_factory.hpp:76] Creating layer norm2
I1126 15:16:22.639945  1251 net.cpp:110] Creating Layer norm2
I1126 15:16:22.639952  1251 net.cpp:477] norm2 <- conv2
I1126 15:16:22.639961  1251 net.cpp:433] norm2 -> norm2
I1126 15:16:22.640007  1251 net.cpp:155] Setting up norm2
I1126 15:16:22.640017  1251 net.cpp:163] Top shape: 50 256 27 27 (9331200)
I1126 15:16:22.640023  1251 layer_factory.hpp:76] Creating layer pool2
I1126 15:16:22.640036  1251 net.cpp:110] Creating Layer pool2
I1126 15:16:22.640043  1251 net.cpp:477] pool2 <- norm2
I1126 15:16:22.640049  1251 net.cpp:433] pool2 -> pool2
I1126 15:16:22.640094  1251 net.cpp:155] Setting up pool2
I1126 15:16:22.640105  1251 net.cpp:163] Top shape: 50 256 13 13 (2163200)
I1126 15:16:22.640110  1251 layer_factory.hpp:76] Creating layer conv3
I1126 15:16:22.640123  1251 net.cpp:110] Creating Layer conv3
I1126 15:16:22.640130  1251 net.cpp:477] conv3 <- pool2
I1126 15:16:22.640139  1251 net.cpp:433] conv3 -> conv3
I1126 15:16:22.684967  1251 net.cpp:155] Setting up conv3
I1126 15:16:22.684998  1251 net.cpp:163] Top shape: 50 384 13 13 (3244800)
I1126 15:16:22.685016  1251 layer_factory.hpp:76] Creating layer relu3
I1126 15:16:22.685031  1251 net.cpp:110] Creating Layer relu3
I1126 15:16:22.685037  1251 net.cpp:477] relu3 <- conv3
I1126 15:16:22.685046  1251 net.cpp:419] relu3 -> conv3 (in-place)
I1126 15:16:22.685061  1251 net.cpp:155] Setting up relu3
I1126 15:16:22.685070  1251 net.cpp:163] Top shape: 50 384 13 13 (3244800)
I1126 15:16:22.685078  1251 layer_factory.hpp:76] Creating layer conv4
I1126 15:16:22.685089  1251 net.cpp:110] Creating Layer conv4
I1126 15:16:22.685096  1251 net.cpp:477] conv4 <- conv3
I1126 15:16:22.685103  1251 net.cpp:433] conv4 -> conv4
I1126 15:16:22.717905  1251 net.cpp:155] Setting up conv4
I1126 15:16:22.717934  1251 net.cpp:163] Top shape: 50 384 13 13 (3244800)
I1126 15:16:22.717948  1251 layer_factory.hpp:76] Creating layer relu4
I1126 15:16:22.717962  1251 net.cpp:110] Creating Layer relu4
I1126 15:16:22.717967  1251 net.cpp:477] relu4 <- conv4
I1126 15:16:22.717979  1251 net.cpp:419] relu4 -> conv4 (in-place)
I1126 15:16:22.718006  1251 net.cpp:155] Setting up relu4
I1126 15:16:22.718017  1251 net.cpp:163] Top shape: 50 384 13 13 (3244800)
I1126 15:16:22.718022  1251 layer_factory.hpp:76] Creating layer conv5
I1126 15:16:22.718036  1251 net.cpp:110] Creating Layer conv5
I1126 15:16:22.718042  1251 net.cpp:477] conv5 <- conv4
I1126 15:16:22.718051  1251 net.cpp:433] conv5 -> conv5
I1126 15:16:22.740888  1251 net.cpp:155] Setting up conv5
I1126 15:16:22.740926  1251 net.cpp:163] Top shape: 50 256 13 13 (2163200)
I1126 15:16:22.740945  1251 layer_factory.hpp:76] Creating layer relu5
I1126 15:16:22.740959  1251 net.cpp:110] Creating Layer relu5
I1126 15:16:22.740965  1251 net.cpp:477] relu5 <- conv5
I1126 15:16:22.740975  1251 net.cpp:419] relu5 -> conv5 (in-place)
I1126 15:16:22.740988  1251 net.cpp:155] Setting up relu5
I1126 15:16:22.741000  1251 net.cpp:163] Top shape: 50 256 13 13 (2163200)
I1126 15:16:22.741005  1251 layer_factory.hpp:76] Creating layer pool5
I1126 15:16:22.741014  1251 net.cpp:110] Creating Layer pool5
I1126 15:16:22.741020  1251 net.cpp:477] pool5 <- conv5
I1126 15:16:22.741032  1251 net.cpp:433] pool5 -> pool5
I1126 15:16:22.741078  1251 net.cpp:155] Setting up pool5
I1126 15:16:22.741091  1251 net.cpp:163] Top shape: 50 256 6 6 (460800)
I1126 15:16:22.741098  1251 layer_factory.hpp:76] Creating layer fc6
I1126 15:16:22.741118  1251 net.cpp:110] Creating Layer fc6
I1126 15:16:22.741125  1251 net.cpp:477] fc6 <- pool5
I1126 15:16:22.741135  1251 net.cpp:433] fc6 -> fc6
I1126 15:16:24.576922  1251 net.cpp:155] Setting up fc6
I1126 15:16:24.576952  1251 net.cpp:163] Top shape: 50 4096 (204800)
I1126 15:16:24.576967  1251 layer_factory.hpp:76] Creating layer relu6
I1126 15:16:24.576978  1251 net.cpp:110] Creating Layer relu6
I1126 15:16:24.576983  1251 net.cpp:477] relu6 <- fc6
I1126 15:16:24.576993  1251 net.cpp:419] relu6 -> fc6 (in-place)
I1126 15:16:24.577020  1251 net.cpp:155] Setting up relu6
I1126 15:16:24.577028  1251 net.cpp:163] Top shape: 50 4096 (204800)
I1126 15:16:24.577033  1251 layer_factory.hpp:76] Creating layer drop6
I1126 15:16:24.577045  1251 net.cpp:110] Creating Layer drop6
I1126 15:16:24.577050  1251 net.cpp:477] drop6 <- fc6
I1126 15:16:24.577059  1251 net.cpp:419] drop6 -> fc6 (in-place)
I1126 15:16:24.577098  1251 net.cpp:155] Setting up drop6
I1126 15:16:24.577108  1251 net.cpp:163] Top shape: 50 4096 (204800)
I1126 15:16:24.577116  1251 layer_factory.hpp:76] Creating layer fc7
I1126 15:16:24.577126  1251 net.cpp:110] Creating Layer fc7
I1126 15:16:24.577132  1251 net.cpp:477] fc7 <- fc6
I1126 15:16:24.577142  1251 net.cpp:433] fc7 -> fc7
I1126 15:16:25.385339  1251 net.cpp:155] Setting up fc7
I1126 15:16:25.385367  1251 net.cpp:163] Top shape: 50 4096 (204800)
I1126 15:16:25.385380  1251 layer_factory.hpp:76] Creating layer relu7
I1126 15:16:25.385392  1251 net.cpp:110] Creating Layer relu7
I1126 15:16:25.385397  1251 net.cpp:477] relu7 <- fc7
I1126 15:16:25.385409  1251 net.cpp:419] relu7 -> fc7 (in-place)
I1126 15:16:25.385437  1251 net.cpp:155] Setting up relu7
I1126 15:16:25.385443  1251 net.cpp:163] Top shape: 50 4096 (204800)
I1126 15:16:25.385448  1251 layer_factory.hpp:76] Creating layer drop7
I1126 15:16:25.385457  1251 net.cpp:110] Creating Layer drop7
I1126 15:16:25.385462  1251 net.cpp:477] drop7 <- fc7
I1126 15:16:25.385473  1251 net.cpp:419] drop7 -> fc7 (in-place)
I1126 15:16:25.385507  1251 net.cpp:155] Setting up drop7
I1126 15:16:25.385516  1251 net.cpp:163] Top shape: 50 4096 (204800)
I1126 15:16:25.385524  1251 layer_factory.hpp:76] Creating layer fc8_ind
I1126 15:16:25.385535  1251 net.cpp:110] Creating Layer fc8_ind
I1126 15:16:25.385541  1251 net.cpp:477] fc8_ind <- fc7
I1126 15:16:25.385550  1251 net.cpp:433] fc8_ind -> fc8_ind
I1126 15:16:25.387600  1251 net.cpp:155] Setting up fc8_ind
I1126 15:16:25.387612  1251 net.cpp:163] Top shape: 50 10 (500)
I1126 15:16:25.387621  1251 layer_factory.hpp:76] Creating layer prob
I1126 15:16:25.387629  1251 net.cpp:110] Creating Layer prob
I1126 15:16:25.387634  1251 net.cpp:477] prob <- fc8_ind
I1126 15:16:25.387644  1251 net.cpp:433] prob -> prob
I1126 15:16:25.387733  1251 net.cpp:155] Setting up prob
I1126 15:16:25.387743  1251 net.cpp:163] Top shape: 50 10 (500)
I1126 15:16:25.387751  1251 layer_factory.hpp:76] Creating layer accuracy
I1126 15:16:25.387765  1251 net.cpp:110] Creating Layer accuracy
I1126 15:16:25.387773  1251 net.cpp:477] accuracy <- prob
I1126 15:16:25.387779  1251 net.cpp:477] accuracy <- label
I1126 15:16:25.387789  1251 net.cpp:433] accuracy -> accuracy
I1126 15:16:25.387807  1251 net.cpp:155] Setting up accuracy
I1126 15:16:25.387816  1251 net.cpp:163] Top shape: (1)
…
