I1013 12:53:51.400518  6394 caffe.cpp:230] Use GPU with device ID 1
I1013 12:53:51.607455  6394 net.cpp:50] Initializing net from parameters: 
name: "AlexNet_ind_testing"
state {
  phase: TEST
}
layer {
  name: "data"
  type: "Data"
  top: "data"
  top: "label"
  transform_param {
    mirror: false
    crop_size: 227
    mean_file: "imagenet_mean.binaryproto"
  }
  data_param {
    source: "./ind_test_lmdb"
    batch_size: 50
    backend: LMDB
  }
}
layer {
  name: "conv1"
  type: "Convolution"
  bottom: "data"
  top: "conv1"
  param {
    lr_mult: 1
    decay_mult: 1
  }
  param {
    lr_mult: 2
    decay_mult: 0
  }
  convolution_param {
    num_output: 96
    kernel_size: 11
    stride: 4
    weight_filler {
      type: "gaussian"
      std: 0.01
    }
    bias_filler {
      type: "constant"
      value: 0
    }
  }
}
layer {
  name: "relu1"
  type: "ReLU"
  bottom: "conv1"
  top: "conv1"
}
layer {
  name: "norm1"
  type: "LRN"
  bottom: "conv1"
  top: "norm1"
  lrn_param {
    local_size: 5
    alpha: 0.0001
    beta: 0.75
  }
}
layer {
  name: "pool1"
  type: "Pooling"
  bottom: "norm1"
  top: "pool1"
  pooling_param {
    pool: MAX
    kernel_size: 3
    stride: 2
  }
}
layer {
  name: "conv2"
  type: "Convolution"
  bottom: "pool1"
  top: "conv2"
  param {
    lr_mult: 1
    decay_mult: 1
  }
  param {
    lr_mult: 2
    decay_mult: 0
  }
  convolution_param {
    num_output: 256
    pad: 2
    kernel_size: 5
    group: 2
    weight_filler {
      type: "gaussian"
      std: 0.01
    }
    bias_filler {
      type: "constant"
      value: 0.1
    }
  }
}
layer {
  name: "relu2"
  type: "ReLU"
  bottom: "conv2"
  top: "conv2"
}
layer {
  name: "norm2"
  type: "LRN"
  bottom: "conv2"
  top: "norm2"
  lrn_param {
    local_size: 5
    alpha: 0.0001
    beta: 0.75
  }
}
layer {
  name: "pool2"
  type: "Pooling"
  bottom: "norm2"
  top: "pool2"
  pooling_param {
    pool: MAX
    kernel_size: 3
    stride: 2
  }
}
layer {
  name: "conv3"
  type: "Convolution"
  bottom: "pool2"
  top: "conv3"
  param {
    lr_mult: 1
    decay_mult: 1
  }
  param {
    lr_mult: 2
    decay_mult: 0
  }
  convolution_param {
    num_output: 384
    pad: 1
    kernel_size: 3
    weight_filler {
      type: "gaussian"
      std: 0.01
    }
    bias_filler {
      type: "constant"
      value: 0
    }
  }
}
layer {
  name: "relu3"
  type: "ReLU"
  bottom: "conv3"
  top: "conv3"
}
layer {
  name: "conv4"
  type: "Convolution"
  bottom: "conv3"
  top: "conv4"
  param {
    lr_mult: 1
    decay_mult: 1
  }
  param {
    lr_mult: 2
    decay_mult: 0
  }
  convolution_param {
    num_output: 384
    pad: 1
    kernel_size: 3
    group: 2
    weight_filler {
      type: "gaussian"
      std: 0.01
    }
    bias_filler {
      type: "constant"
      value: 0.1
    }
  }
}
layer {
  name: "relu4"
  type: "ReLU"
  bottom: "conv4"
  top: "conv4"
}
layer {
  name: "conv5"
  type: "Convolution"
  bottom: "conv4"
  top: "conv5"
  param {
    lr_mult: 1
    decay_mult: 1
  }
  param {
    lr_mult: 2
    decay_mult: 0
  }
  convolution_param {
    num_output: 256
    pad: 1
    kernel_size: 3
    group: 2
    weight_filler {
      type: "gaussian"
      std: 0.01
    }
    bias_filler {
      type: "constant"
      value: 0.1
    }
  }
}
layer {
  name: "relu5"
  type: "ReLU"
  bottom: "conv5"
  top: "conv5"
}
layer {
  name: "pool5"
  type: "Pooling"
  bottom: "conv5"
  top: "pool5"
  pooling_param {
    pool: MAX
    kernel_size: 3
    stride: 2
  }
}
layer {
  name: "fc6"
  type: "InnerProduct"
  bottom: "pool5"
  top: "fc6"
  param {
    lr_mult: 1
    decay_mult: 1
  }
  param {
    lr_mult: 2
    decay_mult: 0
  }
  inner_product_param {
    num_output: 4096
    weight_filler {
      type: "gaussian"
      std: 0.005
    }
    bias_filler {
      type: "constant"
      value: 0.1
    }
  }
}
layer {
  name: "relu6"
  type: "ReLU"
  bottom: "fc6"
  top: "fc6"
}
layer {
  name: "drop6"
  type: "Dropout"
  bottom: "fc6"
  top: "fc6"
  dropout_param {
    dropout_ratio: 0.5
  }
}
layer {
  name: "fc7"
  type: "InnerProduct"
  bottom: "fc6"
  top: "fc7"
  param {
    lr_mult: 1
    decay_mult: 1
  }
  param {
    lr_mult: 2
    decay_mult: 0
  }
  inner_product_param {
    num_output: 4096
    weight_filler {
      type: "gaussian"
      std: 0.005
    }
    bias_filler {
      type: "constant"
      value: 0.1
    }
  }
}
layer {
  name: "relu7"
  type: "ReLU"
  bottom: "fc7"
  top: "fc7"
}
layer {
  name: "drop7"
  type: "Dropout"
  bottom: "fc7"
  top: "fc7"
  dropout_param {
    dropout_ratio: 0.5
  }
}
layer {
  name: "fc8_ind"
  type: "InnerProduct"
  bottom: "fc7"
  top: "fc8_ind"
  param {
    lr_mult: 1
    decay_mult: 1
  }
  param {
    lr_mult: 2
    decay_mult: 0
  }
  inner_product_param {
    num_output: 10
    weight_filler {
      type: "gaussian"
      std: 0.01
    }
    bias_filler {
      type: "constant"
      value: 0
    }
  }
}
layer {
  name: "prob"
  type: "Softmax"
  bottom: "fc8_ind"
  top: "prob"
}
layer {
  name: "accuracy"
  type: "Accuracy"
  bottom: "prob"
  bottom: "label"
  top: "accuracy"
}
I1013 12:53:51.607592  6394 layer_factory.hpp:76] Creating layer data
I1013 12:53:51.608079  6394 net.cpp:110] Creating Layer data
I1013 12:53:51.608091  6394 net.cpp:433] data -> data
I1013 12:53:51.608150  6394 net.cpp:433] data -> label
I1013 12:53:51.608175  6394 data_transformer.cpp:25] Loading mean file from: imagenet_mean.binaryproto
I1013 12:53:51.608925  6396 db_lmdb.cpp:23] Opened lmdb ./ind_test_lmdb
I1013 12:53:51.614840  6394 data_layer.cpp:45] output data size: 50,3,227,227
I1013 12:53:51.674743  6394 net.cpp:155] Setting up data
I1013 12:53:51.674787  6394 net.cpp:163] Top shape: 50 3 227 227 (7729350)
I1013 12:53:51.674799  6394 net.cpp:163] Top shape: 50 (50)
I1013 12:53:51.674821  6394 layer_factory.hpp:76] Creating layer conv1
I1013 12:53:51.674840  6394 net.cpp:110] Creating Layer conv1
I1013 12:53:51.674849  6394 net.cpp:477] conv1 <- data
I1013 12:53:51.674860  6394 net.cpp:433] conv1 -> conv1
I1013 12:53:51.685608  6394 net.cpp:155] Setting up conv1
I1013 12:53:51.685634  6394 net.cpp:163] Top shape: 50 96 55 55 (14520000)
I1013 12:53:51.685652  6394 layer_factory.hpp:76] Creating layer relu1
I1013 12:53:51.685663  6394 net.cpp:110] Creating Layer relu1
I1013 12:53:51.685668  6394 net.cpp:477] relu1 <- conv1
I1013 12:53:51.685673  6394 net.cpp:419] relu1 -> conv1 (in-place)
I1013 12:53:51.685683  6394 net.cpp:155] Setting up relu1
I1013 12:53:51.685688  6394 net.cpp:163] Top shape: 50 96 55 55 (14520000)
I1013 12:53:51.685690  6394 layer_factory.hpp:76] Creating layer norm1
I1013 12:53:51.685700  6394 net.cpp:110] Creating Layer norm1
I1013 12:53:51.685703  6394 net.cpp:477] norm1 <- conv1
I1013 12:53:51.685708  6394 net.cpp:433] norm1 -> norm1
I1013 12:53:51.685742  6394 net.cpp:155] Setting up norm1
I1013 12:53:51.685750  6394 net.cpp:163] Top shape: 50 96 55 55 (14520000)
I1013 12:53:51.685752  6394 layer_factory.hpp:76] Creating layer pool1
I1013 12:53:51.685760  6394 net.cpp:110] Creating Layer pool1
I1013 12:53:51.685765  6394 net.cpp:477] pool1 <- norm1
I1013 12:53:51.685770  6394 net.cpp:433] pool1 -> pool1
I1013 12:53:51.685820  6394 net.cpp:155] Setting up pool1
I1013 12:53:51.685834  6394 net.cpp:163] Top shape: 50 96 27 27 (3499200)
I1013 12:53:51.685844  6394 layer_factory.hpp:76] Creating layer conv2
I1013 12:53:51.685858  6394 net.cpp:110] Creating Layer conv2
I1013 12:53:51.685861  6394 net.cpp:477] conv2 <- pool1
I1013 12:53:51.685868  6394 net.cpp:433] conv2 -> conv2
I1013 12:53:51.696260  6394 net.cpp:155] Setting up conv2
I1013 12:53:51.696285  6394 net.cpp:163] Top shape: 50 256 27 27 (9331200)
I1013 12:53:51.696298  6394 layer_factory.hpp:76] Creating layer relu2
I1013 12:53:51.696321  6394 net.cpp:110] Creating Layer relu2
I1013 12:53:51.696324  6394 net.cpp:477] relu2 <- conv2
I1013 12:53:51.696332  6394 net.cpp:419] relu2 -> conv2 (in-place)
I1013 12:53:51.696342  6394 net.cpp:155] Setting up relu2
I1013 12:53:51.696346  6394 net.cpp:163] Top shape: 50 256 27 27 (9331200)
I1013 12:53:51.696349  6394 layer_factory.hpp:76] Creating layer norm2
I1013 12:53:51.696355  6394 net.cpp:110] Creating Layer norm2
I1013 12:53:51.696358  6394 net.cpp:477] norm2 <- conv2
I1013 12:53:51.696364  6394 net.cpp:433] norm2 -> norm2
I1013 12:53:51.696394  6394 net.cpp:155] Setting up norm2
I1013 12:53:51.696403  6394 net.cpp:163] Top shape: 50 256 27 27 (9331200)
I1013 12:53:51.696405  6394 layer_factory.hpp:76] Creating layer pool2
I1013 12:53:51.696413  6394 net.cpp:110] Creating Layer pool2
I1013 12:53:51.696418  6394 net.cpp:477] pool2 <- norm2
I1013 12:53:51.696421  6394 net.cpp:433] pool2 -> pool2
I1013 12:53:51.696454  6394 net.cpp:155] Setting up pool2
I1013 12:53:51.696460  6394 net.cpp:163] Top shape: 50 256 13 13 (2163200)
I1013 12:53:51.696463  6394 layer_factory.hpp:76] Creating layer conv3
I1013 12:53:51.696472  6394 net.cpp:110] Creating Layer conv3
I1013 12:53:51.696476  6394 net.cpp:477] conv3 <- pool2
I1013 12:53:51.696482  6394 net.cpp:433] conv3 -> conv3
I1013 12:53:51.728787  6394 net.cpp:155] Setting up conv3
I1013 12:53:51.728826  6394 net.cpp:163] Top shape: 50 384 13 13 (3244800)
I1013 12:53:51.728843  6394 layer_factory.hpp:76] Creating layer relu3
I1013 12:53:51.728855  6394 net.cpp:110] Creating Layer relu3
I1013 12:53:51.728860  6394 net.cpp:477] relu3 <- conv3
I1013 12:53:51.728869  6394 net.cpp:419] relu3 -> conv3 (in-place)
I1013 12:53:51.728883  6394 net.cpp:155] Setting up relu3
I1013 12:53:51.728889  6394 net.cpp:163] Top shape: 50 384 13 13 (3244800)
I1013 12:53:51.728893  6394 layer_factory.hpp:76] Creating layer conv4
I1013 12:53:51.728904  6394 net.cpp:110] Creating Layer conv4
I1013 12:53:51.728914  6394 net.cpp:477] conv4 <- conv3
I1013 12:53:51.728924  6394 net.cpp:433] conv4 -> conv4
I1013 12:53:51.753748  6394 net.cpp:155] Setting up conv4
I1013 12:53:51.753788  6394 net.cpp:163] Top shape: 50 384 13 13 (3244800)
I1013 12:53:51.753800  6394 layer_factory.hpp:76] Creating layer relu4
I1013 12:53:51.753813  6394 net.cpp:110] Creating Layer relu4
I1013 12:53:51.753819  6394 net.cpp:477] relu4 <- conv4
I1013 12:53:51.753831  6394 net.cpp:419] relu4 -> conv4 (in-place)
I1013 12:53:51.753845  6394 net.cpp:155] Setting up relu4
I1013 12:53:51.753852  6394 net.cpp:163] Top shape: 50 384 13 13 (3244800)
I1013 12:53:51.753856  6394 layer_factory.hpp:76] Creating layer conv5
I1013 12:53:51.753867  6394 net.cpp:110] Creating Layer conv5
I1013 12:53:51.753875  6394 net.cpp:477] conv5 <- conv4
I1013 12:53:51.753883  6394 net.cpp:433] conv5 -> conv5
I1013 12:53:51.772629  6394 net.cpp:155] Setting up conv5
I1013 12:53:51.772657  6394 net.cpp:163] Top shape: 50 256 13 13 (2163200)
I1013 12:53:51.772670  6394 layer_factory.hpp:76] Creating layer relu5
I1013 12:53:51.772680  6394 net.cpp:110] Creating Layer relu5
I1013 12:53:51.772683  6394 net.cpp:477] relu5 <- conv5
I1013 12:53:51.772688  6394 net.cpp:419] relu5 -> conv5 (in-place)
I1013 12:53:51.772696  6394 net.cpp:155] Setting up relu5
I1013 12:53:51.772701  6394 net.cpp:163] Top shape: 50 256 13 13 (2163200)
I1013 12:53:51.772702  6394 layer_factory.hpp:76] Creating layer pool5
I1013 12:53:51.772708  6394 net.cpp:110] Creating Layer pool5
I1013 12:53:51.772711  6394 net.cpp:477] pool5 <- conv5
I1013 12:53:51.772716  6394 net.cpp:433] pool5 -> pool5
I1013 12:53:51.772747  6394 net.cpp:155] Setting up pool5
I1013 12:53:51.772757  6394 net.cpp:163] Top shape: 50 256 6 6 (460800)
I1013 12:53:51.772759  6394 layer_factory.hpp:76] Creating layer fc6
I1013 12:53:51.772774  6394 net.cpp:110] Creating Layer fc6
I1013 12:53:51.772779  6394 net.cpp:477] fc6 <- pool5
I1013 12:53:51.772786  6394 net.cpp:433] fc6 -> fc6
I1013 12:53:52.957204  6394 net.cpp:155] Setting up fc6
I1013 12:53:52.957231  6394 net.cpp:163] Top shape: 50 4096 (204800)
I1013 12:53:52.957242  6394 layer_factory.hpp:76] Creating layer relu6
I1013 12:53:52.957252  6394 net.cpp:110] Creating Layer relu6
I1013 12:53:52.957254  6394 net.cpp:477] relu6 <- fc6
I1013 12:53:52.957262  6394 net.cpp:419] relu6 -> fc6 (in-place)
I1013 12:53:52.957286  6394 net.cpp:155] Setting up relu6
I1013 12:53:52.957290  6394 net.cpp:163] Top shape: 50 4096 (204800)
I1013 12:53:52.957293  6394 layer_factory.hpp:76] Creating layer drop6
I1013 12:53:52.957304  6394 net.cpp:110] Creating Layer drop6
I1013 12:53:52.957306  6394 net.cpp:477] drop6 <- fc6
I1013 12:53:52.957312  6394 net.cpp:419] drop6 -> fc6 (in-place)
I1013 12:53:52.957342  6394 net.cpp:155] Setting up drop6
I1013 12:53:52.957350  6394 net.cpp:163] Top shape: 50 4096 (204800)
I1013 12:53:52.957352  6394 layer_factory.hpp:76] Creating layer fc7
I1013 12:53:52.957360  6394 net.cpp:110] Creating Layer fc7
I1013 12:53:52.957365  6394 net.cpp:477] fc7 <- fc6
I1013 12:53:52.957370  6394 net.cpp:433] fc7 -> fc7
I1013 12:53:53.483019  6394 net.cpp:155] Setting up fc7
I1013 12:53:53.483045  6394 net.cpp:163] Top shape: 50 4096 (204800)
I1013 12:53:53.483055  6394 layer_factory.hpp:76] Creating layer relu7
I1013 12:53:53.483064  6394 net.cpp:110] Creating Layer relu7
I1013 12:53:53.483068  6394 net.cpp:477] relu7 <- fc7
I1013 12:53:53.483078  6394 net.cpp:419] relu7 -> fc7 (in-place)
I1013 12:53:53.483088  6394 net.cpp:155] Setting up relu7
I1013 12:53:53.483091  6394 net.cpp:163] Top shape: 50 4096 (204800)
I1013 12:53:53.483094  6394 layer_factory.hpp:76] Creating layer drop7
I1013 12:53:53.483104  6394 net.cpp:110] Creating Layer drop7
I1013 12:53:53.483119  6394 net.cpp:477] drop7 <- fc7
I1013 12:53:53.483124  6394 net.cpp:419] drop7 -> fc7 (in-place)
I1013 12:53:53.483152  6394 net.cpp:155] Setting up drop7
I1013 12:53:53.483160  6394 net.cpp:163] Top shape: 50 4096 (204800)
I1013 12:53:53.483163  6394 layer_factory.hpp:76] Creating layer fc8_ind
I1013 12:53:53.483171  6394 net.cpp:110] Creating Layer fc8_ind
I1013 12:53:53.483175  6394 net.cpp:477] fc8_ind <- fc7
I1013 12:53:53.483180  6394 net.cpp:433] fc8_ind -> fc8_ind
I1013 12:53:53.484505  6394 net.cpp:155] Setting up fc8_ind
I1013 12:53:53.484514  6394 net.cpp:163] Top shape: 50 10 (500)
I1013 12:53:53.484519  6394 layer_factory.hpp:76] Creating layer prob
I1013 12:53:53.484525  6394 net.cpp:110] Creating Layer prob
I1013 12:53:53.484527  6394 net.cpp:477] prob <- fc8_ind
I1013 12:53:53.484534  6394 net.cpp:433] prob -> prob
I1013 12:53:53.484581  6394 net.cpp:155] Setting up prob
I1013 12:53:53.484588  6394 net.cpp:163] Top shape: 50 10 (500)
I1013 12:53:53.484591  6394 layer_factory.hpp:76] Creating layer accuracy
I1013 12:53:53.484599  6394 net.cpp:110] Creating Layer accuracy
I1013 12:53:53.484603  6394 net.cpp:477] accuracy <- prob
I1013 12:53:53.484607  6394 net.cpp:477] accuracy <- label
I1013 12:53:53.484614  6394 net.cpp:433] accuracy -> accuracy
I1013 12:53:53.484627  6394 net.cpp:155] Setting up accuracy
I1013 12:53:53.484632  6394 net.cpp:163] Top shape: (1)
…
