I1014 10:06:15.927103  5472 caffe.cpp:230] Use GPU with device ID 1
I1014 10:06:16.312984  5472 net.cpp:50] Initializing net from parameters: 
name: "AlexNet_ind_testing"
state {
  phase: TEST
}
layer {
  name: "data"
  type: "Data"
  top: "data"
  top: "label"
  transform_param {
    mirror: false
    crop_size: 227
    mean_file: "imagenet_mean.binaryproto"
  }
  data_param {
    source: "./ind_test_lmdb"
    batch_size: 50
    backend: LMDB
  }
}
layer {
  name: "conv1"
  type: "Convolution"
  bottom: "data"
  top: "conv1"
  param {
    lr_mult: 1
    decay_mult: 1
  }
  param {
    lr_mult: 2
    decay_mult: 0
  }
  convolution_param {
    num_output: 96
    kernel_size: 11
    stride: 4
    weight_filler {
      type: "gaussian"
      std: 0.01
    }
    bias_filler {
      type: "constant"
      value: 0
    }
  }
}
layer {
  name: "relu1"
  type: "ReLU"
  bottom: "conv1"
  top: "conv1"
}
layer {
  name: "norm1"
  type: "LRN"
  bottom: "conv1"
  top: "norm1"
  lrn_param {
    local_size: 5
    alpha: 0.0001
    beta: 0.75
  }
}
layer {
  name: "pool1"
  type: "Pooling"
  bottom: "norm1"
  top: "pool1"
  pooling_param {
    pool: MAX
    kernel_size: 3
    stride: 2
  }
}
layer {
  name: "conv2"
  type: "Convolution"
  bottom: "pool1"
  top: "conv2"
  param {
    lr_mult: 1
    decay_mult: 1
  }
  param {
    lr_mult: 2
    decay_mult: 0
  }
  convolution_param {
    num_output: 256
    pad: 2
    kernel_size: 5
    group: 2
    weight_filler {
      type: "gaussian"
      std: 0.01
    }
    bias_filler {
      type: "constant"
      value: 0.1
    }
  }
}
layer {
  name: "relu2"
  type: "ReLU"
  bottom: "conv2"
  top: "conv2"
}
layer {
  name: "norm2"
  type: "LRN"
  bottom: "conv2"
  top: "norm2"
  lrn_param {
    local_size: 5
    alpha: 0.0001
    beta: 0.75
  }
}
layer {
  name: "pool2"
  type: "Pooling"
  bottom: "norm2"
  top: "pool2"
  pooling_param {
    pool: MAX
    kernel_size: 3
    stride: 2
  }
}
layer {
  name: "conv3"
  type: "Convolution"
  bottom: "pool2"
  top: "conv3"
  param {
    lr_mult: 1
    decay_mult: 1
  }
  param {
    lr_mult: 2
    decay_mult: 0
  }
  convolution_param {
    num_output: 384
    pad: 1
    kernel_size: 3
    weight_filler {
      type: "gaussian"
      std: 0.01
    }
    bias_filler {
      type: "constant"
      value: 0
    }
  }
}
layer {
  name: "relu3"
  type: "ReLU"
  bottom: "conv3"
  top: "conv3"
}
layer {
  name: "conv4"
  type: "Convolution"
  bottom: "conv3"
  top: "conv4"
  param {
    lr_mult: 1
    decay_mult: 1
  }
  param {
    lr_mult: 2
    decay_mult: 0
  }
  convolution_param {
    num_output: 384
    pad: 1
    kernel_size: 3
    group: 2
    weight_filler {
      type: "gaussian"
      std: 0.01
    }
    bias_filler {
      type: "constant"
      value: 0.1
    }
  }
}
layer {
  name: "relu4"
  type: "ReLU"
  bottom: "conv4"
  top: "conv4"
}
layer {
  name: "conv5"
  type: "Convolution"
  bottom: "conv4"
  top: "conv5"
  param {
    lr_mult: 1
    decay_mult: 1
  }
  param {
    lr_mult: 2
    decay_mult: 0
  }
  convolution_param {
    num_output: 256
    pad: 1
    kernel_size: 3
    group: 2
    weight_filler {
      type: "gaussian"
      std: 0.01
    }
    bias_filler {
      type: "constant"
      value: 0.1
    }
  }
}
layer {
  name: "relu5"
  type: "ReLU"
  bottom: "conv5"
  top: "conv5"
}
layer {
  name: "pool5"
  type: "Pooling"
  bottom: "conv5"
  top: "pool5"
  pooling_param {
    pool: MAX
    kernel_size: 3
    stride: 2
  }
}
layer {
  name: "fc6"
  type: "InnerProduct"
  bottom: "pool5"
  top: "fc6"
  param {
    lr_mult: 1
    decay_mult: 1
  }
  param {
    lr_mult: 2
    decay_mult: 0
  }
  inner_product_param {
    num_output: 4096
    weight_filler {
      type: "gaussian"
      std: 0.005
    }
    bias_filler {
      type: "constant"
      value: 0.1
    }
  }
}
layer {
  name: "relu6"
  type: "ReLU"
  bottom: "fc6"
  top: "fc6"
}
layer {
  name: "drop6"
  type: "Dropout"
  bottom: "fc6"
  top: "fc6"
  dropout_param {
    dropout_ratio: 0.5
  }
}
layer {
  name: "fc7"
  type: "InnerProduct"
  bottom: "fc6"
  top: "fc7"
  param {
    lr_mult: 1
    decay_mult: 1
  }
  param {
    lr_mult: 2
    decay_mult: 0
  }
  inner_product_param {
    num_output: 4096
    weight_filler {
      type: "gaussian"
      std: 0.005
    }
    bias_filler {
      type: "constant"
      value: 0.1
    }
  }
}
layer {
  name: "relu7"
  type: "ReLU"
  bottom: "fc7"
  top: "fc7"
}
layer {
  name: "drop7"
  type: "Dropout"
  bottom: "fc7"
  top: "fc7"
  dropout_param {
    dropout_ratio: 0.5
  }
}
layer {
  name: "fc8_ind"
  type: "InnerProduct"
  bottom: "fc7"
  top: "fc8_ind"
  param {
    lr_mult: 1
    decay_mult: 1
  }
  param {
    lr_mult: 2
    decay_mult: 0
  }
  inner_product_param {
    num_output: 10
    weight_filler {
      type: "gaussian"
      std: 0.01
    }
    bias_filler {
      type: "constant"
      value: 0
    }
  }
}
layer {
  name: "prob"
  type: "Softmax"
  bottom: "fc8_ind"
  top: "prob"
}
layer {
  name: "accuracy"
  type: "Accuracy"
  bottom: "prob"
  bottom: "label"
  top: "accuracy"
}
I1014 10:06:16.313089  5472 layer_factory.hpp:76] Creating layer data
I1014 10:06:16.313527  5472 net.cpp:110] Creating Layer data
I1014 10:06:16.313537  5472 net.cpp:433] data -> data
I1014 10:06:16.313581  5472 net.cpp:433] data -> label
I1014 10:06:16.313597  5472 data_transformer.cpp:25] Loading mean file from: imagenet_mean.binaryproto
I1014 10:06:16.314402  5489 db_lmdb.cpp:23] Opened lmdb ./ind_test_lmdb
I1014 10:06:16.345424  5472 data_layer.cpp:45] output data size: 50,3,227,227
I1014 10:06:16.418985  5472 net.cpp:155] Setting up data
I1014 10:06:16.419023  5472 net.cpp:163] Top shape: 50 3 227 227 (7729350)
I1014 10:06:16.419029  5472 net.cpp:163] Top shape: 50 (50)
I1014 10:06:16.419037  5472 layer_factory.hpp:76] Creating layer conv1
I1014 10:06:16.419055  5472 net.cpp:110] Creating Layer conv1
I1014 10:06:16.419061  5472 net.cpp:477] conv1 <- data
I1014 10:06:16.419085  5472 net.cpp:433] conv1 -> conv1
I1014 10:06:16.430620  5472 net.cpp:155] Setting up conv1
I1014 10:06:16.430635  5472 net.cpp:163] Top shape: 50 96 55 55 (14520000)
I1014 10:06:16.430652  5472 layer_factory.hpp:76] Creating layer relu1
I1014 10:06:16.430661  5472 net.cpp:110] Creating Layer relu1
I1014 10:06:16.430677  5472 net.cpp:477] relu1 <- conv1
I1014 10:06:16.430682  5472 net.cpp:419] relu1 -> conv1 (in-place)
I1014 10:06:16.430692  5472 net.cpp:155] Setting up relu1
I1014 10:06:16.430696  5472 net.cpp:163] Top shape: 50 96 55 55 (14520000)
I1014 10:06:16.430699  5472 layer_factory.hpp:76] Creating layer norm1
I1014 10:06:16.430711  5472 net.cpp:110] Creating Layer norm1
I1014 10:06:16.430713  5472 net.cpp:477] norm1 <- conv1
I1014 10:06:16.430719  5472 net.cpp:433] norm1 -> norm1
I1014 10:06:16.430752  5472 net.cpp:155] Setting up norm1
I1014 10:06:16.430759  5472 net.cpp:163] Top shape: 50 96 55 55 (14520000)
I1014 10:06:16.430763  5472 layer_factory.hpp:76] Creating layer pool1
I1014 10:06:16.430773  5472 net.cpp:110] Creating Layer pool1
I1014 10:06:16.430775  5472 net.cpp:477] pool1 <- norm1
I1014 10:06:16.430779  5472 net.cpp:433] pool1 -> pool1
I1014 10:06:16.430817  5472 net.cpp:155] Setting up pool1
I1014 10:06:16.430825  5472 net.cpp:163] Top shape: 50 96 27 27 (3499200)
I1014 10:06:16.430829  5472 layer_factory.hpp:76] Creating layer conv2
I1014 10:06:16.430837  5472 net.cpp:110] Creating Layer conv2
I1014 10:06:16.430842  5472 net.cpp:477] conv2 <- pool1
I1014 10:06:16.430848  5472 net.cpp:433] conv2 -> conv2
I1014 10:06:16.441030  5472 net.cpp:155] Setting up conv2
I1014 10:06:16.441066  5472 net.cpp:163] Top shape: 50 256 27 27 (9331200)
I1014 10:06:16.441079  5472 layer_factory.hpp:76] Creating layer relu2
I1014 10:06:16.441089  5472 net.cpp:110] Creating Layer relu2
I1014 10:06:16.441092  5472 net.cpp:477] relu2 <- conv2
I1014 10:06:16.441102  5472 net.cpp:419] relu2 -> conv2 (in-place)
I1014 10:06:16.441112  5472 net.cpp:155] Setting up relu2
I1014 10:06:16.441117  5472 net.cpp:163] Top shape: 50 256 27 27 (9331200)
I1014 10:06:16.441119  5472 layer_factory.hpp:76] Creating layer norm2
I1014 10:06:16.441126  5472 net.cpp:110] Creating Layer norm2
I1014 10:06:16.441129  5472 net.cpp:477] norm2 <- conv2
I1014 10:06:16.441134  5472 net.cpp:433] norm2 -> norm2
I1014 10:06:16.441164  5472 net.cpp:155] Setting up norm2
I1014 10:06:16.441172  5472 net.cpp:163] Top shape: 50 256 27 27 (9331200)
I1014 10:06:16.441176  5472 layer_factory.hpp:76] Creating layer pool2
I1014 10:06:16.441184  5472 net.cpp:110] Creating Layer pool2
I1014 10:06:16.441185  5472 net.cpp:477] pool2 <- norm2
I1014 10:06:16.441191  5472 net.cpp:433] pool2 -> pool2
I1014 10:06:16.441220  5472 net.cpp:155] Setting up pool2
I1014 10:06:16.441227  5472 net.cpp:163] Top shape: 50 256 13 13 (2163200)
I1014 10:06:16.441231  5472 layer_factory.hpp:76] Creating layer conv3
I1014 10:06:16.441239  5472 net.cpp:110] Creating Layer conv3
I1014 10:06:16.441244  5472 net.cpp:477] conv3 <- pool2
I1014 10:06:16.441251  5472 net.cpp:433] conv3 -> conv3
I1014 10:06:16.477563  5472 net.cpp:155] Setting up conv3
I1014 10:06:16.477586  5472 net.cpp:163] Top shape: 50 384 13 13 (3244800)
I1014 10:06:16.477598  5472 layer_factory.hpp:76] Creating layer relu3
I1014 10:06:16.477607  5472 net.cpp:110] Creating Layer relu3
I1014 10:06:16.477612  5472 net.cpp:477] relu3 <- conv3
I1014 10:06:16.477619  5472 net.cpp:419] relu3 -> conv3 (in-place)
I1014 10:06:16.477643  5472 net.cpp:155] Setting up relu3
I1014 10:06:16.477648  5472 net.cpp:163] Top shape: 50 384 13 13 (3244800)
I1014 10:06:16.477649  5472 layer_factory.hpp:76] Creating layer conv4
I1014 10:06:16.477659  5472 net.cpp:110] Creating Layer conv4
I1014 10:06:16.477663  5472 net.cpp:477] conv4 <- conv3
I1014 10:06:16.477668  5472 net.cpp:433] conv4 -> conv4
I1014 10:06:16.498487  5472 net.cpp:155] Setting up conv4
I1014 10:06:16.498524  5472 net.cpp:163] Top shape: 50 384 13 13 (3244800)
I1014 10:06:16.498533  5472 layer_factory.hpp:76] Creating layer relu4
I1014 10:06:16.498543  5472 net.cpp:110] Creating Layer relu4
I1014 10:06:16.498548  5472 net.cpp:477] relu4 <- conv4
I1014 10:06:16.498554  5472 net.cpp:419] relu4 -> conv4 (in-place)
I1014 10:06:16.498564  5472 net.cpp:155] Setting up relu4
I1014 10:06:16.498569  5472 net.cpp:163] Top shape: 50 384 13 13 (3244800)
I1014 10:06:16.498571  5472 layer_factory.hpp:76] Creating layer conv5
I1014 10:06:16.498584  5472 net.cpp:110] Creating Layer conv5
I1014 10:06:16.498587  5472 net.cpp:477] conv5 <- conv4
I1014 10:06:16.498594  5472 net.cpp:433] conv5 -> conv5
I1014 10:06:16.512545  5472 net.cpp:155] Setting up conv5
I1014 10:06:16.512578  5472 net.cpp:163] Top shape: 50 256 13 13 (2163200)
I1014 10:06:16.512590  5472 layer_factory.hpp:76] Creating layer relu5
I1014 10:06:16.512599  5472 net.cpp:110] Creating Layer relu5
I1014 10:06:16.512603  5472 net.cpp:477] relu5 <- conv5
I1014 10:06:16.512609  5472 net.cpp:419] relu5 -> conv5 (in-place)
I1014 10:06:16.512619  5472 net.cpp:155] Setting up relu5
I1014 10:06:16.512621  5472 net.cpp:163] Top shape: 50 256 13 13 (2163200)
I1014 10:06:16.512624  5472 layer_factory.hpp:76] Creating layer pool5
I1014 10:06:16.512630  5472 net.cpp:110] Creating Layer pool5
I1014 10:06:16.512632  5472 net.cpp:477] pool5 <- conv5
I1014 10:06:16.512639  5472 net.cpp:433] pool5 -> pool5
I1014 10:06:16.512672  5472 net.cpp:155] Setting up pool5
I1014 10:06:16.512680  5472 net.cpp:163] Top shape: 50 256 6 6 (460800)
I1014 10:06:16.512682  5472 layer_factory.hpp:76] Creating layer fc6
I1014 10:06:16.512699  5472 net.cpp:110] Creating Layer fc6
I1014 10:06:16.512704  5472 net.cpp:477] fc6 <- pool5
I1014 10:06:16.512709  5472 net.cpp:433] fc6 -> fc6
I1014 10:06:17.660382  5472 net.cpp:155] Setting up fc6
I1014 10:06:17.660406  5472 net.cpp:163] Top shape: 50 4096 (204800)
I1014 10:06:17.660415  5472 layer_factory.hpp:76] Creating layer relu6
I1014 10:06:17.660424  5472 net.cpp:110] Creating Layer relu6
I1014 10:06:17.660429  5472 net.cpp:477] relu6 <- fc6
I1014 10:06:17.660437  5472 net.cpp:419] relu6 -> fc6 (in-place)
I1014 10:06:17.660447  5472 net.cpp:155] Setting up relu6
I1014 10:06:17.660451  5472 net.cpp:163] Top shape: 50 4096 (204800)
I1014 10:06:17.660454  5472 layer_factory.hpp:76] Creating layer drop6
I1014 10:06:17.660465  5472 net.cpp:110] Creating Layer drop6
I1014 10:06:17.660467  5472 net.cpp:477] drop6 <- fc6
I1014 10:06:17.660471  5472 net.cpp:419] drop6 -> fc6 (in-place)
I1014 10:06:17.660501  5472 net.cpp:155] Setting up drop6
I1014 10:06:17.660509  5472 net.cpp:163] Top shape: 50 4096 (204800)
I1014 10:06:17.660513  5472 layer_factory.hpp:76] Creating layer fc7
I1014 10:06:17.660521  5472 net.cpp:110] Creating Layer fc7
I1014 10:06:17.660523  5472 net.cpp:477] fc7 <- fc6
I1014 10:06:17.660528  5472 net.cpp:433] fc7 -> fc7
I1014 10:06:18.170933  5472 net.cpp:155] Setting up fc7
I1014 10:06:18.170956  5472 net.cpp:163] Top shape: 50 4096 (204800)
I1014 10:06:18.170965  5472 layer_factory.hpp:76] Creating layer relu7
I1014 10:06:18.170975  5472 net.cpp:110] Creating Layer relu7
I1014 10:06:18.170979  5472 net.cpp:477] relu7 <- fc7
I1014 10:06:18.170987  5472 net.cpp:419] relu7 -> fc7 (in-place)
I1014 10:06:18.170999  5472 net.cpp:155] Setting up relu7
I1014 10:06:18.171002  5472 net.cpp:163] Top shape: 50 4096 (204800)
I1014 10:06:18.171005  5472 layer_factory.hpp:76] Creating layer drop7
I1014 10:06:18.171010  5472 net.cpp:110] Creating Layer drop7
I1014 10:06:18.171013  5472 net.cpp:477] drop7 <- fc7
I1014 10:06:18.171018  5472 net.cpp:419] drop7 -> fc7 (in-place)
I1014 10:06:18.171041  5472 net.cpp:155] Setting up drop7
I1014 10:06:18.171047  5472 net.cpp:163] Top shape: 50 4096 (204800)
I1014 10:06:18.171051  5472 layer_factory.hpp:76] Creating layer fc8_ind
I1014 10:06:18.171059  5472 net.cpp:110] Creating Layer fc8_ind
I1014 10:06:18.171062  5472 net.cpp:477] fc8_ind <- fc7
I1014 10:06:18.171067  5472 net.cpp:433] fc8_ind -> fc8_ind
I1014 10:06:18.172389  5472 net.cpp:155] Setting up fc8_ind
I1014 10:06:18.172399  5472 net.cpp:163] Top shape: 50 10 (500)
I1014 10:06:18.172404  5472 layer_factory.hpp:76] Creating layer prob
I1014 10:06:18.172410  5472 net.cpp:110] Creating Layer prob
I1014 10:06:18.172412  5472 net.cpp:477] prob <- fc8_ind
I1014 10:06:18.172416  5472 net.cpp:433] prob -> prob
I1014 10:06:18.172462  5472 net.cpp:155] Setting up prob
I1014 10:06:18.172471  5472 net.cpp:163] Top shape: 50 10 (500)
I1014 10:06:18.172473  5472 layer_factory.hpp:76] Creating layer accuracy
I1014 10:06:18.172479  5472 net.cpp:110] Creating Layer accuracy
I1014 10:06:18.172482  5472 net.cpp:477] accuracy <- prob
I1014 10:06:18.172487  5472 net.cpp:477] accuracy <- label
I1014 10:06:18.172492  5472 net.cpp:433] accuracy -> accuracy
I1014 10:06:18.172504  5472 net.cpp:155] Setting up accuracy
I1014 10:06:18.172513  5472 net.cpp:163] Top shape: (1)
…
