…
snapshot_prefix: "snapshot/caffe_alexnet_finetuning"
solver_mode: GPU
device_id: 0
I1014 20:33:02.023284 17640 solver.cpp:87] Creating training net from train_net file: ./proto/alexnet_ind_finetuning_train.prototxt
I1014 20:33:02.023910 17640 net.cpp:50] Initializing net from parameters: 
name: "AlexNet_ind_finetuning"
state {
  phase: TRAIN
}
layer {
  name: "data"
  type: "Data"
  top: "data"
  top: "label"
  transform_param {
    mirror: true
    crop_size: 227
    mean_file: "imagenet_mean.binaryproto"
  }
  data_param {
    source: "./ind_train_lmdb"
    batch_size: 256
    backend: LMDB
  }
}
layer {
  name: "conv1"
  type: "Convolution"
  bottom: "data"
  top: "conv1"
  param {
    lr_mult: 1
    decay_mult: 1
  }
  param {
    lr_mult: 2
    decay_mult: 0
  }
  convolution_param {
    num_output: 96
    kernel_size: 11
    stride: 4
    weight_filler {
      type: "gaussian"
      std: 0.01
    }
    bias_filler {
      type: "constant"
      value: 0
    }
  }
}
layer {
  name: "relu1"
  type: "ReLU"
  bottom: "conv1"
  top: "conv1"
}
layer {
  name: "norm1"
  type: "LRN"
  bottom: "conv1"
  top: "norm1"
  lrn_param {
    local_size: 5
    alpha: 0.0001
    beta: 0.75
  }
}
layer {
  name: "pool1"
  type: "Pooling"
  bottom: "norm1"
  top: "pool1"
  pooling_param {
    pool: MAX
    kernel_size: 3
    stride: 2
  }
}
layer {
  name: "conv2"
  type: "Convolution"
  bottom: "pool1"
  top: "conv2"
  param {
    lr_mult: 1
    decay_mult: 1
  }
  param {
    lr_mult: 2
    decay_mult: 0
  }
  convolution_param {
    num_output: 256
    pad: 2
    kernel_size: 5
    group: 2
    weight_filler {
      type: "gaussian"
      std: 0.01
    }
    bias_filler {
      type: "constant"
      value: 0.1
    }
  }
}
layer {
  name: "relu2"
  type: "ReLU"
  bottom: "conv2"
  top: "conv2"
}
layer {
  name: "norm2"
  type: "LRN"
  bottom: "conv2"
  top: "norm2"
  lrn_param {
    local_size: 5
    alpha: 0.0001
    beta: 0.75
  }
}
layer {
  name: "pool2"
  type: "Pooling"
  bottom: "norm2"
  top: "pool2"
  pooling_param {
    pool: MAX
    kernel_size: 3
    stride: 2
  }
}
layer {
  name: "conv3"
  type: "Convolution"
  bottom: "pool2"
  top: "conv3"
  param {
    lr_mult: 1
    decay_mult: 1
  }
  param {
    lr_mult: 2
    decay_mult: 0
  }
  convolution_param {
    num_output: 384
    pad: 1
    kernel_size: 3
    weight_filler {
      type: "gaussian"
      std: 0.01
    }
    bias_filler {
      type: "constant"
      value: 0
    }
  }
}
layer {
  name: "relu3"
  type: "ReLU"
  bottom: "conv3"
  top: "conv3"
}
layer {
  name: "conv4"
  type: "Convolution"
  bottom: "conv3"
  top: "conv4"
  param {
    lr_mult: 1
    decay_mult: 1
  }
  param {
    lr_mult: 2
    decay_mult: 0
  }
  convolution_param {
    num_output: 384
    pad: 1
    kernel_size: 3
    group: 2
    weight_filler {
      type: "gaussian"
      std: 0.01
    }
    bias_filler {
      type: "constant"
      value: 0.1
    }
  }
}
layer {
  name: "relu4"
  type: "ReLU"
  bottom: "conv4"
  top: "conv4"
}
layer {
  name: "conv5"
  type: "Convolution"
  bottom: "conv4"
  top: "conv5"
  param {
    lr_mult: 1
    decay_mult: 1
  }
  param {
    lr_mult: 2
    decay_mult: 0
  }
  convolution_param {
    num_output: 256
    pad: 1
    kernel_size: 3
    group: 2
    weight_filler {
      type: "gaussian"
      std: 0.01
    }
    bias_filler {
      type: "constant"
      value: 0.1
    }
  }
}
layer {
  name: "relu5"
  type: "ReLU"
  bottom: "conv5"
  top: "conv5"
}
layer {
  name: "pool5"
  type: "Pooling"
  bottom: "conv5"
  top: "pool5"
  pooling_param {
    pool: MAX
    kernel_size: 3
    stride: 2
  }
}
layer {
  name: "fc6"
  type: "InnerProduct"
  bottom: "pool5"
  top: "fc6"
  param {
    lr_mult: 1
    decay_mult: 1
  }
  param {
    lr_mult: 2
    decay_mult: 0
  }
  inner_product_param {
    num_output: 4096
    weight_filler {
      type: "gaussian"
      std: 0.005
    }
    bias_filler {
      type: "constant"
      value: 0.1
    }
  }
}
layer {
  name: "relu6"
  type: "ReLU"
  bottom: "fc6"
  top: "fc6"
}
layer {
  name: "drop6"
  type: "Dropout"
  bottom: "fc6"
  top: "fc6"
  dropout_param {
    dropout_ratio: 0.5
  }
}
layer {
  name: "fc7"
  type: "InnerProduct"
  bottom: "fc6"
  top: "fc7"
  param {
    lr_mult: 1
    decay_mult: 1
  }
  param {
    lr_mult: 2
    decay_mult: 0
  }
  inner_product_param {
    num_output: 4096
    weight_filler {
      type: "gaussian"
      std: 0.005
    }
    bias_filler {
      type: "constant"
      value: 0.1
    }
  }
}
layer {
  name: "relu7"
  type: "ReLU"
  bottom: "fc7"
  top: "fc7"
}
layer {
  name: "drop7"
  type: "Dropout"
  bottom: "fc7"
  top: "fc7"
  dropout_param {
    dropout_ratio: 0.5
  }
}
layer {
  name: "fc8_ind"
  type: "InnerProduct"
  bottom: "fc7"
  top: "fc8_ind"
  param {
    lr_mult: 10
    decay_mult: 1
  }
  param {
    lr_mult: 20
    decay_mult: 0
  }
  inner_product_param {
    num_output: 10
    weight_filler {
      type: "gaussian"
      std: 0.01
    }
    bias_filler {
      type: "constant"
      value: 0
    }
  }
}
layer {
  name: "loss"
  type: "SoftmaxWithLoss"
  bottom: "fc8_ind"
  bottom: "label"
  top: "loss"
}
I1014 20:33:02.024013 17640 layer_factory.hpp:76] Creating layer data
I1014 20:33:02.024596 17640 net.cpp:110] Creating Layer data
I1014 20:33:02.024607 17640 net.cpp:433] data -> data
I1014 20:33:02.024662 17640 net.cpp:433] data -> label
I1014 20:33:02.024682 17640 data_transformer.cpp:25] Loading mean file from: imagenet_mean.binaryproto
I1014 20:33:02.054433 17642 db_lmdb.cpp:23] Opened lmdb ./ind_train_lmdb
I1014 20:33:02.113921 17640 data_layer.cpp:45] output data size: 256,3,227,227
I1014 20:33:02.419034 17640 net.cpp:155] Setting up data
I1014 20:33:02.419067 17640 net.cpp:163] Top shape: 256 3 227 227 (39574272)
I1014 20:33:02.419072 17640 net.cpp:163] Top shape: 256 (256)
I1014 20:33:02.419081 17640 layer_factory.hpp:76] Creating layer conv1
I1014 20:33:02.419100 17640 net.cpp:110] Creating Layer conv1
I1014 20:33:02.419106 17640 net.cpp:477] conv1 <- data
I1014 20:33:02.419116 17640 net.cpp:433] conv1 -> conv1
I1014 20:33:02.468561 17640 net.cpp:155] Setting up conv1
I1014 20:33:02.468586 17640 net.cpp:163] Top shape: 256 96 55 55 (74342400)
I1014 20:33:02.468608 17640 layer_factory.hpp:76] Creating layer relu1
I1014 20:33:02.468621 17640 net.cpp:110] Creating Layer relu1
I1014 20:33:02.468626 17640 net.cpp:477] relu1 <- conv1
I1014 20:33:02.468633 17640 net.cpp:419] relu1 -> conv1 (in-place)
I1014 20:33:02.468647 17640 net.cpp:155] Setting up relu1
I1014 20:33:02.468652 17640 net.cpp:163] Top shape: 256 96 55 55 (74342400)
I1014 20:33:02.468655 17640 layer_factory.hpp:76] Creating layer norm1
I1014 20:33:02.468664 17640 net.cpp:110] Creating Layer norm1
I1014 20:33:02.468667 17640 net.cpp:477] norm1 <- conv1
I1014 20:33:02.468673 17640 net.cpp:433] norm1 -> norm1
I1014 20:33:02.468709 17640 net.cpp:155] Setting up norm1
I1014 20:33:02.468718 17640 net.cpp:163] Top shape: 256 96 55 55 (74342400)
I1014 20:33:02.468721 17640 layer_factory.hpp:76] Creating layer pool1
I1014 20:33:02.468730 17640 net.cpp:110] Creating Layer pool1
I1014 20:33:02.468736 17640 net.cpp:477] pool1 <- norm1
I1014 20:33:02.468742 17640 net.cpp:433] pool1 -> pool1
I1014 20:33:02.468783 17640 net.cpp:155] Setting up pool1
I1014 20:33:02.468791 17640 net.cpp:163] Top shape: 256 96 27 27 (17915904)
I1014 20:33:02.468796 17640 layer_factory.hpp:76] Creating layer conv2
I1014 20:33:02.468806 17640 net.cpp:110] Creating Layer conv2
I1014 20:33:02.468808 17640 net.cpp:477] conv2 <- pool1
I1014 20:33:02.468814 17640 net.cpp:433] conv2 -> conv2
I1014 20:33:02.475003 17643 blocking_queue.cpp:50] Waiting for data
I1014 20:33:02.479771 17640 net.cpp:155] Setting up conv2
I1014 20:33:02.479792 17640 net.cpp:163] Top shape: 256 256 27 27 (47775744)
I1014 20:33:02.479806 17640 layer_factory.hpp:76] Creating layer relu2
I1014 20:33:02.479816 17640 net.cpp:110] Creating Layer relu2
I1014 20:33:02.479820 17640 net.cpp:477] relu2 <- conv2
I1014 20:33:02.479826 17640 net.cpp:419] relu2 -> conv2 (in-place)
I1014 20:33:02.479837 17640 net.cpp:155] Setting up relu2
I1014 20:33:02.479842 17640 net.cpp:163] Top shape: 256 256 27 27 (47775744)
I1014 20:33:02.479846 17640 layer_factory.hpp:76] Creating layer norm2
I1014 20:33:02.479851 17640 net.cpp:110] Creating Layer norm2
I1014 20:33:02.479854 17640 net.cpp:477] norm2 <- conv2
I1014 20:33:02.479861 17640 net.cpp:433] norm2 -> norm2
I1014 20:33:02.479893 17640 net.cpp:155] Setting up norm2
I1014 20:33:02.479902 17640 net.cpp:163] Top shape: 256 256 27 27 (47775744)
I1014 20:33:02.479905 17640 layer_factory.hpp:76] Creating layer pool2
I1014 20:33:02.479914 17640 net.cpp:110] Creating Layer pool2
I1014 20:33:02.479918 17640 net.cpp:477] pool2 <- norm2
I1014 20:33:02.479924 17640 net.cpp:433] pool2 -> pool2
I1014 20:33:02.479954 17640 net.cpp:155] Setting up pool2
I1014 20:33:02.479962 17640 net.cpp:163] Top shape: 256 256 13 13 (11075584)
I1014 20:33:02.479965 17640 layer_factory.hpp:76] Creating layer conv3
I1014 20:33:02.479974 17640 net.cpp:110] Creating Layer conv3
I1014 20:33:02.479977 17640 net.cpp:477] conv3 <- pool2
I1014 20:33:02.479984 17640 net.cpp:433] conv3 -> conv3
I1014 20:33:02.509568 17640 net.cpp:155] Setting up conv3
I1014 20:33:02.509593 17640 net.cpp:163] Top shape: 256 384 13 13 (16613376)
I1014 20:33:02.509605 17640 layer_factory.hpp:76] Creating layer relu3
I1014 20:33:02.509615 17640 net.cpp:110] Creating Layer relu3
I1014 20:33:02.509620 17640 net.cpp:477] relu3 <- conv3
I1014 20:33:02.509627 17640 net.cpp:419] relu3 -> conv3 (in-place)
I1014 20:33:02.509637 17640 net.cpp:155] Setting up relu3
I1014 20:33:02.509642 17640 net.cpp:163] Top shape: 256 384 13 13 (16613376)
I1014 20:33:02.509645 17640 layer_factory.hpp:76] Creating layer conv4
I1014 20:33:02.509654 17640 net.cpp:110] Creating Layer conv4
I1014 20:33:02.509659 17640 net.cpp:477] conv4 <- conv3
I1014 20:33:02.509665 17640 net.cpp:433] conv4 -> conv4
I1014 20:33:02.531957 17640 net.cpp:155] Setting up conv4
I1014 20:33:02.531970 17640 net.cpp:163] Top shape: 256 384 13 13 (16613376)
I1014 20:33:02.531977 17640 layer_factory.hpp:76] Creating layer relu4
I1014 20:33:02.531985 17640 net.cpp:110] Creating Layer relu4
I1014 20:33:02.531988 17640 net.cpp:477] relu4 <- conv4
I1014 20:33:02.531993 17640 net.cpp:419] relu4 -> conv4 (in-place)
I1014 20:33:02.532001 17640 net.cpp:155] Setting up relu4
I1014 20:33:02.532004 17640 net.cpp:163] Top shape: 256 384 13 13 (16613376)
I1014 20:33:02.532007 17640 layer_factory.hpp:76] Creating layer conv5
I1014 20:33:02.532014 17640 net.cpp:110] Creating Layer conv5
I1014 20:33:02.532017 17640 net.cpp:477] conv5 <- conv4
I1014 20:33:02.532023 17640 net.cpp:433] conv5 -> conv5
I1014 20:33:02.546993 17640 net.cpp:155] Setting up conv5
I1014 20:33:02.547016 17640 net.cpp:163] Top shape: 256 256 13 13 (11075584)
I1014 20:33:02.547029 17640 layer_factory.hpp:76] Creating layer relu5
I1014 20:33:02.547039 17640 net.cpp:110] Creating Layer relu5
I1014 20:33:02.547044 17640 net.cpp:477] relu5 <- conv5
I1014 20:33:02.547050 17640 net.cpp:419] relu5 -> conv5 (in-place)
I1014 20:33:02.547060 17640 net.cpp:155] Setting up relu5
I1014 20:33:02.547065 17640 net.cpp:163] Top shape: 256 256 13 13 (11075584)
I1014 20:33:02.547067 17640 layer_factory.hpp:76] Creating layer pool5
I1014 20:33:02.547073 17640 net.cpp:110] Creating Layer pool5
I1014 20:33:02.547076 17640 net.cpp:477] pool5 <- conv5
I1014 20:33:02.547082 17640 net.cpp:433] pool5 -> pool5
I1014 20:33:02.547116 17640 net.cpp:155] Setting up pool5
I1014 20:33:02.547123 17640 net.cpp:163] Top shape: 256 256 6 6 (2359296)
I1014 20:33:02.547127 17640 layer_factory.hpp:76] Creating layer fc6
I1014 20:33:02.547147 17640 net.cpp:110] Creating Layer fc6
I1014 20:33:02.547152 17640 net.cpp:477] fc6 <- pool5
I1014 20:33:02.547158 17640 net.cpp:433] fc6 -> fc6
I1014 20:33:03.792692 17640 net.cpp:155] Setting up fc6
I1014 20:33:03.792717 17640 net.cpp:163] Top shape: 256 4096 (1048576)
I1014 20:33:03.792727 17640 layer_factory.hpp:76] Creating layer relu6
I1014 20:33:03.792739 17640 net.cpp:110] Creating Layer relu6
I1014 20:33:03.792743 17640 net.cpp:477] relu6 <- fc6
I1014 20:33:03.792752 17640 net.cpp:419] relu6 -> fc6 (in-place)
I1014 20:33:03.792762 17640 net.cpp:155] Setting up relu6
I1014 20:33:03.792767 17640 net.cpp:163] Top shape: 256 4096 (1048576)
I1014 20:33:03.792769 17640 layer_factory.hpp:76] Creating layer drop6
I1014 20:33:03.792781 17640 net.cpp:110] Creating Layer drop6
I1014 20:33:03.792785 17640 net.cpp:477] drop6 <- fc6
I1014 20:33:03.792789 17640 net.cpp:419] drop6 -> fc6 (in-place)
I1014 20:33:03.792814 17640 net.cpp:155] Setting up drop6
I1014 20:33:03.792822 17640 net.cpp:163] Top shape: 256 4096 (1048576)
I1014 20:33:03.792826 17640 layer_factory.hpp:76] Creating layer fc7
I1014 20:33:03.792835 17640 net.cpp:110] Creating Layer fc7
I1014 20:33:03.792841 17640 net.cpp:477] fc7 <- fc6
I1014 20:33:03.792847 17640 net.cpp:433] fc7 -> fc7
I1014 20:33:04.346982 17640 net.cpp:155] Setting up fc7
I1014 20:33:04.347007 17640 net.cpp:163] Top shape: 256 4096 (1048576)
I1014 20:33:04.347018 17640 layer_factory.hpp:76] Creating layer relu7
I1014 20:33:04.347028 17640 net.cpp:110] Creating Layer relu7
I1014 20:33:04.347031 17640 net.cpp:477] relu7 <- fc7
I1014 20:33:04.347038 17640 net.cpp:419] relu7 -> fc7 (in-place)
I1014 20:33:04.347048 17640 net.cpp:155] Setting up relu7
I1014 20:33:04.347056 17640 net.cpp:163] Top shape: 256 4096 (1048576)
I1014 20:33:04.347059 17640 layer_factory.hpp:76] Creating layer drop7
I1014 20:33:04.347066 17640 net.cpp:110] Creating Layer drop7
I1014 20:33:04.347069 17640 net.cpp:477] drop7 <- fc7
I1014 20:33:04.347075 17640 net.cpp:419] drop7 -> fc7 (in-place)
I1014 20:33:04.347093 17640 net.cpp:155] Setting up drop7
I1014 20:33:04.347102 17640 net.cpp:163] Top shape: 256 4096 (1048576)
I1014 20:33:04.347105 17640 layer_factory.hpp:76] Creating layer fc8_ind
I1014 20:33:04.347115 17640 net.cpp:110] Creating Layer fc8_ind
I1014 20:33:04.347120 17640 net.cpp:477] fc8_ind <- fc7
I1014 20:33:04.347126 17640 net.cpp:433] fc8_ind -> fc8_ind
I1014 20:33:04.348529 17640 net.cpp:155] Setting up fc8_ind
I1014 20:33:04.348538 17640 net.cpp:163] Top shape: 256 10 (2560)
I1014 20:33:04.348544 17640 layer_factory.hpp:76] Creating layer loss
I1014 20:33:04.348556 17640 net.cpp:110] Creating Layer loss
I1014 20:33:04.348559 17640 net.cpp:477] loss <- fc8_ind
I1014 20:33:04.348563 17640 net.cpp:477] loss <- label
I1014 20:33:04.348572 17640 net.cpp:433] loss -> loss
I1014 20:33:04.348582 17640 layer_factory.hpp:76] Creating layer loss
I1014 20:33:04.348659 17640 net.cpp:155] Setting up loss
…
