…
I1128 09:18:11.116847 27275 net.cpp:339] The NetState phase (0) differed from the phase (1) specified by a rule in layer loss3/top-5
I1128 09:18:11.117576 27275 net.cpp:50] Initializing net from parameters: 
name: "GoogleNet"
state {
  phase: TRAIN
}
layer {
  name: "data"
  type: "Data"
  top: "data"
  top: "label"
  include {
    phase: TRAIN
  }
  transform_param {
    mirror: true
    crop_size: 224
    mean_value: 104
    mean_value: 117
    mean_value: 123
  }
  data_param {
    source: "./ind_train_lmdb"
    batch_size: 32
    backend: LMDB
  }
}
layer {
  name: "conv1/7x7_s2"
  type: "Convolution"
  bottom: "data"
  top: "conv1/7x7_s2"
  param {
    lr_mult: 1
    decay_mult: 1
  }
  param {
    lr_mult: 2
    decay_mult: 0
  }
  convolution_param {
    num_output: 64
    pad: 3
    kernel_size: 7
    stride: 2
    weight_filler {
      type: "xavier"
    }
    bias_filler {
      type: "constant"
      value: 0.2
    }
  }
}
layer {
  name: "conv1/relu_7x7"
  type: "ReLU"
  bottom: "conv1/7x7_s2"
  top: "conv1/7x7_s2"
}
layer {
  name: "pool1/3x3_s2"
  type: "Pooling"
  bottom: "conv1/7x7_s2"
  top: "pool1/3x3_s2"
  pooling_param {
    pool: MAX
    kernel_size: 3
    stride: 2
  }
}
layer {
  name: "pool1/norm1"
  type: "LRN"
  bottom: "pool1/3x3_s2"
  top: "pool1/norm1"
  lrn_param {
    local_size: 5
    alpha: 0.0001
    beta: 0.75
  }
}
layer {
  name: "conv2/3x3_reduce"
  type: "Convolution"
  bottom: "pool1/norm1"
  top: "conv2/3x3_reduce"
  param {
    lr_mult: 1
    decay_mult: 1
  }
  param {
    lr_mult: 2
    decay_mult: 0
  }
  convolution_param {
    num_output: 64
    kernel_size: 1
    weight_filler {
      type: "xavier"
    }
    bias_filler {
      type: "constant"
      value: 0.2
    }
  }
}
layer {
  name: "conv2/relu_3x3_reduce"
  type: "ReLU"
  bottom: "conv2/3x3_reduce"
  top: "conv2/3x3_reduce"
}
layer {
  name: "conv2/3x3"
  type: "Convolution"
  bottom: "conv2/3x3_reduce"
  top: "conv2/3x3"
  param {
    lr_mult: 1
    decay_mult: 1
  }
  param {
    lr_mult: 2
    decay_mult: 0
  }
  convolution_param {
    num_output: 192
    pad: 1
    kernel_size: 3
    weight_filler {
      type: "xavier"
    }
    bias_filler {
      type: "constant"
      value: 0.2
    }
  }
}
layer {
  name: "conv2/relu_3x3"
  type: "ReLU"
  bottom: "conv2/3x3"
  top: "conv2/3x3"
}
layer {
  name: "conv2/norm2"
  type: "LRN"
  bottom: "conv2/3x3"
  top: "conv2/norm2"
  lrn_param {
    local_size: 5
    alpha: 0.0001
    beta: 0.75
  }
}
layer {
  name: "pool2/3x3_s2"
  type: "Pooling"
  bottom: "conv2/norm2"
  top: "pool2/3x3_s2"
  pooling_param {
    pool: MAX
    kernel_size: 3
    stride: 2
  }
}
layer {
  name: "inception_3a/1x1"
  type: "Convolution"
  bottom: "pool2/3x3_s2"
  top: "inception_3a/1x1"
  param {
    lr_mult: 1
    decay_mult: 1
  }
  param {
    lr_mult: 2
    decay_mult: 0
  }
  convolution_param {
    num_output: 64
    kernel_size: 1
    weight_filler {
      type: "xavier"
    }
    bias_filler {
      type: "constant"
      value: 0.2
    }
  }
}
layer {
  name: "inception_3a/relu_1x1"
  type: "ReLU"
  bottom: "inception_3a/1x1"
  top: "inception_3a/1x1"
}
layer {
  name: "inception_3a/3x3_reduce"
  type: "Convolution"
  bottom: "pool2/3x3_s2"
  top: "inception_3a/3x3_reduce"
  param {
    lr_mult: 1
    decay_mult: 1
  }
  param {
    lr_mult: 2
    decay_mult: 0
  }
  convolution_param {
    num_output: 96
    kernel_size: 1
    weight_filler {
      type: "xavier"
    }
    bias_filler {
      type: "constant"
      value: 0.2
    }
  }
}
layer {
  name: "inception_3a/relu_3x3_reduce"
  type: "ReLU"
  bottom: "inception_3a/3x3_reduce"
  top: "inception_3a/3x3_reduce"
}
layer {
  name: "inception_3a/3x3"
  type: "Convolution"
  bottom: "inception_3a/3x3_reduce"
  top: "inception_3a/3x3"
  param {
    lr_mult: 1
    decay_mult: 1
  }
  param {
    lr_mult: 2
    decay_mult: 0
  }
  convolution_param {
    num_output: 128
    pad: 1
    kernel_size: 3
    weight_filler {
      type: "xavier"
    }
    bias_filler {
      type: "constant"
      value: 0.2
    }
  }
}
layer {
  name: "inception_3a/relu_3x3"
  type: "ReLU"
  bottom: "inception_3a/3x3"
  top: "inception_3a/3x3"
}
layer {
  name: "inception_3a/5x5_reduce"
  type: "Convolution"
  bottom: "pool2/3x3_s2"
  top: "inception_3a/5x5_reduce"
  param {
    lr_mult: 1
    decay_mult: 1
  }
  param {
    lr_mult: 2
    decay_mult: 0
  }
  convolution_param {
    num_output: 16
    kernel_size: 1
    weight_filler {
      type: "xavier"
    }
    bias_filler {
      type: "constant"
      value: 0.2
    }
  }
}
layer {
  name: "inception_3a/relu_5x5_reduce"
  type: "ReLU"
  bottom: "inception_3a/5x5_reduce"
  top: "inception_3a/5x5_reduce"
}
layer {
  name: "inception_3a/5x5"
  type: "Convolution"
  bottom: "inception_3a/5x5_reduce"
  top: "inception_3a/5x5"
  param {
    lr_mult: 1
    decay_mult: 1
  }
  param {
    lr_mult: 2
    decay_mult: 0
  }
  convolution_param {
    num_output: 32
    pad: 2
    kernel_size: 5
    weight_filler {
      type: "xavier"
    }
    bias_filler {
      type: "constant"
      value: 0.2
    }
  }
}
layer {
  name: "inception_3a/relu_5x5"
  type: "ReLU"
  bottom: "inception_3a/5x5"
  top: "inception_3a/5x5"
}
layer {
  name: "inception_3a/pool"
  type: "Pooling"
  bottom: "pool2/3x3_s2"
  top: "inception_3a/pool"
  pooling_param {
    pool: MAX
    kernel_size: 3
    stride: 1
    pad: 1
  }
}
layer {
  name: "inception_3a/pool_proj"
  type: "Convolution"
  bottom: "inception_3a/pool"
  top: "inception_3a/pool_proj"
  param {
    lr_mult: 1
    decay_mult: 1
  }
  param {
    lr_mult: 2
    decay_mult: 0
  }
  convolution_param {
    num_output: 32
    kernel_size: 1
    weight_filler {
      type: "xavier"
    }
    bias_filler {
      type: "constant"
      value: 0.2
    }
  }
}
layer {
  name: "inception_3a/relu_pool_proj"
  type: "ReLU"
  bottom: "inception_3a/pool_proj"
  top: "inception_3a/pool_proj"
}
layer {
  name: "inception_3a/output"
  type: "Concat"
  bottom: "inception_3a/1x1"
  bottom: "inception_3a/3x3"
  bottom: "inception_3a/5x5"
  bottom: "inception_3a/pool_proj"
  top: "inception_3a/output"
}
layer {
  name: "inception_3b/1x1"
  type: "Convolution"
  bottom: "inception_3a/output"
  top: "inception_3b/1x1"
  param {
    lr_mult: 1
    decay_mult: 1
  }
  param {
    lr_mult: 2
    decay_mult: 0
  }
  convolution_param {
    num_output: 128
    kernel_size: 1
    weight_filler {
      type: "xavier"
    }
    bias_filler {
      type: "constant"
      value: 0.2
    }
  }
}
layer {
  name: "inception_3b/relu_1x1"
  type: "ReLU"
  bottom: "inception_3b/1x1"
  top: "inception_3b/1x1"
}
layer {
  name: "inception_3b/3x3_reduce"
  type: "Convolution"
  bottom: "inception_3a/output"
  top: "inception_3b/3x3_reduce"
  param {
    lr_mult: 1
    decay_mult: 1
  }
  param {
    lr_mult: 2
    decay_mult: 0
  }
  convolution_param {
    num_output: 128
    kernel_size: 1
    weight_filler {
      type: "xavier"
    }
    bias_filler {
      type: "constant"
      value: 0.2
    }
  }
}
layer {
  name: "inception_3b/relu_3x3_reduce"
  type: "ReLU"
  bottom: "inception_3b/3x3_reduce"
  top: "inception_3b/3x3_reduce"
}
layer {
  name: "inception_3b/3x3"
  type: "Convolution"
  bottom: "inception_3b/3x3_reduce"
  top: "inception_3b/3x3"
  param {
    lr_mult: 1
    decay_mult: 1
  }
  param {
    lr_mult: 2
    decay_mult: 0
  }
  convolution_param {
    num_output: 192
    pad: 1
    kernel_size: 3
    weight_filler {
      type: "xavier"
    }
    bias_filler {
      type: "constant"
      value: 0.2
    }
  }
}
layer {
  name: "inception_3b/relu_3x3"
  type: "ReLU"
  bottom: "inception_3b/3x3"
  top: "inception_3b/3x3"
}
layer {
  name: "inception_3b/5x5_reduce"
  type: "Convolution"
  bottom: "inception_3a/output"
  top: "inception_3b/5x5_reduce"
  param {
    lr_mult: 1
    decay_mult: 1
  }
  param {
    lr_mult: 2
    decay_mult: 0
  }
  convolution_param {
    num_output: 32
    kernel_size: 1
    weight_filler {
      type: "xavier"
    }
    bias_filler {
      type: "constant"
      value: 0.2
    }
  }
}
layer {
  name: "inception_3b/relu_5x5_reduce"
  type: "ReLU"
  bottom: "inception_3b/5x5_reduce"
  top: "inception_3b/5x5_reduce"
}
layer {
  name: "inception_3b/5x5"
  type: "Convolution"
  bottom: "inception_3b/5x5_reduce"
  top: "inception_3b/5x5"
  param {
    lr_mult: 1
    decay_mult: 1
  }
  param {
    lr_mult: 2
    decay_mult: 0
  }
  convolution_param {
    num_output: 96
    pad: 2
    kernel_size: 5
    weight_filler {
      type: "xavier"
    }
    bias_filler {
      type: "constant"
      value: 0.2
    }
  }
}
layer {
  name: "inception_3b/relu_5x5"
  type: "ReLU"
  bottom: "inception_3b/5x5"
  top: "inception_3b/5x5"
}
layer {
  name: "inception_3b/pool"
  type: "Pooling"
  bottom: "inception_3a/output"
  top: "inception_3b/pool"
  pooling_param {
    pool: MAX
    kernel_size: 3
    stride: 1
    pad: 1
  }
}
layer {
  name: "inception_3b/pool_proj"
  type: "Convolution"
  bottom: "inception_3b/pool"
  top: "inception_3b/pool_proj"
  param {
    lr_mult: 1
    decay_mult: 1
  }
  param {
    lr_mult: 2
    decay_mult: 0
  }
  convolution_param {
    num_output: 64
    kernel_size: 1
    weight_filler {
      type: "xavier"
    }
    bias_filler {
      type: "constant"
      value: 0.2
    }
  }
}
layer {
  name: "inception_3b/relu_pool_proj"
  type: "ReLU"
  bottom: "inception_3b/pool_proj"
  top: "inception_3b/pool_proj"
}
layer {
  name: "inception_3b/output"
  type: "Concat"
  bottom: "inception_3b/1x1"
  bottom: "inception_3b/3x3"
  bottom: "inception_3b/5x5"
  bottom: "inception_3b/pool_proj"
  top: "inception_3b/output"
}
layer {
  name: "pool3/3x3_s2"
  type: "Pooling"
  bottom: "inception_3b/output"
  top: "pool3/3x3_s2"
  pooling_param {
    pool: MAX
    kernel_size: 3
    stride: 2
  }
}
layer {
  name: "inception_4a/1x1"
  type: "Convolution"
  bottom: "pool3/3x3_s2"
  top: "inception_4a/1x1"
  param {
    lr_mult: 1
    decay_mult: 1
  }
  param {
    lr_mult: 2
    decay_mult: 0
  }
  convolution_param {
    num_output: 192
    kernel_size: 1
    weight_filler {
      type: "xavier"
    }
    bias_filler {
      type: "constant"
      value: 0.2
    }
  }
}
layer {
  name: "inception_4a/relu_1x1"
  type: "ReLU"
  bottom: "inception_4a/1x1"
  top: "inception_4a/1x1"
}
layer {
  name: "inception_4a/3x3_reduce"
  type: "Convolution"
  bottom: "pool3/3x3_s2"
  top: "inception_4a/3x3_reduce"
  param {
    lr_mult: 1
    decay_mult: 1
  }
  param {
    lr_mult: 2
    decay_mult: 0
  }
  convolution_param {
    num_output: 96
    kernel_size: 1
    weight_filler {
      type: "xavier"
    }
    bias_filler {
      type: "constant"
      value: 0.2
    }
  }
}
layer {
  name: "inception_4a/relu_3x3_reduce"
  type: "ReLU"
  bottom: "inception_4a/3x3_reduce"
  top: "inception_4a/3x3_reduce"
}
layer {
  name: "inception_4a/3x3"
  type: "Convolution"
  bottom: "inception_4a/3x3_reduce"
  top: "inception_4a/3x3"
  param {
    lr_mult: 1
    decay_mult: 1
  }
  param {
    lr_mult: 2
    decay_mult: 0
  }
  convolution_param {
    num_output: 208
    pad: 1
    kernel_size: 3
    weight_filler {
      type: "xavier"
    }
    bias_filler {
      type: "constant"
      value: 0.2
    }
  }
}
layer {
  name: "inception_4a/relu_3x3"
  type: "ReLU"
  bottom: "inception_4a/3x3"
  top: "inception_4a/3x3"
}
layer {
  name: "inception_4a/5x5_reduce"
  type: "Convolution"
  bottom: "pool3/3x3_s2"
  top: "inception_4a/5x5_reduce"
  param {
    lr_mult: 1
    decay_mult: 1
  }
  param {
    lr_mult: 2
    decay_mult: 0
  }
  convolution_param {
    num_output: 16
    kernel_size: 1
    weight_filler {
      type: "xavier"
    }
    bias_filler {
      type: "constant"
      value: 0.2
    }
  }
}
layer {
  name: "inception_4a/relu_5x5_reduce"
  type: "ReLU"
  bottom: "inception_4a/5x5_reduce"
  top: "inception_4a/5x5_reduce"
}
layer {
  name: "inception_4a/5x5"
  type: "Convolution"
  bottom: "inception_4a/5x5_reduce"
  top: "inception_4a/5x5"
  param {
    lr_mult: 1
    decay_mult: 1
  }
  param {
    lr_mult: 2
    decay_mult: 0
  }
  convolution_param {
    num_output: 48
    pad: 2
    kernel_size: 5
    weight_filler {
      type: "xavier"
    }
    bias_filler {
      type: "constant"
      value: 0.2
    }
  }
}
layer {
  name: "inception_4a/relu_5x5"
  type: "ReLU"
  bottom: "inception_4a/5x5"
  top: "inception_4a/5x5"
}
layer {
  name: "inception_4a/pool"
  type: "Pooling"
  bottom: "pool3/3x3_s2"
  top: "inception_4a/pool"
  pooling_param {
    pool: MAX
    kernel_size: 3
    stride: 1
    pad: 1
  }
}
layer {
  name: "inception_4a/pool_proj"
  type: "Convolution"
  bottom: "inception_4a/pool"
  top: "inception_4a/pool_proj"
  param {
    lr_mult: 1
    decay_mult: 1
  }
  param {
    lr_mult: 2
    decay_mult: 0
  }
  convolution_param {
    num_output: 64
    kernel_size: 1
    weight_filler {
      type: "xavier"
    }
    bias_filler {
      type: "constant"
      value: 0.2
    }
  }
}
layer {
  name: "inception_4a/relu_pool_proj"
  type: "ReLU"
  bottom: "inception_4a/pool_proj"
  top: "inception_4a/pool_proj"
}
layer {
  name: "inception_4a/output"
  type: "Concat"
  bottom: "inception_4a/1x1"
  bottom: "inception_4a/3x3"
  bottom: "inception_4a/5x5"
  bottom: "inception_4a/pool_proj"
  top: "inception_4a/output"
}
layer {
  name: "loss1/ave_pool"
  type: "Pooling"
  bottom: "inception_4a/output"
  top: "loss1/ave_pool"
  pooling_param {
    pool: AVE
    kernel_size: 5
    stride: 3
  }
}
layer {
  name: "loss1/conv"
  type: "Convolution"
  bottom: "loss1/ave_pool"
  top: "loss1/conv"
  param {
    lr_mult: 1
    decay_mult: 1
  }
  param {
    lr_mult: 2
    decay_mult: 0
  }
  convolution_param {
    num_output: 128
    kernel_size: 1
    weight_filler {
      type: "xavier"
    }
    bias_filler {
      type: "constant"
      value: 0.2
    }
  }
}
layer {
  name: "loss1/relu_conv"
  type: "ReLU"
  bottom: "loss1/conv"
  top: "loss1/conv"
}
layer {
  name: "loss1/fc"
  type: "InnerProduct"
  bottom: "loss1/conv"
  top: "loss1/fc"
  param {
    lr_mult: 1
    decay_mult: 1
  }
  param {
    lr_mult: 2
    decay_mult: 0
  }
  inner_product_param {
    num_output: 1024
    weight_filler {
      type: "xavier"
    }
    bias_filler {
      type: "constant"
      value: 0.2
    }
  }
}
layer {
  name: "loss1/relu_fc"
  type: "ReLU"
  bottom: "loss1/fc"
  top: "loss1/fc"
}
layer {
  name: "loss1/drop_fc"
  type: "Dropout"
  bottom: "loss1/fc"
  top: "loss1/fc"
  dropout_param {
    dropout_ratio: 0.7
  }
}
layer {
  name: "loss1/classifier"
  type: "InnerProduct"
  bottom: "loss1/fc"
  top: "loss1/classifier"
  param {
    lr_mult: 1
    decay_mult: 1
  }
  param {
    lr_mult: 2
    decay_mult: 0
  }
  inner_product_param {
    num_output: 1000
    weight_filler {
      type: "xavier"
    }
    bias_filler {
      type: "constant"
      value: 0
    }
  }
}
layer {
  name: "loss1/loss"
  type: "SoftmaxWithLoss"
  bottom: "loss1/classifier"
  bottom: "label"
  top: "loss1/loss1"
  loss_weight: 0.3
}
layer {
  name: "inception_4b/1x1"
  type: "Convolution"
  bottom: "inception_4a/output"
  top: "inception_4b/1x1"
  param {
    lr_mult: 1
    decay_mult: 1
  }
  param {
    lr_mult: 2
    decay_mult: 0
  }
  convolution_param {
    num_output: 160
    kernel_size: 1
    weight_filler {
      type: "xavier"
    }
    bias_filler {
      type: "constant"
      value: 0.2
    }
  }
}
layer {
  name: "inception_4b/relu_1x1"
  type: "ReLU"
  bottom: "inception_4b/1x1"
  top: "inception_4b/1x1"
}
layer {
  name: "inception_4b/3x3_reduce"
  type: "Convolution"
  bottom: "inception_4a/output"
  top: "inception_4b/3x3_reduce"
  param {
    lr_mult: 1
    decay_mult: 1
  }
  param {
    lr_mult: 2
    decay_mult: 0
  }
  convolution_param {
    num_output: 112
    kernel_size: 1
    weight_filler {
      type: "xavier"
    }
    bias_filler {
      type: "constant"
      value: 0.2
    }
  }
}
layer {
  name: "inception_4b/relu_3x3_reduce"
  type: "ReLU"
  bottom: "inception_4b/3x3_reduce"
  top: "inception_4b/3x3_reduce"
}
layer {
  name: "inception_4b/3x3"
  type: "Convolution"
  bottom: "inception_4b/3x3_reduce"
  top: "inception_4b/3x3"
  param {
    lr_mult: 1
    decay_mult: 1
  }
  param {
    lr_mult: 2
    decay_mult: 0
  }
  convolution_param {
    num_output: 224
    pad: 1
    kernel_size: 3
    weight_filler {
      type: "xavier"
    }
    bias_filler {
      type: "constant"
      value: 0.2
    }
  }
}
layer {
  name: "inception_4b/relu_3x3"
  type: "ReLU"
  bottom: "inception_4b/3x3"
  top: "inception_4b/3x3"
}
layer {
  name: "inception_4b/5x5_reduce"
  type: "Convolution"
  bottom: "inception_4a/output"
  top: "inception_4b/5x5_reduce"
  param {
    lr_mult: 1
    decay_mult: 1
  }
  param {
    lr_mult: 2
    decay_mult: 0
  }
  convolution_param {
    num_output: 24
    kernel_size: 1
    weight_filler {
      type: "xavier"
    }
    bias_filler {
      type: "constant"
      value: 0.2
    }
  }
}
layer {
  name: "inception_4b/relu_5x5_reduce"
  type: "ReLU"
  bottom: "inception_4b/5x5_reduce"
  top: "inception_4b/5x5_reduce"
}
layer {
  name: "inception_4b/5x5"
  type: "Convolution"
  bottom: "inception_4b/5x5_reduce"
  top: "inception_4b/5x5"
  param {
    lr_mult: 1
    decay_mult: 1
  }
  param {
    lr_mult: 2
    decay_mult: 0
  }
  convolution_param {
    num_output: 64
    pad: 2
    kernel_size: 5
    weight_filler {
      type: "xavier"
    }
    bias_filler {
      type: "constant"
      value: 0.2
    }
  }
}
layer {
  name: "inception_4b/relu_5x5"
  type: "ReLU"
  bottom: "inception_4b/5x5"
  top: "inception_4b/5x5"
}
layer {
  name: "inception_4b/pool"
  type: "Pooling"
  bottom: "inception_4a/output"
  top: "inception_4b/pool"
  pooling_param {
    pool: MAX
    kernel_size: 3
    stride: 1
    pad: 1
  }
}
layer {
  name: "inception_4b/pool_proj"
  type: "Convolution"
  bottom: "inception_4b/pool"
  top: "inception_4b/pool_proj"
  param {
    lr_mult: 1
    decay_mult: 1
  }
  param {
    lr_mult: 2
    decay_mult: 0
  }
  convolution_param {
    num_output: 64
    kernel_size: 1
    weight_filler {
      type: "xavier"
    }
    bias_filler {
      type: "constant"
      value: 0.2
    }
  }
}
layer {
  name: "inception_4b/relu_pool_proj"
  type: "ReLU"
  bottom: "inception_4b/pool_proj"
  top: "inception_4b/pool_proj"
}
layer {
  name: "inception_4b/output"
  type: "Concat"
  bottom: "inception_4b/1x1"
  bottom: "inception_4b/3x3"
  bottom: "inception_4b/5x5"
  bottom: "inception_4b/pool_proj"
  top: "inception_4b/output"
}
layer {
  name: "inception_4c/1x1"
  type: "Convolution"
  bottom: "inception_4b/output"
  top: "inception_4c/1x1"
  param {
    lr_mult: 1
    decay_mult: 1
  }
  param {
    lr_mult: 2
    decay_mult: 0
  }
  convolution_param {
    num_output: 128
    kernel_size: 1
    weight_filler {
      type: "xavier"
    }
    bias_filler {
      type: "constant"
      value: 0.2
    }
  }
}
layer {
  name: "inception_4c/relu_1x1"
  type: "ReLU"
  bottom: "inception_4c/1x1"
  top: "inception_4c/1x1"
}
layer {
  name: "inception_4c/3x3_reduce"
  type: "Convolution"
  bottom: "inception_4b/output"
  top: "inception_4c/3x3_reduce"
  param {
    lr_mult: 1
    decay_mult: 1
  }
  param {
    lr_mult: 2
    decay_mult: 0
  }
  convolution_param {
    num_output: 128
    kernel_size: 1
    weight_filler {
      type: "xavier"
    }
    bias_filler {
      type: "constant"
      value: 0.2
    }
  }
}
layer {
  name: "inception_4c/relu_3x3_reduce"
  type: "ReLU"
  bottom: "inception_4c/3x3_reduce"
  top: "inception_4c/3x3_reduce"
}
layer {
  name: "inception_4c/3x3"
  type: "Convolution"
  bottom: "inception_4c/3x3_reduce"
  top: "inception_4c/3x3"
  param {
    lr_mult: 1
    decay_mult: 1
  }
  param {
    lr_mult: 2
    decay_mult: 0
  }
  convolution_param {
    num_output: 256
    pad: 1
    kernel_size: 3
    weight_filler {
      type: "xavier"
    }
    bias_filler {
      type: "constant"
      value: 0.2
    }
  }
}
layer {
  name: "inception_4c/relu_3x3"
  type: "ReLU"
  bottom: "inception_4c/3x3"
  top: "inception_4c/3x3"
}
layer {
  name: "inception_4c/5x5_reduce"
  type: "Convolution"
  bottom: "inception_4b/output"
  top: "inception_4c/5x5_reduce"
  param {
    lr_mult: 1
    decay_mult: 1
  }
  param {
    lr_mult: 2
    decay_mult: 0
  }
  convolution_param {
    num_output: 24
    kernel_size: 1
    weight_filler {
      type: "xavier"
    }
    bias_filler {
      type: "constant"
      value: 0.2
    }
  }
}
layer {
  name: "inception_4c/relu_5x5_reduce"
  type: "ReLU"
  bottom: "inception_4c/5x5_reduce"
  top: "inception_4c/5x5_reduce"
}
layer {
  name: "inception_4c/5x5"
  type: "Convolution"
  bottom: "inception_4c/5x5_reduce"
  top: "inception_4c/5x5"
  param {
    lr_mult: 1
    decay_mult: 1
  }
  param {
    lr_mult: 2
    decay_mult: 0
  }
  convolution_param {
    num_output: 64
    pad: 2
    kernel_size: 5
    weight_filler {
      type: "xavier"
    }
    bias_filler {
      type: "constant"
      value: 0.2
    }
  }
}
layer {
  name: "inception_4c/relu_5x5"
  type: "ReLU"
  bottom: "inception_4c/5x5"
  top: "inception_4c/5x5"
}
layer {
  name: "inception_4c/pool"
  type: "Pooling"
  bottom: "inception_4b/output"
  top: "inception_4c/pool"
  pooling_param {
    pool: MAX
    kernel_size: 3
    stride: 1
    pad: 1
  }
}
layer {
  name: "inception_4c/pool_proj"
  type: "Convolution"
  bottom: "inception_4c/pool"
  top: "inception_4c/pool_proj"
  param {
    lr_mult: 1
    decay_mult: 1
  }
  param {
    lr_mult: 2
    decay_mult: 0
  }
  convolution_param {
    num_output: 64
    kernel_size: 1
    weight_filler {
      type: "xavier"
    }
    bias_filler {
      type: "constant"
      value: 0.2
    }
  }
}
layer {
  name: "inception_4c/relu_pool_proj"
  type: "ReLU"
  bottom: "inception_4c/pool_proj"
  top: "inception_4c/pool_proj"
}
layer {
  name: "inception_4c/output"
  type: "Concat"
  bottom: "inception_4c/1x1"
  bottom: "inception_4c/3x3"
  bottom: "inception_4c/5x5"
  bottom: "inception_4c/pool_proj"
  top: "inception_4c/output"
}
layer {
  name: "inception_4d/1x1"
  type: "Convolution"
  bottom: "inception_4c/output"
  top: "inception_4d/1x1"
  param {
    lr_mult: 1
    decay_mult: 1
  }
  param {
    lr_mult: 2
    decay_mult: 0
  }
  convolution_param {
    num_output: 112
    kernel_size: 1
    weight_filler {
      type: "xavier"
    }
    bias_filler {
      type: "constant"
      value: 0.2
    }
  }
}
layer {
  name: "inception_4d/relu_1x1"
  type: "ReLU"
  bottom: "inception_4d/1x1"
  top: "inception_4d/1x1"
}
layer {
  name: "inception_4d/3x3_reduce"
  type: "Convolution"
  bottom: "inception_4c/output"
  top: "inception_4d/3x3_reduce"
  param {
    lr_mult: 1
    decay_mult: 1
  }
  param {
    lr_mult: 2
    decay_mult: 0
  }
  convolution_param {
    num_output: 144
    kernel_size: 1
    weight_filler {
      type: "xavier"
    }
    bias_filler {
      type: "constant"
      value: 0.2
    }
  }
}
layer {
  name: "inception_4d/relu_3x3_reduce"
  type: "ReLU"
  bottom: "inception_4d/3x3_reduce"
  top: "inception_4d/3x3_reduce"
}
layer {
  name: "inception_4d/3x3"
  type: "Convolution"
  bottom: "inception_4d/3x3_reduce"
  top: "inception_4d/3x3"
  param {
    lr_mult: 1
    decay_mult: 1
  }
  param {
    lr_mult: 2
    decay_mult: 0
  }
  convolution_param {
    num_output: 288
    pad: 1
    kernel_size: 3
    weight_filler {
      type: "xavier"
    }
    bias_filler {
      type: "constant"
      value: 0.2
    }
  }
}
layer {
  name: "inception_4d/relu_3x3"
  type: "ReLU"
  bottom: "inception_4d/3x3"
  top: "inception_4d/3x3"
}
layer {
  name: "inception_4d/5x5_reduce"
  type: "Convolution"
  bottom: "inception_4c/output"
  top: "inception_4d/5x5_reduce"
  param {
    lr_mult: 1
    decay_mult: 1
  }
  param {
    lr_mult: 2
    decay_mult: 0
  }
  convolution_param {
    num_output: 32
    kernel_size: 1
    weight_filler {
      type: "xavier"
    }
    bias_filler {
      type: "constant"
      value: 0.2
    }
  }
}
layer {
  name: "inception_4d/relu_5x5_reduce"
  type: "ReLU"
  bottom: "inception_4d/5x5_reduce"
  top: "inception_4d/5x5_reduce"
}
layer {
  name: "inception_4d/5x5"
  type: "Convolution"
  bottom: "inception_4d/5x5_reduce"
  top: "inception_4d/5x5"
  param {
    lr_mult: 1
    decay_mult: 1
  }
  param {
    lr_mult: 2
    decay_mult: 0
  }
  convolution_param {
    num_output: 64
    pad: 2
    kernel_size: 5
    weight_filler {
      type: "xavier"
    }
    bias_filler {
      type: "constant"
      value: 0.2
    }
  }
}
layer {
  name: "inception_4d/relu_5x5"
  type: "ReLU"
  bottom: "inception_4d/5x5"
  top: "inception_4d/5x5"
}
layer {
  name: "inception_4d/pool"
  type: "Pooling"
  bottom: "inception_4c/output"
  top: "inception_4d/pool"
  pooling_param {
    pool: MAX
    kernel_size: 3
    stride: 1
    pad: 1
  }
}
layer {
  name: "inception_4d/pool_proj"
  type: "Convolution"
  bottom: "inception_4d/pool"
  top: "inception_4d/pool_proj"
  param {
    lr_mult: 1
    decay_mult: 1
  }
  param {
    lr_mult: 2
    decay_mult: 0
  }
  convolution_param {
    num_output: 64
    kernel_size: 1
    weight_filler {
      type: "xavier"
    }
    bias_filler {
      type: "constant"
      value: 0.2
    }
  }
}
layer {
  name: "inception_4d/relu_pool_proj"
  type: "ReLU"
  bottom: "inception_4d/pool_proj"
  top: "inception_4d/pool_proj"
}
layer {
  name: "inception_4d/output"
  type: "Concat"
  bottom: "inception_4d/1x1"
  bottom: "inception_4d/3x3"
  bottom: "inception_4d/5x5"
  bottom: "inception_4d/pool_proj"
  top: "inception_4d/output"
}
layer {
  name: "loss2/ave_pool"
  type: "Pooling"
  bottom: "inception_4d/output"
  top: "loss2/ave_pool"
  pooling_param {
    pool: AVE
    kernel_size: 5
    stride: 3
  }
}
layer {
  name: "loss2/conv"
  type: "Convolution"
  bottom: "loss2/ave_pool"
  top: "loss2/conv"
  param {
    lr_mult: 1
    decay_mult: 1
  }
  param {
    lr_mult: 2
    decay_mult: 0
  }
  convolution_param {
    num_output: 128
    kernel_size: 1
    weight_filler {
      type: "xavier"
    }
    bias_filler {
      type: "constant"
      value: 0.2
    }
  }
}
layer {
  name: "loss2/relu_conv"
  type: "ReLU"
  bottom: "loss2/conv"
  top: "loss2/conv"
}
layer {
  name: "loss2/fc"
  type: "InnerProduct"
  bottom: "loss2/conv"
  top: "loss2/fc"
  param {
    lr_mult: 1
    decay_mult: 1
  }
  param {
    lr_mult: 2
    decay_mult: 0
  }
  inner_product_param {
    num_output: 1024
    weight_filler {
      type: "xavier"
    }
    bias_filler {
      type: "constant"
      value: 0.2
    }
  }
}
layer {
  name: "loss2/relu_fc"
  type: "ReLU"
  bottom: "loss2/fc"
  top: "loss2/fc"
}
layer {
  name: "loss2/drop_fc"
  type: "Dropout"
  bottom: "loss2/fc"
  top: "loss2/fc"
  dropout_param {
    dropout_ratio: 0.7
  }
}
layer {
  name: "loss2/classifier"
  type: "InnerProduct"
  bottom: "loss2/fc"
  top: "loss2/classifier"
  param {
    lr_mult: 1
    decay_mult: 1
  }
  param {
    lr_mult: 2
    decay_mult: 0
  }
  inner_product_param {
    num_output: 1000
    weight_filler {
      type: "xavier"
    }
    bias_filler {
      type: "constant"
      value: 0
    }
  }
}
layer {
  name: "loss2/loss"
  type: "SoftmaxWithLoss"
  bottom: "loss2/classifier"
  bottom: "label"
  top: "loss2/loss1"
  loss_weight: 0.3
}
layer {
  name: "inception_4e/1x1"
  type: "Convolution"
  bottom: "inception_4d/output"
  top: "inception_4e/1x1"
  param {
    lr_mult: 1
    decay_mult: 1
  }
  param {
    lr_mult: 2
    decay_mult: 0
  }
  convolution_param {
    num_output: 256
    kernel_size: 1
    weight_filler {
      type: "xavier"
    }
    bias_filler {
      type: "constant"
      value: 0.2
    }
  }
}
layer {
  name: "inception_4e/relu_1x1"
  type: "ReLU"
  bottom: "inception_4e/1x1"
  top: "inception_4e/1x1"
}
layer {
  name: "inception_4e/3x3_reduce"
  type: "Convolution"
  bottom: "inception_4d/output"
  top: "inception_4e/3x3_reduce"
  param {
    lr_mult: 1
    decay_mult: 1
  }
  param {
    lr_mult: 2
    decay_mult: 0
  }
  convolution_param {
    num_output: 160
    kernel_size: 1
    weight_filler {
      type: "xavier"
    }
    bias_filler {
      type: "constant"
      value: 0.2
    }
  }
}
layer {
  name: "inception_4e/relu_3x3_reduce"
  type: "ReLU"
  bottom: "inception_4e/3x3_reduce"
  top: "inception_4e/3x3_reduce"
}
layer {
  name: "inception_4e/3x3"
  type: "Convolution"
  bottom: "inception_4e/3x3_reduce"
  top: "inception_4e/3x3"
  param {
    lr_mult: 1
    decay_mult: 1
  }
  param {
    lr_mult: 2
    decay_mult: 0
  }
  convolution_param {
    num_output: 320
    pad: 1
    kernel_size: 3
    weight_filler {
      type: "xavier"
    }
    bias_filler {
      type: "constant"
      value: 0.2
    }
  }
}
layer {
  name: "inception_4e/relu_3x3"
  type: "ReLU"
  bottom: "inception_4e/3x3"
  top: "inception_4e/3x3"
}
layer {
  name: "inception_4e/5x5_reduce"
  type: "Convolution"
  bottom: "inception_4d/output"
  top: "inception_4e/5x5_reduce"
  param {
    lr_mult: 1
    decay_mult: 1
  }
  param {
    lr_mult: 2
    decay_mult: 0
  }
  convolution_param {
    num_output: 32
    kernel_size: 1
    weight_filler {
      type: "xavier"
    }
    bias_filler {
      type: "constant"
      value: 0.2
    }
  }
}
layer {
  name: "inception_4e/relu_5x5_reduce"
  type: "ReLU"
  bottom: "inception_4e/5x5_reduce"
  top: "inception_4e/5x5_reduce"
}
layer {
  name: "inception_4e/5x5"
  type: "Convolution"
  bottom: "inception_4e/5x5_reduce"
  top: "inception_4e/5x5"
  param {
    lr_mult: 1
    decay_mult: 1
  }
  param {
    lr_mult: 2
    decay_mult: 0
  }
  convolution_param {
    num_output: 128
    pad: 2
    kernel_size: 5
    weight_filler {
      type: "xavier"
    }
    bias_filler {
      type: "constant"
      value: 0.2
    }
  }
}
layer {
  name: "inception_4e/relu_5x5"
  type: "ReLU"
  bottom: "inception_4e/5x5"
  top: "inception_4e/5x5"
}
layer {
  name: "inception_4e/pool"
  type: "Pooling"
  bottom: "inception_4d/output"
  top: "inception_4e/pool"
  pooling_param {
    pool: MAX
    kernel_size: 3
    stride: 1
    pad: 1
  }
}
laye
I1128 09:18:11.118139 27275 layer_factory.hpp:76] Creating layer data
I1128 09:18:11.118597 27275 net.cpp:110] Creating Layer data
I1128 09:18:11.118607 27275 net.cpp:433] data -> data
I1128 09:18:11.118677 27275 net.cpp:433] data -> label
I1128 09:18:11.128892 27279 db_lmdb.cpp:23] Opened lmdb ./ind_train_lmdb
I1128 09:18:11.166029 27275 data_layer.cpp:45] output data size: 32,3,224,224
I1128 09:18:11.203498 27275 net.cpp:155] Setting up data
I1128 09:18:11.203526 27275 net.cpp:163] Top shape: 32 3 224 224 (4816896)
I1128 09:18:11.203531 27275 net.cpp:163] Top shape: 32 (32)
I1128 09:18:11.203541 27275 layer_factory.hpp:76] Creating layer label_data_1_split
I1128 09:18:11.203554 27275 net.cpp:110] Creating Layer label_data_1_split
I1128 09:18:11.203558 27275 net.cpp:477] label_data_1_split <- label
I1128 09:18:11.203568 27275 net.cpp:433] label_data_1_split -> label_data_1_split_0
I1128 09:18:11.203593 27275 net.cpp:433] label_data_1_split -> label_data_1_split_1
I1128 09:18:11.203599 27275 net.cpp:433] label_data_1_split -> label_data_1_split_2
I1128 09:18:11.203647 27275 net.cpp:155] Setting up label_data_1_split
I1128 09:18:11.203655 27275 net.cpp:163] Top shape: 32 (32)
I1128 09:18:11.203660 27275 net.cpp:163] Top shape: 32 (32)
I1128 09:18:11.203665 27275 net.cpp:163] Top shape: 32 (32)
I1128 09:18:11.203667 27275 layer_factory.hpp:76] Creating layer conv1/7x7_s2
I1128 09:18:11.203680 27275 net.cpp:110] Creating Layer conv1/7x7_s2
I1128 09:18:11.203682 27275 net.cpp:477] conv1/7x7_s2 <- data
I1128 09:18:11.203690 27275 net.cpp:433] conv1/7x7_s2 -> conv1/7x7_s2
I1128 09:18:11.204269 27275 net.cpp:155] Setting up conv1/7x7_s2
I1128 09:18:11.204280 27275 net.cpp:163] Top shape: 32 64 112 112 (25690112)
I1128 09:18:11.204294 27275 layer_factory.hpp:76] Creating layer conv1/relu_7x7
I1128 09:18:11.204301 27275 net.cpp:110] Creating Layer conv1/relu_7x7
I1128 09:18:11.204304 27275 net.cpp:477] conv1/relu_7x7 <- conv1/7x7_s2
I1128 09:18:11.204309 27275 net.cpp:419] conv1/relu_7x7 -> conv1/7x7_s2 (in-place)
I1128 09:18:11.204318 27275 net.cpp:155] Setting up conv1/relu_7x7
I1128 09:18:11.204321 27275 net.cpp:163] Top shape: 32 64 112 112 (25690112)
I1128 09:18:11.204324 27275 layer_factory.hpp:76] Creating layer pool1/3x3_s2
I1128 09:18:11.204330 27275 net.cpp:110] Creating Layer pool1/3x3_s2
I1128 09:18:11.204334 27275 net.cpp:477] pool1/3x3_s2 <- conv1/7x7_s2
I1128 09:18:11.204339 27275 net.cpp:433] pool1/3x3_s2 -> pool1/3x3_s2
I1128 09:18:11.204411 27275 net.cpp:155] Setting up pool1/3x3_s2
I1128 09:18:11.204421 27275 net.cpp:163] Top shape: 32 64 56 56 (6422528)
I1128 09:18:11.204423 27275 layer_factory.hpp:76] Creating layer pool1/norm1
I1128 09:18:11.204434 27275 net.cpp:110] Creating Layer pool1/norm1
I1128 09:18:11.204437 27275 net.cpp:477] pool1/norm1 <- pool1/3x3_s2
I1128 09:18:11.204442 27275 net.cpp:433] pool1/norm1 -> pool1/norm1
I1128 09:18:11.204583 27275 net.cpp:155] Setting up pool1/norm1
I1128 09:18:11.204591 27275 net.cpp:163] Top shape: 32 64 56 56 (6422528)
I1128 09:18:11.204594 27275 layer_factory.hpp:76] Creating layer conv2/3x3_reduce
I1128 09:18:11.204602 27275 net.cpp:110] Creating Layer conv2/3x3_reduce
I1128 09:18:11.204605 27275 net.cpp:477] conv2/3x3_reduce <- pool1/norm1
I1128 09:18:11.204612 27275 net.cpp:433] conv2/3x3_reduce -> conv2/3x3_reduce
I1128 09:18:11.211077 27275 net.cpp:155] Setting up conv2/3x3_reduce
I1128 09:18:11.211097 27275 net.cpp:163] Top shape: 32 64 56 56 (6422528)
I1128 09:18:11.211108 27275 layer_factory.hpp:76] Creating layer conv2/relu_3x3_reduce
I1128 09:18:11.211115 27275 net.cpp:110] Creating Layer conv2/relu_3x3_reduce
I1128 09:18:11.211119 27275 net.cpp:477] conv2/relu_3x3_reduce <- conv2/3x3_reduce
I1128 09:18:11.211124 27275 net.cpp:419] conv2/relu_3x3_reduce -> conv2/3x3_reduce (in-place)
I1128 09:18:11.211133 27275 net.cpp:155] Setting up conv2/relu_3x3_reduce
I1128 09:18:11.211140 27275 net.cpp:163] Top shape: 32 64 56 56 (6422528)
I1128 09:18:11.211143 27275 layer_factory.hpp:76] Creating layer conv2/3x3
I1128 09:18:11.211153 27275 net.cpp:110] Creating Layer conv2/3x3
I1128 09:18:11.211158 27275 net.cpp:477] conv2/3x3 <- conv2/3x3_reduce
I1128 09:18:11.211163 27275 net.cpp:433] conv2/3x3 -> conv2/3x3
I1128 09:18:11.212316 27275 net.cpp:155] Setting up conv2/3x3
I1128 09:18:11.212327 27275 net.cpp:163] Top shape: 32 192 56 56 (19267584)
I1128 09:18:11.212337 27275 layer_factory.hpp:76] Creating layer conv2/relu_3x3
I1128 09:18:11.212342 27275 net.cpp:110] Creating Layer conv2/relu_3x3
I1128 09:18:11.212344 27275 net.cpp:477] conv2/relu_3x3 <- conv2/3x3
I1128 09:18:11.212352 27275 net.cpp:419] conv2/relu_3x3 -> conv2/3x3 (in-place)
I1128 09:18:11.212358 27275 net.cpp:155] Setting up conv2/relu_3x3
I1128 09:18:11.212363 27275 net.cpp:163] Top shape: 32 192 56 56 (19267584)
I1128 09:18:11.212365 27275 layer_factory.hpp:76] Creating layer conv2/norm2
I1128 09:18:11.212373 27275 net.cpp:110] Creating Layer conv2/norm2
I1128 09:18:11.212375 27275 net.cpp:477] conv2/norm2 <- conv2/3x3
I1128 09:18:11.212379 27275 net.cpp:433] conv2/norm2 -> conv2/norm2
I1128 09:18:11.212409 27275 net.cpp:155] Setting up conv2/norm2
I1128 09:18:11.212416 27275 net.cpp:163] Top shape: 32 192 56 56 (19267584)
I1128 09:18:11.212419 27275 layer_factory.hpp:76] Creating layer pool2/3x3_s2
I1128 09:18:11.212425 27275 net.cpp:110] Creating Layer pool2/3x3_s2
I1128 09:18:11.212429 27275 net.cpp:477] pool2/3x3_s2 <- conv2/norm2
I1128 09:18:11.212435 27275 net.cpp:433] pool2/3x3_s2 -> pool2/3x3_s2
I1128 09:18:11.212461 27275 net.cpp:155] Setting up pool2/3x3_s2
I1128 09:18:11.212468 27275 net.cpp:163] Top shape: 32 192 28 28 (4816896)
I1128 09:18:11.212472 27275 layer_factory.hpp:76] Creating layer pool2/3x3_s2_pool2/3x3_s2_0_split
I1128 09:18:11.212478 27275 net.cpp:110] Creating Layer pool2/3x3_s2_pool2/3x3_s2_0_split
I1128 09:18:11.212481 27275 net.cpp:477] pool2/3x3_s2_pool2/3x3_s2_0_split <- pool2/3x3_s2
I1128 09:18:11.212486 27275 net.cpp:433] pool2/3x3_s2_pool2/3x3_s2_0_split -> pool2/3x3_s2_pool2/3x3_s2_0_split_0
I1128 09:18:11.212491 27275 net.cpp:433] pool2/3x3_s2_pool2/3x3_s2_0_split -> pool2/3x3_s2_pool2/3x3_s2_0_split_1
I1128 09:18:11.212498 27275 net.cpp:433] pool2/3x3_s2_pool2/3x3_s2_0_split -> pool2/3x3_s2_pool2/3x3_s2_0_split_2
I1128 09:18:11.212503 27275 net.cpp:433] pool2/3x3_s2_pool2/3x3_s2_0_split -> pool2/3x3_s2_pool2/3x3_s2_0_split_3
I1128 09:18:11.212543 27275 net.cpp:155] Setting up pool2/3x3_s2_pool2/3x3_s2_0_split
I1128 09:18:11.212549 27275 net.cpp:163] Top shape: 32 192 28 28 (4816896)
I1128 09:18:11.212553 27275 net.cpp:163] Top shape: 32 192 28 28 (4816896)
I1128 09:18:11.212556 27275 net.cpp:163] Top shape: 32 192 28 28 (4816896)
I1128 09:18:11.212559 27275 net.cpp:163] Top shape: 32 192 28 28 (4816896)
I1128 09:18:11.212561 27275 layer_factory.hpp:76] Creating layer inception_3a/1x1
I1128 09:18:11.212568 27275 net.cpp:110] Creating Layer inception_3a/1x1
I1128 09:18:11.212573 27275 net.cpp:477] inception_3a/1x1 <- pool2/3x3_s2_pool2/3x3_s2_0_split_0
I1128 09:18:11.212579 27275 net.cpp:433] inception_3a/1x1 -> inception_3a/1x1
I1128 09:18:11.213114 27275 net.cpp:155] Setting up inception_3a/1x1
I1128 09:18:11.213125 27275 net.cpp:163] Top shape: 32 64 28 28 (1605632)
I1128 09:18:11.213131 27275 layer_factory.hpp:76] Creating layer inception_3a/relu_1x1
I1128 09:18:11.213136 27275 net.cpp:110] Creating Layer inception_3a/relu_1x1
I1128 09:18:11.213140 27275 net.cpp:477] inception_3a/relu_1x1 <- inception_3a/1x1
I1128 09:18:11.213143 27275 net.cpp:419] inception_3a/relu_1x1 -> inception_3a/1x1 (in-place)
I1128 09:18:11.213150 27275 net.cpp:155] Setting up inception_3a/relu_1x1
I1128 09:18:11.213153 27275 net.cpp:163] Top shape: 32 64 28 28 (1605632)
I1128 09:18:11.213155 27275 layer_factory.hpp:76] Creating layer inception_3a/3x3_reduce
I1128 09:18:11.213161 27275 net.cpp:110] Creating Layer inception_3a/3x3_reduce
I1128 09:18:11.213165 27275 net.cpp:477] inception_3a/3x3_reduce <- pool2/3x3_s2_pool2/3x3_s2_0_split_1
I1128 09:18:11.213171 27275 net.cpp:433] inception_3a/3x3_reduce -> inception_3a/3x3_reduce
I1128 09:18:11.213749 27275 net.cpp:155] Setting up inception_3a/3x3_reduce
I1128 09:18:11.213759 27275 net.cpp:163] Top shape: 32 96 28 28 (2408448)
I1128 09:18:11.213768 27275 layer_factory.hpp:76] Creating layer inception_3a/relu_3x3_reduce
I1128 09:18:11.213773 27275 net.cpp:110] Creating Layer inception_3a/relu_3x3_reduce
I1128 09:18:11.213778 27275 net.cpp:477] inception_3a/relu_3x3_reduce <- inception_3a/3x3_reduce
I1128 09:18:11.213783 27275 net.cpp:419] inception_3a/relu_3x3_reduce -> inception_3a/3x3_reduce (in-place)
I1128 09:18:11.213788 27275 net.cpp:155] Setting up inception_3a/relu_3x3_reduce
I1128 09:18:11.213793 27275 net.cpp:163] Top shape: 32 96 28 28 (2408448)
I1128 09:18:11.213795 27275 layer_factory.hpp:76] Creating layer inception_3a/3x3
I1128 09:18:11.213803 27275 net.cpp:110] Creating Layer inception_3a/3x3
I1128 09:18:11.213807 27275 net.cpp:477] inception_3a/3x3 <- inception_3a/3x3_reduce
I1128 09:18:11.213814 27275 net.cpp:433] inception_3a/3x3 -> inception_3a/3x3
I1128 09:18:11.214568 27275 net.cpp:155] Setting up inception_3a/3x3
I1128 09:18:11.214578 27275 net.cpp:163] Top shape: 32 128 28 28 (3211264)
I1128 09:18:11.214584 27275 layer_factory.hpp:76] Creating layer inception_3a/relu_3x3
I1128 09:18:11.214591 27275 net.cpp:110] Creating Layer inception_3a/relu_3x3
I1128 09:18:11.214593 27275 net.cpp:477] inception_3a/relu_3x3 <- inception_3a/3x3
I1128 09:18:11.214598 27275 net.cpp:419] inception_3a/relu_3x3 -> inception_3a/3x3 (in-place)
I1128 09:18:11.214603 27275 net.cpp:155] Setting up inception_3a/relu_3x3
I1128 09:18:11.214607 27275 net.cpp:163] Top shape: 32 128 28 28 (3211264)
I1128 09:18:11.214611 27275 layer_factory.hpp:76] Creating layer inception_3a/5x5_reduce
I1128 09:18:11.214615 27275 net.cpp:110] Creating Layer inception_3a/5x5_reduce
I1128 09:18:11.214618 27275 net.cpp:477] inception_3a/5x5_reduce <- pool2/3x3_s2_pool2/3x3_s2_0_split_2
I1128 09:18:11.214625 27275 net.cpp:433] inception_3a/5x5_reduce -> inception_3a/5x5_reduce
I1128 09:18:11.214784 27275 net.cpp:155] Setting up inception_3a/5x5_reduce
I1128 09:18:11.214793 27275 net.cpp:163] Top shape: 32 16 28 28 (401408)
I1128 09:18:11.214798 27275 layer_factory.hpp:76] Creating layer inception_3a/relu_5x5_reduce
I1128 09:18:11.214803 27275 net.cpp:110] Creating Layer inception_3a/relu_5x5_reduce
I1128 09:18:11.214807 27275 net.cpp:477] inception_3a/relu_5x5_reduce <- inception_3a/5x5_reduce
I1128 09:18:11.214812 27275 net.cpp:419] inception_3a/relu_5x5_reduce -> inception_3a/5x5_reduce (in-place)
I1128 09:18:11.214818 27275 net.cpp:155] Setting up inception_3a/relu_5x5_reduce
I1128 09:18:11.214821 27275 net.cpp:163] Top shape: 32 16 28 28 (401408)
I1128 09:18:11.214824 27275 layer_factory.hpp:76] Creating layer inception_3a/5x5
I1128 09:18:11.214829 27275 net.cpp:110] Creating Layer inception_3a/5x5
I1128 09:18:11.214833 27275 net.cpp:477] inception_3a/5x5 <- inception_3a/5x5_reduce
I1128 09:18:11.214838 27275 net.cpp:433] inception_3a/5x5 -> inception_3a/5x5
I1128 09:18:11.215046 27275 net.cpp:155] Setting up inception_3a/5x5
I1128 09:18:11.215054 27275 net.cpp:163] Top shape: 32 32 28 28 (802816)
I1128 09:18:11.215060 27275 layer_factory.hpp:76] Creating layer inception_3a/relu_5x5
I1128 09:18:11.215065 27275 net.cpp:110] Creating Layer inception_3a/relu_5x5
I1128 09:18:11.215067 27275 net.cpp:477] inception_3a/relu_5x5 <- inception_3a/5x5
I1128 09:18:11.215072 27275 net.cpp:419] inception_3a/relu_5x5 -> inception_3a/5x5 (in-place)
I1128 09:18:11.215077 27275 net.cpp:155] Setting up inception_3a/relu_5x5
I1128 09:18:11.215081 27275 net.cpp:163] Top shape: 32 32 28 28 (802816)
I1128 09:18:11.215085 27275 layer_factory.hpp:76] Creating layer inception_3a/pool
I1128 09:18:11.215090 27275 net.cpp:110] Creating Layer inception_3a/pool
I1128 09:18:11.215092 27275 net.cpp:477] inception_3a/pool <- pool2/3x3_s2_pool2/3x3_s2_0_split_3
I1128 09:18:11.215098 27275 net.cpp:433] inception_3a/pool -> inception_3a/pool
I1128 09:18:11.215131 27275 net.cpp:155] Setting up inception_3a/pool
I1128 09:18:11.215137 27275 net.cpp:163] Top shape: 32 192 28 28 (4816896)
I1128 09:18:11.215142 27275 layer_factory.hpp:76] Creating layer inception_3a/pool_proj
I1128 09:18:11.215148 27275 net.cpp:110] Creating Layer inception_3a/pool_proj
I1128 09:18:11.215152 27275 net.cpp:477] inception_3a/pool_proj <- inception_3a/pool
I1128 09:18:11.215157 27275 net.cpp:433] inception_3a/pool_proj -> inception_3a/pool_proj
I1128 09:18:11.215325 27275 net.cpp:155] Setting up inception_3a/pool_proj
I1128 09:18:11.215333 27275 net.cpp:163] Top shape: 32 32 28 28 (802816)
I1128 09:18:11.215342 27275 layer_factory.hpp:76] Creating layer inception_3a/relu_pool_proj
I1128 09:18:11.215348 27275 net.cpp:110] Creating Layer inception_3a/relu_pool_proj
I1128 09:18:11.215350 27275 net.cpp:477] inception_3a/relu_pool_proj <- inception_3a/pool_proj
I1128 09:18:11.215355 27275 net.cpp:419] inception_3a/relu_pool_proj -> inception_3a/pool_proj (in-place)
I1128 09:18:11.215361 27275 net.cpp:155] Setting up inception_3a/relu_pool_proj
I1128 09:18:11.215365 27275 net.cpp:163] Top shape: 32 32 28 28 (802816)
I1128 09:18:11.215368 27275 layer_factory.hpp:76] Creating layer inception_3a/output
I1128 09:18:11.215376 27275 net.cpp:110] Creating Layer inception_3a/output
I1128 09:18:11.215379 27275 net.cpp:477] inception_3a/output <- inception_3a/1x1
I1128 09:18:11.215384 27275 net.cpp:477] inception_3a/output <- inception_3a/3x3
I1128 09:18:11.215386 27275 net.cpp:477] inception_3a/output <- inception_3a/5x5
I1128 09:18:11.215389 27275 net.cpp:477] inception_3a/output <- inception_3a/pool_proj
I1128 09:18:11.215394 27275 net.cpp:433] inception_3a/output -> inception_3a/output
I1128 09:18:11.215416 27275 net.cpp:155] Setting up inception_3a/output
I1128 09:18:11.215423 27275 net.cpp:163] Top shape: 32 256 28 28 (6422528)
I1128 09:18:11.215426 27275 layer_factory.hpp:76] Creating layer inception_3a/output_inception_3a/output_0_split
I1128 09:18:11.215431 27275 net.cpp:110] Creating Layer inception_3a/output_inception_3a/output_0_split
I1128 09:18:11.215433 27275 net.cpp:477] inception_3a/output_inception_3a/output_0_split <- inception_3a/output
I1128 09:18:11.215440 27275 net.cpp:433] inception_3a/output_inception_3a/output_0_split -> inception_3a/output_inception_3a/output_0_split_0
I1128 09:18:11.215445 27275 net.cpp:433] inception_3a/output_inception_3a/output_0_split -> inception_3a/output_inception_3a/output_0_split_1
I1128 09:18:11.215451 27275 net.cpp:433] inception_3a/output_inception_3a/output_0_split -> inception_3a/output_inception_3a/output_0_split_2
I1128 09:18:11.215457 27275 net.cpp:433] inception_3a/output_inception_3a/output_0_split -> inception_3a/output_inception_3a/output_0_split_3
I1128 09:18:11.215499 27275 net.cpp:155] Setting up inception_3a/output_inception_3a/output_0_split
I1128 09:18:11.215507 27275 net.cpp:163] Top shape: 32 256 28 28 (6422528)
I1128 09:18:11.215509 27275 net.cpp:163] Top shape: 32 256 28 28 (6422528)
I1128 09:18:11.215513 27275 net.cpp:163] Top shape: 32 256 28 28 (6422528)
I1128 09:18:11.215517 27275 net.cpp:163] Top shape: 32 256 28 28 (6422528)
I1128 09:18:11.215519 27275 layer_factory.hpp:76] Creating layer inception_3b/1x1
I1128 09:18:11.215525 27275 net.cpp:110] Creating Layer inception_3b/1x1
I1128 09:18:11.215529 27275 net.cpp:477] inception_3b/1x1 <- inception_3a/output_inception_3a/output_0_split_0
I1128 09:18:11.215534 27275 net.cpp:433] inception_3b/1x1 -> inception_3b/1x1
I1128 09:18:11.215842 27275 net.cpp:155] Setting up inception_3b/1x1
I1128 09:18:11.215852 27275 net.cpp:163] Top shape: 32 128 28 28 (3211264)
I1128 09:18:11.215857 27275 layer_factory.hpp:76] Creating layer inception_3b/relu_1x1
I1128 09:18:11.215862 27275 net.cpp:110] Creating Layer inception_3b/relu_1x1
I1128 09:18:11.215864 27275 net.cpp:477] inception_3b/relu_1x1 <- inception_3b/1x1
I1128 09:18:11.215868 27275 net.cpp:419] inception_3b/relu_1x1 -> inception_3b/1x1 (in-place)
I1128 09:18:11.215873 27275 net.cpp:155] Setting up inception_3b/relu_1x1
I1128 09:18:11.215878 27275 net.cpp:163] Top shape: 32 128 28 28 (3211264)
I1128 09:18:11.215880 27275 layer_factory.hpp:76] Creating layer inception_3b/3x3_reduce
I1128 09:18:11.215888 27275 net.cpp:110] Creating Layer inception_3b/3x3_reduce
I1128 09:18:11.215890 27275 net.cpp:477] inception_3b/3x3_reduce <- inception_3a/output_inception_3a/output_0_split_1
I1128 09:18:11.215896 27275 net.cpp:433] inception_3b/3x3_reduce -> inception_3b/3x3_reduce
I1128 09:18:11.216212 27275 net.cpp:155] Setting up inception_3b/3x3_reduce
I1128 09:18:11.216219 27275 net.cpp:163] Top shape: 32 128 28 28 (3211264)
I1128 09:18:11.216225 27275 layer_factory.hpp:76] Creating layer inception_3b/relu_3x3_reduce
I1128 09:18:11.216231 27275 net.cpp:110] Creating Layer inception_3b/relu_3x3_reduce
I1128 09:18:11.216236 27275 net.cpp:477] inception_3b/relu_3x3_reduce <- inception_3b/3x3_reduce
I1128 09:18:11.216240 27275 net.cpp:419] inception_3b/relu_3x3_reduce -> inception_3b/3x3_reduce (in-place)
I1128 09:18:11.216245 27275 net.cpp:155] Setting up inception_3b/relu_3x3_reduce
I1128 09:18:11.216249 27275 net.cpp:163] Top shape: 32 128 28 28 (3211264)
I1128 09:18:11.216253 27275 layer_factory.hpp:76] Creating layer inception_3b/3x3
I1128 09:18:11.216259 27275 net.cpp:110] Creating Layer inception_3b/3x3
I1128 09:18:11.216264 27275 net.cpp:477] inception_3b/3x3 <- inception_3b/3x3_reduce
I1128 09:18:11.216270 27275 net.cpp:433] inception_3b/3x3 -> inception_3b/3x3
I1128 09:18:11.217938 27275 net.cpp:155] Setting up inception_3b/3x3
I1128 09:18:11.217949 27275 net.cpp:163] Top shape: 32 192 28 28 (4816896)
I1128 09:18:11.217955 27275 layer_factory.hpp:76] Creating layer inception_3b/relu_3x3
I1128 09:18:11.217960 27275 net.cpp:110] Creating Layer inception_3b/relu_3x3
I1128 09:18:11.217963 27275 net.cpp:477] inception_3b/relu_3x3 <- inception_3b/3x3
I1128 09:18:11.217980 27275 net.cpp:419] inception_3b/relu_3x3 -> inception_3b/3x3 (in-place)
I1128 09:18:11.217986 27275 net.cpp:155] Setting up inception_3b/relu_3x3
I1128 09:18:11.217995 27275 net.cpp:163] Top shape: 32 192 28 28 (4816896)
I1128 09:18:11.217999 27275 layer_factory.hpp:76] Creating layer inception_3b/5x5_reduce
I1128 09:18:11.218010 27275 net.cpp:110] Creating Layer inception_3b/5x5_reduce
I1128 09:18:11.218019 27275 net.cpp:477] inception_3b/5x5_reduce <- inception_3a/output_inception_3a/output_0_split_2
I1128 09:18:11.218025 27275 net.cpp:433] inception_3b/5x5_reduce -> inception_3b/5x5_reduce
I1128 09:18:11.218224 27275 net.cpp:155] Setting up inception_3b/5x5_reduce
I1128 09:18:11.218232 27275 net.cpp:163] Top shape: 32 32 28 28 (802816)
I1128 09:18:11.218237 27275 layer_factory.hpp:76] Creating layer inception_3b/relu_5x5_reduce
I1128 09:18:11.218245 27275 net.cpp:110] Creating Layer inception_3b/relu_5x5_reduce
I1128 09:18:11.218248 27275 net.cpp:477] inception_3b/relu_5x5_reduce <- inception_3b/5x5_reduce
I1128 09:18:11.218253 27275 net.cpp:419] inception_3b/relu_5x5_reduce -> inception_3b/5x5_reduce (in-place)
I1128 09:18:11.218260 27275 net.cpp:155] Setting up inception_3b/relu_5x5_reduce
I1128 09:18:11.218262 27275 net.cpp:163] Top shape: 32 32 28 28 (802816)
I1128 09:18:11.218266 27275 layer_factory.hpp:76] Creating layer inception_3b/5x5
I1128 09:18:11.218271 27275 net.cpp:110] Creating Layer inception_3b/5x5
I1128 09:18:11.218274 27275 net.cpp:477] inception_3b/5x5 <- inception_3b/5x5_reduce
I1128 09:18:11.218281 27275 net.cpp:433] inception_3b/5x5 -> inception_3b/5x5
I1128 09:18:11.219179 27275 net.cpp:155] Setting up inception_3b/5x5
I1128 09:18:11.219190 27275 net.cpp:163] Top shape: 32 96 28 28 (2408448)
I1128 09:18:11.219195 27275 layer_factory.hpp:76] Creating layer inception_3b/relu_5x5
I1128 09:18:11.219200 27275 net.cpp:110] Creating Layer inception_3b/relu_5x5
I1128 09:18:11.219203 27275 net.cpp:477] inception_3b/relu_5x5 <- inception_3b/5x5
I1128 09:18:11.219208 27275 net.cpp:419] inception_3b/relu_5x5 -> inception_3b/5x5 (in-place)
I1128 09:18:11.219213 27275 net.cpp:155] Setting up inception_3b/relu_5x5
I1128 09:18:11.219218 27275 net.cpp:163] Top shape: 32 96 28 28 (2408448)
I1128 09:18:11.219219 27275 layer_factory.hpp:76] Creating layer inception_3b/pool
I1128 09:18:11.219224 27275 net.cpp:110] Creating Layer inception_3b/pool
I1128 09:18:11.219228 27275 net.cpp:477] inception_3b/pool <- inception_3a/output_inception_3a/output_0_split_3
I1128 09:18:11.219233 27275 net.cpp:433] inception_3b/pool -> inception_3b/pool
I1128 09:18:11.219262 27275 net.cpp:155] Setting up inception_3b/pool
I1128 09:18:11.219269 27275 net.cpp:163] Top shape: 32 256 28 28 (6422528)
I1128 09:18:11.219272 27275 layer_factory.hpp:76] Creating layer inception_3b/pool_proj
I1128 09:18:11.219279 27275 net.cpp:110] Creating Layer inception_3b/pool_proj
I1128 09:18:11.219282 27275 net.cpp:477] inception_3b/pool_proj <- inception_3b/pool
I1128 09:18:11.219288 27275 net.cpp:433] inception_3b/pool_proj -> inception_3b/pool_proj
I1128 09:18:11.219516 27275 net.cpp:155] Setting up inception_3b/pool_proj
I1128 09:18:11.219523 27275 net.cpp:163] Top shape: 32 64 28 28 (1605632)
I1128 09:18:11.219528 27275 layer_factory.hpp:76] Creating layer inception_3b/relu_pool_proj
I1128 09:18:11.219533 27275 net.cpp:110] Creating Layer inception_3b/relu_pool_proj
I1128 09:18:11.219537 27275 net.cpp:477] inception_3b/relu_pool_proj <- inception_3b/pool_proj
I1128 09:18:11.219542 27275 net.cpp:419] inception_3b/relu_pool_proj -> inception_3b/pool_proj (in-place)
I1128 09:18:11.219547 27275 net.cpp:155] Setting up inception_3b/relu_pool_proj
I1128 09:18:11.219550 27275 net.cpp:163] Top shape: 32 64 28 28 (1605632)
I1128 09:18:11.219552 27275 layer_factory.hpp:76] Creating layer inception_3b/output
I1128 09:18:11.219558 27275 net.cpp:110] Creating Layer inception_3b/output
I1128 09:18:11.219560 27275 net.cpp:477] inception_3b/output <- inception_3b/1x1
I1128 09:18:11.219564 27275 net.cpp:477] inception_3b/output <- inception_3b/3x3
I1128 09:18:11.219568 27275 net.cpp:477] inception_3b/output <- inception_3b/5x5
I1128 09:18:11.219570 27275 net.cpp:477] inception_3b/output <- inception_3b/pool_proj
I1128 09:18:11.219575 27275 net.cpp:433] inception_3b/output -> inception_3b/output
I1128 09:18:11.219594 27275 net.cpp:155] Setting up inception_3b/output
I1128 09:18:11.219602 27275 net.cpp:163] Top shape: 32 480 28 28 (12042240)
I1128 09:18:11.219605 27275 layer_factory.hpp:76] Creating layer pool3/3x3_s2
I1128 09:18:11.219610 27275 net.cpp:110] Creating Layer pool3/3x3_s2
I1128 09:18:11.219612 27275 net.cpp:477] pool3/3x3_s2 <- inception_3b/output
I1128 09:18:11.219617 27275 net.cpp:433] pool3/3x3_s2 -> pool3/3x3_s2
I1128 09:18:11.219643 27275 net.cpp:155] Setting up pool3/3x3_s2
I1128 09:18:11.219650 27275 net.cpp:163] Top shape: 32 480 14 14 (3010560)
I1128 09:18:11.219653 27275 layer_factory.hpp:76] Creating layer pool3/3x3_s2_pool3/3x3_s2_0_split
I1128 09:18:11.219658 27275 net.cpp:110] Creating Layer pool3/3x3_s2_pool3/3x3_s2_0_split
I1128 09:18:11.219661 27275 net.cpp:477] pool3/3x3_s2_pool3/3x3_s2_0_split <- pool3/3x3_s2
I1128 09:18:11.219667 27275 net.cpp:433] pool3/3x3_s2_pool3/3x3_s2_0_split -> pool3/3x3_s2_pool3/3x3_s2_0_split_0
I1128 09:18:11.219672 27275 net.cpp:433] pool3/3x3_s2_pool3/3x3_s2_0_split -> pool3/3x3_s2_pool3/3x3_s2_0_split_1
I1128 09:18:11.219677 27275 net.cpp:433] pool3/3x3_s2_pool3/3x3_s2_0_split -> pool3/3x3_s2_pool3/3x3_s2_0_split_2
I1128 09:18:11.219681 27275 net.cpp:433] pool3/3x3_s2_pool3/3x3_s2_0_split -> pool3/3x3_s2_pool3/3x3_s2_0_split_3
I1128 09:18:11.219723 27275 net.cpp:155] Setting up pool3/3x3_s2_pool3/3x3_s2_0_split
I1128 09:18:11.219730 27275 net.cpp:163] Top shape: 32 480 14 14 (3010560)
I1128 09:18:11.219734 27275 net.cpp:163] Top shape: 32 480 14 14 (3010560)
I1128 09:18:11.219738 27275 net.cpp:163] Top shape: 32 480 14 14 (3010560)
I1128 09:18:11.219740 27275 net.cpp:163] Top shape: 32 480 14 14 (3010560)
I1128 09:18:11.219743 27275 layer_factory.hpp:76] Creating layer inception_4a/1x1
I1128 09:18:11.219750 27275 net.cpp:110] Creating Layer inception_4a/1x1
I1128 09:18:11.219753 27275 net.cpp:477] inception_4a/1x1 <- pool3/3x3_s2_pool3/3x3_s2_0_split_0
I1128 09:18:11.219758 27275 net.cpp:433] inception_4a/1x1 -> inception_4a/1x1
I1128 09:18:11.220381 27275 net.cpp:155] Setting up inception_4a/1x1
I1128 09:18:11.220389 27275 net.cpp:163] Top shape: 32 192 14 14 (1204224)
I1128 09:18:11.220396 27275 layer_factory.hpp:76] Creating layer inception_4a/relu_1x1
I1128 09:18:11.220401 27275 net.cpp:110] Creating Layer inception_4a/relu_1x1
I1128 09:18:11.220403 27275 net.cpp:477] inception_4a/relu_1x1 <- inception_4a/1x1
I1128 09:18:11.220407 27275 net.cpp:419] inception_4a/relu_1x1 -> inception_4a/1x1 (in-place)
I1128 09:18:11.220412 27275 net.cpp:155] Setting up inception_4a/relu_1x1
I1128 09:18:11.220417 27275 net.cpp:163] Top shape: 32 192 14 14 (1204224)
I1128 09:18:11.220419 27275 layer_factory.hpp:76] Creating layer inception_4a/3x3_reduce
I1128 09:18:11.220427 27275 net.cpp:110] Creating Layer inception_4a/3x3_reduce
I1128 09:18:11.220432 27275 net.cpp:477] inception_4a/3x3_reduce <- pool3/3x3_s2_pool3/3x3_s2_0_split_1
I1128 09:18:11.220438 27275 net.cpp:433] inception_4a/3x3_reduce -> inception_4a/3x3_reduce
I1128 09:18:11.220839 27275 net.cpp:155] Setting up inception_4a/3x3_reduce
I1128 09:18:11.220847 27275 net.cpp:163] Top shape: 32 96 14 14 (602112)
I1128 09:18:11.220857 27275 layer_factory.hpp:76] Creating layer inception_4a/relu_3x3_reduce
I1128 09:18:11.220863 27275 net.cpp:110] Creating Layer inception_4a/relu_3x3_reduce
I1128 09:18:11.220866 27275 net.cpp:477] inception_4a/relu_3x3_reduce <- inception_4a/3x3_reduce
I1128 09:18:11.220872 27275 net.cpp:419] inception_4a/relu_3x3_reduce -> inception_4a/3x3_reduce (in-place)
I1128 09:18:11.220878 27275 net.cpp:155] Setting up inception_4a/relu_3x3_reduce
I1128 09:18:11.220881 27275 net.cpp:163] Top shape: 32 96 14 14 (602112)
I1128 09:18:11.220885 27275 layer_factory.hpp:76] Creating layer inception_4a/3x3
I1128 09:18:11.220890 27275 net.cpp:110] Creating Layer inception_4a/3x3
I1128 09:18:11.220892 27275 net.cpp:477] inception_4a/3x3 <- inception_4a/3x3_reduce
I1128 09:18:11.220898 27275 net.cpp:433] inception_4a/3x3 -> inception_4a/3x3
I1128 09:18:11.222381 27275 net.cpp:155] Setting up inception_4a/3x3
I1128 09:18:11.222393 27275 net.cpp:163] Top shape: 32 208 14 14 (1304576)
I1128 09:18:11.222398 27275 layer_factory.hpp:76] Creating layer inception_4a/relu_3x3
I1128 09:18:11.222404 27275 net.cpp:110] Creating Layer inception_4a/relu_3x3
I1128 09:18:11.222406 27275 net.cpp:477] inception_4a/relu_3x3 <- inception_4a/3x3
I1128 09:18:11.222411 27275 net.cpp:419] inception_4a/relu_3x3 -> inception_4a/3x3 (in-place)
I1128 09:18:11.222417 27275 net.cpp:155] Setting up inception_4a/relu_3x3
I1128 09:18:11.222421 27275 net.cpp:163] Top shape: 32 208 14 14 (1304576)
I1128 09:18:11.222424 27275 layer_factory.hpp:76] Creating layer inception_4a/5x5_reduce
I1128 09:18:11.222431 27275 net.cpp:110] Creating Layer inception_4a/5x5_reduce
I1128 09:18:11.222434 27275 net.cpp:477] inception_4a/5x5_reduce <- pool3/3x3_s2_pool3/3x3_s2_0_split_2
I1128 09:18:11.222440 27275 net.cpp:433] inception_4a/5x5_reduce -> inception_4a/5x5_reduce
I1128 09:18:11.222628 27275 net.cpp:155] Setting up inception_4a/5x5_reduce
I1128 09:18:11.222636 27275 net.cpp:163] Top shape: 32 16 14 14 (100352)
I1128 09:18:11.222642 27275 layer_factory.hpp:76] Creating layer inception_4a/relu_5x5_reduce
I1128 09:18:11.222647 27275 net.cpp:110] Creating Layer inception_4a/relu_5x5_reduce
I1128 09:18:11.222651 27275 net.cpp:477] inception_4a/relu_5x5_reduce <- inception_4a/5x5_reduce
I1128 09:18:11.222654 27275 net.cpp:419] inception_4a/relu_5x5_reduce -> inception_4a/5x5_reduce (in-place)
I1128 09:18:11.222659 27275 net.cpp:155] Setting up inception_4a/relu_5x5_reduce
I1128 09:18:11.222663 27275 net.cpp:163] Top shape: 32 16 14 14 (100352)
I1128 09:18:11.222666 27275 layer_factory.hpp:76] Creating layer inception_4a/5x5
I1128 09:18:11.222673 27275 net.cpp:110] Creating Layer inception_4a/5x5
I1128 09:18:11.222676 27275 net.cpp:477] inception_4a/5x5 <- inception_4a/5x5_reduce
I1128 09:18:11.222682 27275 net.cpp:433] inception_4a/5x5 -> inception_4a/5x5
I1128 09:18:11.222932 27275 net.cpp:155] Setting up inception_4a/5x5
I1128 09:18:11.222940 27275 net.cpp:163] Top shape: 32 48 14 14 (301056)
I1128 09:18:11.222946 27275 layer_factory.hpp:76] Creating layer inception_4a/relu_5x5
I1128 09:18:11.222950 27275 net.cpp:110] Creating Layer inception_4a/relu_5x5
I1128 09:18:11.222954 27275 net.cpp:477] inception_4a/relu_5x5 <- inception_4a/5x5
I1128 09:18:11.222959 27275 net.cpp:419] inception_4a/relu_5x5 -> inception_4a/5x5 (in-place)
I1128 09:18:11.222964 27275 net.cpp:155] Setting up inception_4a/relu_5x5
I1128 09:18:11.222966 27275 net.cpp:163] Top shape: 32 48 14 14 (301056)
I1128 09:18:11.222970 27275 layer_factory.hpp:76] Creating layer inception_4a/pool
I1128 09:18:11.222973 27275 net.cpp:110] Creating Layer inception_4a/pool
I1128 09:18:11.222976 27275 net.cpp:477] inception_4a/pool <- pool3/3x3_s2_pool3/3x3_s2_0_split_3
I1128 09:18:11.222981 27275 net.cpp:433] inception_4a/pool -> inception_4a/pool
I1128 09:18:11.223013 27275 net.cpp:155] Setting up inception_4a/pool
I1128 09:18:11.223021 27275 net.cpp:163] Top shape: 32 480 14 14 (3010560)
I1128 09:18:11.223023 27275 layer_factory.hpp:76] Creating layer inception_4a/pool_proj
I1128 09:18:11.223031 27275 net.cpp:110] Creating Layer inception_4a/pool_proj
I1128 09:18:11.223034 27275 net.cpp:477] inception_4a/pool_proj <- inception_4a/pool
I1128 09:18:11.223040 27275 net.cpp:433] inception_4a/pool_proj -> inception_4a/pool_proj
I1128 09:18:11.223352 27275 net.cpp:155] Setting up inception_4a/pool_proj
I1128 09:18:11.223361 27275 net.cpp:163] Top shape: 32 64 14 14 (401408)
I1128 09:18:11.223366 27275 layer_factory.hpp:76] Creating layer inception_4a/relu_pool_proj
I1128 09:18:11.223371 27275 net.cpp:110] Creating Layer inception_4a/relu_pool_proj
I1128 09:18:11.223374 27275 net.cpp:477] inception_4a/relu_pool_proj <- inception_4a/pool_proj
I1128 09:18:11.223378 27275 net.cpp:419] inception_4a/relu_pool_proj -> inception_4a/pool_proj (in-place)
I1128 09:18:11.223383 27275 net.cpp:155] Setting up inception_4a/relu_pool_proj
I1128 09:18:11.223387 27275 net.cpp:163] Top shape: 32 64 14 14 (401408)
I1128 09:18:11.223390 27275 layer_factory.hpp:76] Creating layer inception_4a/output
I1128 09:18:11.223394 27275 net.cpp:110] Creating Layer inception_4a/output
I1128 09:18:11.223397 27275 net.cpp:477] inception_4a/output <- inception_4a/1x1
I1128 09:18:11.223400 27275 net.cpp:477] inception_4a/output <- inception_4a/3x3
I1128 09:18:11.223404 27275 net.cpp:477] inception_4a/output <- inception_4a/5x5
I1128 09:18:11.223407 27275 net.cpp:477] inception_4a/output <- inception_4a/pool_proj
I1128 09:18:11.223412 27275 net.cpp:433] inception_4a/output -> inception_4a/output
I1128 09:18:11.223431 27275 net.cpp:155] Setting up inception_4a/output
I1128 09:18:11.223438 27275 net.cpp:163] Top shape: 32 512 14 14 (3211264)
I1128 09:18:11.223441 27275 layer_factory.hpp:76] Creating layer inception_4a/output_inception_4a/output_0_split
I1128 09:18:11.223448 27275 net.cpp:110] Creating Layer inception_4a/output_inception_4a/output_0_split
I1128 09:18:11.223451 27275 net.cpp:477] inception_4a/output_inception_4a/output_0_split <- inception_4a/output
I1128 09:18:11.223455 27275 net.cpp:433] inception_4a/output_inception_4a/output_0_split -> inception_4a/output_inception_4a/output_0_split_0
I1128 09:18:11.223465 27275 net.cpp:433] inception_4a/output_inception_4a/output_0_split -> inception_4a/output_inception_4a/output_0_split_1
I1128 09:18:11.223472 27275 net.cpp:433] inception_4a/output_inception_4a/output_0_split -> inception_4a/output_inception_4a/output_0_split_2
I1128 09:18:11.223477 27275 net.cpp:433] inception_4a/output_inception_4a/output_0_split -> inception_4a/output_inception_4a/output_0_split_3
I1128 09:18:11.223482 27275 net.cpp:433] inception_4a/output_inception_4a/output_0_split -> inception_4a/output_inception_4a/output_0_split_4
I1128 09:18:11.223531 27275 net.cpp:155] Setting up inception_4a/output_inception_4a/output_0_split
I1128 09:18:11.223538 27275 net.cpp:163] Top shape: 32 512 14 14 (3211264)
I1128 09:18:11.223542 27275 net.cpp:163] Top shape: 32 512 14 14 (3211264)
I1128 09:18:11.223546 27275 net.cpp:163] Top shape: 32 512 14 14 (3211264)
I1128 09:18:11.223548 27275 net.cpp:163] Top shape: 32 512 14 14 (3211264)
I1128 09:18:11.223551 27275 net.cpp:163] Top shape: 32 512 14 14 (3211264)
I1128 09:18:11.223554 27275 layer_factory.hpp:76] Creating layer loss1/ave_pool
I1128 09:18:11.223559 27275 net.cpp:110] Creating Layer loss1/ave_pool
I1128 09:18:11.223562 27275 net.cpp:477] loss1/ave_pool <- inception_4a/output_inception_4a/output_0_split_0
I1128 09:18:11.223568 27275 net.cpp:433] loss1/ave_pool -> loss1/ave_pool
I1128 09:18:11.223585 27275 net.cpp:155] Setting up loss1/ave_pool
I1128 09:18:11.223592 27275 net.cpp:163] Top shape: 32 512 4 4 (262144)
I1128 09:18:11.223594 27275 layer_factory.hpp:76] Creating layer loss1/conv
I1128 09:18:11.223603 27275 net.cpp:110] Creating Layer loss1/conv
I1128 09:18:11.223606 27275 net.cpp:477] loss1/conv <- loss1/ave_pool
I1128 09:18:11.223611 27275 net.cpp:433] loss1/conv -> loss1/conv
I1128 09:18:11.224108 27275 net.cpp:155] Setting up loss1/conv
I1128 09:18:11.224117 27275 net.cpp:163] Top shape: 32 128 4 4 (65536)
I1128 09:18:11.224135 27275 layer_factory.hpp:76] Creating layer loss1/relu_conv
I1128 09:18:11.224141 27275 net.cpp:110] Creating Layer loss1/relu_conv
I1128 09:18:11.224144 27275 net.cpp:477] loss1/relu_conv <- loss1/conv
I1128 09:18:11.224149 27275 net.cpp:419] loss1/relu_conv -> loss1/conv (in-place)
I1128 09:18:11.224154 27275 net.cpp:155] Setting up loss1/relu_conv
I1128 09:18:11.224159 27275 net.cpp:163] Top shape: 32 128 4 4 (65536)
I1128 09:18:11.224161 27275 layer_factory.hpp:76] Creating layer loss1/fc
I1128 09:18:11.224174 27275 net.cpp:110] Creating Layer loss1/fc
I1128 09:18:11.224179 27275 net.cpp:477] loss1/fc <- loss1/conv
I1128 09:18:11.224186 27275 net.cpp:433] loss1/fc -> loss1/fc
I1128 09:18:11.238389 27275 net.cpp:155] Setting up loss1/fc
I1128 09:18:11.238428 27275 net.cpp:163] Top shape: 32 1024 (32768)
I1128 09:18:11.238440 27275 layer_factory.hpp:76] Creating layer loss1/relu_fc
I1128 09:18:11.238448 27275 net.cpp:110] Creating Layer loss1/relu_fc
I1128 09:18:11.238453 27275 net.cpp:477] loss1/relu_fc <- loss1/fc
I1128 09:18:11.238461 27275 net.cpp:419] loss1/relu_fc -> loss1/fc (in-place)
I1128 09:18:11.238474 27275 net.cpp:155] Setting up loss1/relu_fc
I1128 09:18:11.238478 27275 net.cpp:163] Top shape: 32 1024 (32768)
I1128 09:18:11.238481 27275 layer_factory.hpp:76] Creating layer loss1/drop_fc
I1128 09:18:11.238498 27275 net.cpp:110] Creating Layer loss1/drop_fc
I1128 09:18:11.238502 27275 net.cpp:477] loss1/drop_fc <- loss1/fc
I1128 09:18:11.238507 27275 net.cpp:419] loss1/drop_fc -> loss1/fc (in-place)
I1128 09:18:11.238538 27275 net.cpp:155] Setting up loss1/drop_fc
I1128 09:18:11.238544 27275 net.cpp:163] Top shape: 32 1024 (32768)
I1128 09:18:11.238548 27275 layer_factory.hpp:76] Creating layer loss1/classifier
I1128 09:18:11.238559 27275 net.cpp:110] Creating Layer loss1/classifier
I1128 09:18:11.238564 27275 net.cpp:477] loss1/classifier <- loss1/fc
I1128 09:18:11.238570 27275 net.cpp:433] loss1/classifier -> loss1/classifier
I1128 09:18:11.245463 27275 net.cpp:155] Setting up loss1/classifier
I1128 09:18:11.245499 27275 net.cpp:163] Top shape: 32 1000 (32000)
I1128 09:18:11.245509 27275 layer_factory.hpp:76] Creating layer loss1/loss
I1128 09:18:11.245522 27275 net.cpp:110] Creating Layer loss1/loss
I1128 09:18:11.245527 27275 net.cpp:477] loss1/loss <- loss1/classifier
I1128 09:18:11.245534 27275 net.cpp:477] loss1/loss <- label_data_1_split_0
I1128 09:18:11.245539 27275 net.cpp:433] loss1/loss -> loss1/loss1
I1128 09:18:11.245558 27275 layer_factory.hpp:76] Creating layer loss1/loss
I1128 09:18:11.246088 27275 net.cpp:155] Setting up loss1/loss
I1128 09:18:11.246098 27275 net.cpp:163] Top shape: (1)
I1128 09:18:11.246112 27275 net.cpp:168]     with loss weight 0.3
I1128 09:18:11.246136 27275 layer_factory.hpp:76] Creating layer inception_4b/1x1
I1128 09:18:11.246148 27275 net.cpp:110] Creating Layer inception_4b/1x1
I1128 09:18:11.246152 27275 net.cpp:477] inception_4b/1x1 <- inception_4a/output_inception_4a/output_0_split_1
I1128 09:18:11.246157 27275 net.cpp:433] inception_4b/1x1 -> inception_4b/1x1
I1128 09:18:11.246794 27275 net.cpp:155] Setting up inception_4b/1x1
I1128 09:18:11.246816 27275 net.cpp:163] Top shape: 32 160 14 14 (1003520)
I1128 09:18:11.246824 27275 layer_factory.hpp:76] Creating layer inception_4b/relu_1x1
I1128 09:18:11.246829 27275 net.cpp:110] Creating Layer inception_4b/relu_1x1
I1128 09:18:11.246832 27275 net.cpp:477] inception_4b/relu_1x1 <- inception_4b/1x1
I1128 09:18:11.246837 27275 net.cpp:419] inception_4b/relu_1x1 -> inception_4b/1x1 (in-place)
I1128 09:18:11.246844 27275 net.cpp:155] Setting up inception_4b/relu_1x1
I1128 09:18:11.246850 27275 net.cpp:163] Top shape: 32 160 14 14 (1003520)
I1128 09:18:11.246852 27275 layer_factory.hpp:76] Creating layer inception_4b/3x3_reduce
I1128 09:18:11.246860 27275 net.cpp:110] Creating Layer inception_4b/3x3_reduce
I1128 09:18:11.246863 27275 net.cpp:477] inception_4b/3x3_reduce <- inception_4a/output_inception_4a/output_0_split_2
I1128 09:18:11.246870 27275 net.cpp:433] inception_4b/3x3_reduce -> inception_4b/3x3_reduce
I1128 09:18:11.247352 27275 net.cpp:155] Setting up inception_4b/3x3_reduce
I1128 09:18:11.247362 27275 net.cpp:163] Top shape: 32 112 14 14 (702464)
I1128 09:18:11.247367 27275 layer_factory.hpp:76] Creating layer inception_4b/relu_3x3_reduce
I1128 09:18:11.247373 27275 net.cpp:110] Creating Layer inception_4b/relu_3x3_reduce
I1128 09:18:11.247378 27275 net.cpp:477] inception_4b/relu_3x3_reduce <- inception_4b/3x3_reduce
I1128 09:18:11.247383 27275 net.cpp:419] inception_4b/relu_3x3_reduce -> inception_4b/3x3_reduce (in-place)
I1128 09:18:11.247390 27275 net.cpp:155] Setting up inception_4b/relu_3x3_reduce
I1128 09:18:11.247392 27275 net.cpp:163] Top shape: 32 112 14 14 (702464)
I1128 09:18:11.247395 27275 layer_factory.hpp:76] Creating layer inception_4b/3x3
I1128 09:18:11.247401 27275 net.cpp:110] Creating Layer inception_4b/3x3
I1128 09:18:11.247405 27275 net.cpp:477] inception_4b/3x3 <- inception_4b/3x3_reduce
I1128 09:18:11.247411 27275 net.cpp:433] inception_4b/3x3 -> inception_4b/3x3
I1128 09:18:11.249219 27275 net.cpp:155] Setting up inception_4b/3x3
I1128 09:18:11.249233 27275 net.cpp:163] Top shape: 32 224 14 14 (1404928)
I1128 09:18:11.249240 27275 layer_factory.hpp:76] Creating layer inception_4b/relu_3x3
I1128 09:18:11.249245 27275 net.cpp:110] Creating Layer inception_4b/relu_3x3
I1128 09:18:11.249249 27275 net.cpp:477] inception_4b/relu_3x3 <- inception_4b/3x3
I1128 09:18:11.249254 27275 net.cpp:419] inception_4b/relu_3x3 -> inception_4b/3x3 (in-place)
I1128 09:18:11.249261 27275 net.cpp:155] Setting up inception_4b/relu_3x3
I1128 09:18:11.249264 27275 net.cpp:163] Top shape: 32 224 14 14 (1404928)
I1128 09:18:11.249267 27275 layer_factory.hpp:76] Creating layer inception_4b/5x5_reduce
I1128 09:18:11.249276 27275 net.cpp:110] Creating Layer inception_4b/5x5_reduce
I1128 09:18:11.249279 27275 net.cpp:477] inception_4b/5x5_reduce <- inception_4a/output_inception_4a/output_0_split_3
I1128 09:18:11.249286 27275 net.cpp:433] inception_4b/5x5_reduce -> inception_4b/5x5_reduce
I1128 09:18:11.249516 27275 net.cpp:155] Setting up inception_4b/5x5_reduce
I1128 09:18:11.249524 27275 net.cpp:163] Top shape: 32 24 14 14 (150528)
I1128 09:18:11.249531 27275 layer_factory.hpp:76] Creating layer inception_4b/relu_5x5_reduce
I1128 09:18:11.249536 27275 net.cpp:110] Creating Layer inception_4b/relu_5x5_reduce
I1128 09:18:11.249539 27275 net.cpp:477] inception_4b/relu_5x5_reduce <- inception_4b/5x5_reduce
I1128 09:18:11.249544 27275 net.cpp:419] inception_4b/relu_5x5_reduce -> inception_4b/5x5_reduce (in-place)
I1128 09:18:11.249549 27275 net.cpp:155] Setting up inception_4b/relu_5x5_reduce
I1128 09:18:11.249553 27275 net.cpp:163] Top shape: 32 24 14 14 (150528)
I1128 09:18:11.249557 27275 layer_factory.hpp:76] Creating layer inception_4b/5x5
I1128 09:18:11.249562 27275 net.cpp:110] Creating Layer inception_4b/5x5
I1128 09:18:11.249564 27275 net.cpp:477] inception_4b/5x5 <- inception_4b/5x5_reduce
I1128 09:18:11.249572 27275 net.cpp:433] inception_4b/5x5 -> inception_4b/5x5
I1128 09:18:11.249949 27275 net.cpp:155] Setting up inception_4b/5x5
I1128 09:18:11.249958 27275 net.cpp:163] Top shape: 32 64 14 14 (401408)
I1128 09:18:11.249964 27275 layer_factory.hpp:76] Creating layer inception_4b/relu_5x5
I1128 09:18:11.249969 27275 net.cpp:110] Creating Layer inception_4b/relu_5x5
I1128 09:18:11.249971 27275 net.cpp:477] inception_4b/relu_5x5 <- inception_4b/5x5
I1128 09:18:11.249977 27275 net.cpp:419] inception_4b/relu_5x5 -> inception_4b/5x5 (in-place)
I1128 09:18:11.249984 27275 net.cpp:155] Setting up inception_4b/relu_5x5
I1128 09:18:11.249987 27275 net.cpp:163] Top shape: 32 64 14 14 (401408)
I1128 09:18:11.249996 27275 layer_factory.hpp:76] Creating layer inception_4b/pool
I1128 09:18:11.250004 27275 net.cpp:110] Creating Layer inception_4b/pool
I1128 09:18:11.250007 27275 net.cpp:477] inception_4b/pool <- inception_4a/output_inception_4a/output_0_split_4
I1128 09:18:11.250011 27275 net.cpp:433] inception_4b/pool -> inception_4b/pool
I1128 09:18:11.250068 27275 net.cpp:155] Setting up inception_4b/pool
I1128 09:18:11.250082 27275 net.cpp:163] Top shape: 32 512 14 14 (3211264)
I1128 09:18:11.250087 27275 layer_factory.hpp:76] Creating layer inception_4b/pool_proj
I1128 09:18:11.250102 27275 net.cpp:110] Creating Layer inception_4b/pool_proj
I1128 09:18:11.250108 27275 net.cpp:477] inception_4b/pool_proj <- inception_4b/pool
I1128 09:18:11.250116 27275 net.cpp:433] inception_4b/pool_proj -> inception_4b/pool_proj
I1128 09:18:11.250452 27275 net.cpp:155] Setting up inception_4b/pool_proj
I1128 09:18:11.250461 27275 net.cpp:163] Top shape: 32 64 14 14 (401408)
I1128 09:18:11.250468 27275 layer_factory.hpp:76] Creating layer inception_4b/relu_pool_proj
I1128 09:18:11.250473 27275 net.cpp:110] Creating Layer inception_4b/relu_pool_proj
I1128 09:18:11.250475 27275 net.cpp:477] inception_4b/relu_pool_proj <- inception_4b/pool_proj
I1128 09:18:11.250479 27275 net.cpp:419] inception_4b/relu_pool_proj -> inception_4b/pool_proj (in-place)
I1128 09:18:11.250485 27275 net.cpp:155] Setting up inception_4b/relu_pool_proj
I1128 09:18:11.250489 27275 net.cpp:163] Top shape: 32 64 14 14 (401408)
I1128 09:18:11.250493 27275 layer_factory.hpp:76] Creating layer inception_4b/output
I1128 09:18:11.250497 27275 net.cpp:110] Creating Layer inception_4b/output
I1128 09:18:11.250499 27275 net.cpp:477] inception_4b/output <- inception_4b/1x1
I1128 09:18:11.250504 27275 net.cpp:477] inception_4b/output <- inception_4b/3x3
I1128 09:18:11.250506 27275 net.cpp:477] inception_4b/output <- inception_4b/5x5
I1128 09:18:11.250515 27275 net.cpp:477] inception_4b/output <- inception_4b/pool_proj
I1128 09:18:11.250524 27275 net.cpp:433] inception_4b/output -> inception_4b/output
I1128 09:18:11.250555 27275 net.cpp:155] Setting up inception_4b/output
I1128 09:18:11.250566 27275 net.cpp:163] Top shape: 32 512 14 14 (3211264)
I1128 09:18:11.250571 27275 layer_factory.hpp:76] Creating layer inception_4b/output_inception_4b/output_0_split
I1128 09:18:11.250583 27275 net.cpp:110] Creating Layer inception_4b/output_inception_4b/output_0_split
I1128 09:18:11.250591 27275 net.cpp:477] inception_4b/output_inception_4b/output_0_split <- inception_4b/output
I1128 09:18:11.250597 27275 net.cpp:433] inception_4b/output_inception_4b/output_0_split -> inception_4b/output_inception_4b/output_0_split_0
I1128 09:18:11.250604 27275 net.cpp:433] inception_4b/output_inception_4b/output_0_split -> inception_4b/output_inception_4b/output_0_split_1
I1128 09:18:11.250612 27275 net.cpp:433] inception_4b/output_inception_4b/output_0_split -> inception_4b/output_inception_4b/output_0_split_2
I1128 09:18:11.250617 27275 net.cpp:433] inception_4b/output_inception_4b/output_0_split -> inception_4b/output_inception_4b/output_0_split_3
I1128 09:18:11.250663 27275 net.cpp:155] Setting up inception_4b/output_inception_4b/output_0_split
I1128 09:18:11.250671 27275 net.cpp:163] Top shape: 32 512 14 14 (3211264)
I1128 09:18:11.250679 27275 net.cpp:163] Top shape: 32 512 14 14 (3211264)
I1128 09:18:11.250686 27275 net.cpp:163] Top shape: 32 512 14 14 (3211264)
I1128 09:18:11.250692 27275 net.cpp:163] Top shape: 32 512 14 14 (3211264)
I1128 09:18:11.250700 27275 layer_factory.hpp:76] Creating layer inception_4c/1x1
I1128 09:18:11.250712 27275 net.cpp:110] Creating Layer inception_4c/1x1
I1128 09:18:11.250716 27275 net.cpp:477] inception_4c/1x1 <- inception_4b/output_inception_4b/output_0_split_0
I1128 09:18:11.250722 27275 net.cpp:433] inception_4c/1x1 -> inception_4c/1x1
I1128 09:18:11.251256 27275 net.cpp:155] Setting up inception_4c/1x1
I1128 09:18:11.251266 27275 net.cpp:163] Top shape: 32 128 14 14 (802816)
I1128 09:18:11.251273 27275 layer_factory.hpp:76] Creating layer inception_4c/relu_1x1
I1128 09:18:11.251281 27275 net.cpp:110] Creating Layer inception_4c/relu_1x1
I1128 09:18:11.251286 27275 net.cpp:477] inception_4c/relu_1x1 <- inception_4c/1x1
I1128 09:18:11.251289 27275 net.cpp:419] inception_4c/relu_1x1 -> inception_4c/1x1 (in-place)
I1128 09:18:11.251296 27275 net.cpp:155] Setting up inception_4c/relu_1x1
I1128 09:18:11.251302 27275 net.cpp:163] Top shape: 32 128 14 14 (802816)
I1128 09:18:11.251304 27275 layer_factory.hpp:76] Creating layer inception_4c/3x3_reduce
I1128 09:18:11.251312 27275 net.cpp:110] Creating Layer inception_4c/3x3_reduce
I1128 09:18:11.251315 27275 net.cpp:477] inception_4c/3x3_reduce <- inception_4b/output_inception_4b/output_0_split_1
I1128 09:18:11.251320 27275 net.cpp:433] inception_4c/3x3_reduce -> inception_4c/3x3_reduce
I1128 09:18:11.252226 27275 net.cpp:155] Setting up inception_4c/3x3_reduce
I1128 09:18:11.252238 27275 net.cpp:163] Top shape: 32 128 14 14 (802816)
I1128 09:18:11.252243 27275 layer_factory.hpp:76] Creating layer inception_4c/relu_3x3_reduce
I1128 09:18:11.252249 27275 net.cpp:110] Creating Layer inception_4c/relu_3x3_reduce
I1128 09:18:11.252254 27275 net.cpp:477] inception_4c/relu_3x3_reduce <- inception_4c/3x3_reduce
I1128 09:18:11.252259 27275 net.cpp:419] inception_4c/relu_3x3_reduce -> inception_4c/3x3_reduce (in-place)
I1128 09:18:11.252265 27275 net.cpp:155] Setting up inception_4c/relu_3x3_reduce
I1128 09:18:11.252269 27275 net.cpp:163] Top shape: 32 128 14 14 (802816)
I1128 09:18:11.252271 27275 layer_factory.hpp:76] Creating layer inception_4c/3x3
I1128 09:18:11.252279 27275 net.cpp:110] Creating Layer inception_4c/3x3
I1128 09:18:11.252285 27275 net.cpp:477] inception_4c/3x3 <- inception_4c/3x3_reduce
I1128 09:18:11.252290 27275 net.cpp:433] inception_4c/3x3 -> inception_4c/3x3
I1128 09:18:11.254503 27275 net.cpp:155] Setting up inception_4c/3x3
I1128 09:18:11.254514 27275 net.cpp:163] Top shape: 32 256 14 14 (1605632)
I1128 09:18:11.254533 27275 layer_factory.hpp:76] Creating layer inception_4c/relu_3x3
I1128 09:18:11.254539 27275 net.cpp:110] Creating Layer inception_4c/relu_3x3
I1128 09:18:11.254544 27275 net.cpp:477] inception_4c/relu_3x3 <- inception_4c/3x3
I1128 09:18:11.254549 27275 net.cpp:419] inception_4c/relu_3x3 -> inception_4c/3x3 (in-place)
I1128 09:18:11.254555 27275 net.cpp:155] Setting up inception_4c/relu_3x3
I1128 09:18:11.254559 27275 net.cpp:163] Top shape: 32 256 14 14 (1605632)
I1128 09:18:11.254562 27275 layer_factory.hpp:76] Creating layer inception_4c/5x5_reduce
I1128 09:18:11.254570 27275 net.cpp:110] Creating Layer inception_4c/5x5_reduce
I1128 09:18:11.254573 27275 net.cpp:477] inception_4c/5x5_reduce <- inception_4b/output_inception_4b/output_0_split_2
I1128 09:18:11.254582 27275 net.cpp:433] inception_4c/5x5_reduce -> inception_4c/5x5_reduce
I1128 09:18:11.254812 27275 net.cpp:155] Setting up inception_4c/5x5_reduce
I1128 09:18:11.254822 27275 net.cpp:163] Top shape: 32 24 14 14 (150528)
I1128 09:18:11.254828 27275 layer_factory.hpp:76] Creating layer inception_4c/relu_5x5_reduce
I1128 09:18:11.254834 27275 net.cpp:110] Creating Layer inception_4c/relu_5x5_reduce
I1128 09:18:11.254837 27275 net.cpp:477] inception_4c/relu_5x5_reduce <- inception_4c/5x5_reduce
I1128 09:18:11.254843 27275 net.cpp:419] inception_4c/relu_5x5_reduce -> inception_4c/5x5_reduce (in-place)
I1128 09:18:11.254850 27275 net.cpp:155] Setting up inception_4c/relu_5x5_reduce
I1128 09:18:11.254855 27275 net.cpp:163] Top shape: 32 24 14 14 (150528)
I1128 09:18:11.254858 27275 layer_factory.hpp:76] Creating layer inception_4c/5x5
I1128 09:18:11.254866 27275 net.cpp:110] Creating Layer inception_4c/5x5
I1128 09:18:11.254869 27275 net.cpp:477] inception_4c/5x5 <- inception_4c/5x5_reduce
I1128 09:18:11.254875 27275 net.cpp:433] inception_4c/5x5 -> inception_4c/5x5
I1128 09:18:11.255245 27275 net.cpp:155] Setting up inception_4c/5x5
I1128 09:18:11.255254 27275 net.cpp:163] Top shape: 32 64 14 14 (401408)
I1128 09:18:11.255259 27275 layer_factory.hpp:76] Creating layer inception_4c/relu_5x5
I1128 09:18:11.255264 27275 net.cpp:110] Creating Layer inception_4c/relu_5x5
I1128 09:18:11.255267 27275 net.cpp:477] inception_4c/relu_5x5 <- inception_4c/5x5
I1128 09:18:11.255275 27275 net.cpp:419] inception_4c/relu_5x5 -> inception_4c/5x5 (in-place)
I1128 09:18:11.255280 27275 net.cpp:155] Setting up inception_4c/relu_5x5
I1128 09:18:11.255283 27275 net.cpp:163] Top shape: 32 64 14 14 (401408)
I1128 09:18:11.255286 27275 layer_factory.hpp:76] Creating layer inception_4c/pool
I1128 09:18:11.255292 27275 net.cpp:110] Creating Layer inception_4c/pool
I1128 09:18:11.255297 27275 net.cpp:477] inception_4c/pool <- inception_4b/output_inception_4b/output_0_split_3
I1128 09:18:11.255302 27275 net.cpp:433] inception_4c/pool -> inception_4c/pool
I1128 09:18:11.255336 27275 net.cpp:155] Setting up inception_4c/pool
I1128 09:18:11.255344 27275 net.cpp:163] Top shape: 32 512 14 14 (3211264)
I1128 09:18:11.255349 27275 layer_factory.hpp:76] Creating layer inception_4c/pool_proj
I1128 09:18:11.255355 27275 net.cpp:110] Creating Layer inception_4c/pool_proj
I1128 09:18:11.255358 27275 net.cpp:477] inception_4c/pool_proj <- inception_4c/pool
I1128 09:18:11.255365 27275 net.cpp:433] inception_4c/pool_proj -> inception_4c/pool_proj
I1128 09:18:11.255698 27275 net.cpp:155] Setting up inception_4c/pool_proj
I1128 09:18:11.255707 27275 net.cpp:163] Top shape: 32 64 14 14 (401408)
I1128 09:18:11.255714 27275 layer_factory.hpp:76] Creating layer inception_4c/relu_pool_proj
I1128 09:18:11.255720 27275 net.cpp:110] Creating Layer inception_4c/relu_pool_proj
I1128 09:18:11.255724 27275 net.cpp:477] inception_4c/relu_pool_proj <- inception_4c/pool_proj
I1128 09:18:11.255729 27275 net.cpp:419] inception_4c/relu_pool_proj -> inception_4c/pool_proj (in-place)
I1128 09:18:11.255734 27275 net.cpp:155] Setting up inception_4c/relu_pool_proj
I1128 09:18:11.255738 27275 net.cpp:163] Top shape: 32 64 14 14 (401408)
I1128 09:18:11.255741 27275 layer_factory.hpp:76] Creating layer inception_4c/output
I1128 09:18:11.255745 27275 net.cpp:110] Creating Layer inception_4c/output
I1128 09:18:11.255748 27275 net.cpp:477] inception_4c/output <- inception_4c/1x1
I1128 09:18:11.255753 27275 net.cpp:477] inception_4c/output <- inception_4c/3x3
I1128 09:18:11.255755 27275 net.cpp:477] inception_4c/output <- inception_4c/5x5
I1128 09:18:11.255761 27275 net.cpp:477] inception_4c/output <- inception_4c/pool_proj
I1128 09:18:11.255765 27275 net.cpp:433] inception_4c/output -> inception_4c/output
I1128 09:18:11.255785 27275 net.cpp:155] Setting up inception_4c/output
I1128 09:18:11.255792 27275 net.cpp:163] Top shape: 32 512 14 14 (3211264)
I1128 09:18:11.255795 27275 layer_factory.hpp:76] Creating layer inception_4c/output_inception_4c/output_0_split
I1128 09:18:11.255803 27275 net.cpp:110] Creating Layer inception_4c/output_inception_4c/output_0_split
I1128 09:18:11.255808 27275 net.cpp:477] inception_4c/output_inception_4c/output_0_split <- inception_4c/output
I1128 09:18:11.255813 27275 net.cpp:433] inception_4c/output_inception_4c/output_0_split -> inception_4c/output_inception_4c/output_0_split_0
I1128 09:18:11.255821 27275 net.cpp:433] inception_4c/output_inception_4c/output_0_split -> inception_4c/output_inception_4c/output_0_split_1
I1128 09:18:11.255828 27275 net.cpp:433] inception_4c/output_inception_4c/output_0_split -> inception_4c/output_inception_4c/output_0_split_2
I1128 09:18:11.255834 27275 net.cpp:433] inception_4c/output_inception_4c/output_0_split -> inception_4c/output_inception_4c/output_0_split_3
I1128 09:18:11.255879 27275 net.cpp:155] Setting up inception_4c/output_inception_4c/output_0_split
I1128 09:18:11.255887 27275 net.cpp:163] Top shape: 32 512 14 14 (3211264)
I1128 09:18:11.255892 27275 net.cpp:163] Top shape: 32 512 14 14 (3211264)
I1128 09:18:11.255894 27275 net.cpp:163] Top shape: 32 512 14 14 (3211264)
I1128 09:18:11.255897 27275 net.cpp:163] Top shape: 32 512 14 14 (3211264)
I1128 09:18:11.255900 27275 layer_factory.hpp:76] Creating layer inception_4d/1x1
I1128 09:18:11.255910 27275 net.cpp:110] Creating Layer inception_4d/1x1
I1128 09:18:11.255915 27275 net.cpp:477] inception_4d/1x1 <- inception_4c/output_inception_4c/output_0_split_0
I1128 09:18:11.255921 27275 net.cpp:433] inception_4d/1x1 -> inception_4d/1x1
I1128 09:18:11.256402 27275 net.cpp:155] Setting up inception_4d/1x1
I1128 09:18:11.256410 27275 net.cpp:163] Top shape: 32 112 14 14 (702464)
I1128 09:18:11.256417 27275 layer_factory.hpp:76] Creating layer inception_4d/relu_1x1
I1128 09:18:11.256422 27275 net.cpp:110] Creating Layer inception_4d/relu_1x1
I1128 09:18:11.256425 27275 net.cpp:477] inception_4d/relu_1x1 <- inception_4d/1x1
I1128 09:18:11.256433 27275 net.cpp:419] inception_4d/relu_1x1 -> inception_4d/1x1 (in-place)
I1128 09:18:11.256439 27275 net.cpp:155] Setting up inception_4d/relu_1x1
I1128 09:18:11.256444 27275 net.cpp:163] Top shape: 32 112 14 14 (702464)
I1128 09:18:11.256448 27275 layer_factory.hpp:76] Creating layer inception_4d/3x3_reduce
I1128 09:18:11.256454 27275 net.cpp:110] Creating Layer inception_4d/3x3_reduce
I1128 09:18:11.256458 27275 net.cpp:477] inception_4d/3x3_reduce <- inception_4c/output_inception_4c/output_0_split_1
I1128 09:18:11.256463 27275 net.cpp:433] inception_4d/3x3_reduce -> inception_4d/3x3_reduce
I1128 09:18:11.257035 27275 net.cpp:155] Setting up inception_4d/3x3_reduce
I1128 09:18:11.257045 27275 net.cpp:163] Top shape: 32 144 14 14 (903168)
I1128 09:18:11.257050 27275 layer_factory.hpp:76] Creating layer inception_4d/relu_3x3_reduce
I1128 09:18:11.257055 27275 net.cpp:110] Creating Layer inception_4d/relu_3x3_reduce
I1128 09:18:11.257057 27275 net.cpp:477] inception_4d/relu_3x3_reduce <- inception_4d/3x3_reduce
I1128 09:18:11.257062 27275 net.cpp:419] inception_4d/relu_3x3_reduce -> inception_4d/3x3_reduce (in-place)
I1128 09:18:11.257067 27275 net.cpp:155] Setting up inception_4d/relu_3x3_reduce
I1128 09:18:11.257071 27275 net.cpp:163] Top shape: 32 144 14 14 (903168)
I1128 09:18:11.257074 27275 layer_factory.hpp:76] Creating layer inception_4d/3x3
I1128 09:18:11.257081 27275 net.cpp:110] Creating Layer inception_4d/3x3
I1128 09:18:11.257086 27275 net.cpp:477] inception_4d/3x3 <- inception_4d/3x3_reduce
I1128 09:18:11.257093 27275 net.cpp:433] inception_4d/3x3 -> inception_4d/3x3
I1128 09:18:11.259845 27275 net.cpp:155] Setting up inception_4d/3x3
I1128 09:18:11.259855 27275 net.cpp:163] Top shape: 32 288 14 14 (1806336)
I1128 09:18:11.259874 27275 layer_factory.hpp:76] Creating layer inception_4d/relu_3x3
I1128 09:18:11.259879 27275 net.cpp:110] Creating Layer inception_4d/relu_3x3
I1128 09:18:11.259882 27275 net.cpp:477] inception_4d/relu_3x3 <- inception_4d/3x3
I1128 09:18:11.259887 27275 net.cpp:419] inception_4d/relu_3x3 -> inception_4d/3x3 (in-place)
I1128 09:18:11.259893 27275 net.cpp:155] Setting up inception_4d/relu_3x3
I1128 09:18:11.259897 27275 net.cpp:163] Top shape: 32 288 14 14 (1806336)
I1128 09:18:11.259901 27275 layer_factory.hpp:76] Creating layer inception_4d/5x5_reduce
I1128 09:18:11.259910 27275 net.cpp:110] Creating Layer inception_4d/5x5_reduce
I1128 09:18:11.259914 27275 net.cpp:477] inception_4d/5x5_reduce <- inception_4c/output_inception_4c/output_0_split_2
I1128 09:18:11.259920 27275 net.cpp:433] inception_4d/5x5_reduce -> inception_4d/5x5_reduce
I1128 09:18:11.266084 27275 net.cpp:155] Setting up inception_4d/5x5_reduce
I1128 09:18:11.266101 27275 net.cpp:163] Top shape: 32 32 14 14 (200704)
I1128 09:18:11.266108 27275 layer_factory.hpp:76] Creating layer inception_4d/relu_5x5_reduce
I1128 09:18:11.266116 27275 net.cpp:110] Creating Layer inception_4d/relu_5x5_reduce
I1128 09:18:11.266125 27275 net.cpp:477] inception_4d/relu_5x5_reduce <- inception_4d/5x5_reduce
I1128 09:18:11.266130 27275 net.cpp:419] inception_4d/relu_5x5_reduce -> inception_4d/5x5_reduce (in-place)
I1128 09:18:11.266139 27275 net.cpp:155] Setting up inception_4d/relu_5x5_reduce
I1128 09:18:11.266144 27275 net.cpp:163] Top shape: 32 32 14 14 (200704)
I1128 09:18:11.266147 27275 layer_factory.hpp:76] Creating layer inception_4d/5x5
I1128 09:18:11.266155 27275 net.cpp:110] Creating Layer inception_4d/5x5
I1128 09:18:11.266157 27275 net.cpp:477] inception_4d/5x5 <- inception_4d/5x5_reduce
I1128 09:18:11.266165 27275 net.cpp:433] inception_4d/5x5 -> inception_4d/5x5
I1128 09:18:11.266623 27275 net.cpp:155] Setting up inception_4d/5x5
I1128 09:18:11.266631 27275 net.cpp:163] Top shape: 32 64 14 14 (401408)
I1128 09:18:11.266638 27275 layer_factory.hpp:76] Creating layer inception_4d/relu_5x5
I1128 09:18:11.266643 27275 net.cpp:110] Creating Layer inception_4d/relu_5x5
I1128 09:18:11.266646 27275 net.cpp:477] inception_4d/relu_5x5 <- inception_4d/5x5
I1128 09:18:11.266652 27275 net.cpp:419] inception_4d/relu_5x5 -> inception_4d/5x5 (in-place)
I1128 09:18:11.266657 27275 net.cpp:155] Setting up inception_4d/relu_5x5
I1128 09:18:11.266661 27275 net.cpp:163] Top shape: 32 64 14 14 (401408)
I1128 09:18:11.266664 27275 layer_factory.hpp:76] Creating layer inception_4d/pool
I1128 09:18:11.266669 27275 net.cpp:110] Creating Layer inception_4d/pool
I1128 09:18:11.266672 27275 net.cpp:477] inception_4d/pool <- inception_4c/output_inception_4c/output_0_split_3
I1128 09:18:11.266677 27275 net.cpp:433] inception_4d/pool -> inception_4d/pool
I1128 09:18:11.266710 27275 net.cpp:155] Setting up inception_4d/pool
I1128 09:18:11.266718 27275 net.cpp:163] Top shape: 32 512 14 14 (3211264)
I1128 09:18:11.266721 27275 layer_factory.hpp:76] Creating layer inception_4d/pool_proj
I1128 09:18:11.266728 27275 net.cpp:110] Creating Layer inception_4d/pool_proj
I1128 09:18:11.266732 27275 net.cpp:477] inception_4d/pool_proj <- inception_4d/pool
I1128 09:18:11.266738 27275 net.cpp:433] inception_4d/pool_proj -> inception_4d/pool_proj
I1128 09:18:11.267076 27275 net.cpp:155] Setting up inception_4d/pool_proj
I1128 09:18:11.267083 27275 net.cpp:163] Top shape: 32 64 14 14 (401408)
I1128 09:18:11.267089 27275 layer_factory.hpp:76] Creating layer inception_4d/relu_pool_proj
I1128 09:18:11.267094 27275 net.cpp:110] Creating Layer inception_4d/relu_pool_proj
I1128 09:18:11.267097 27275 net.cpp:477] inception_4d/relu_pool_proj <- inception_4d/pool_proj
I1128 09:18:11.267103 27275 net.cpp:419] inception_4d/relu_pool_proj -> inception_4d/pool_proj (in-place)
I1128 09:18:11.267108 27275 net.cpp:155] Setting up inception_4d/relu_pool_proj
I1128 09:18:11.267112 27275 net.cpp:163] Top shape: 32 64 14 14 (401408)
I1128 09:18:11.267115 27275 layer_factory.hpp:76] Creating layer inception_4d/output
I1128 09:18:11.267119 27275 net.cpp:110] Creating Layer inception_4d/output
I1128 09:18:11.267122 27275 net.cpp:477] inception_4d/output <- inception_4d/1x1
I1128 09:18:11.267127 27275 net.cpp:477] inception_4d/output <- inception_4d/3x3
I1128 09:18:11.267130 27275 net.cpp:477] inception_4d/output <- inception_4d/5x5
I1128 09:18:11.267133 27275 net.cpp:477] inception_4d/output <- inception_4d/pool_proj
I1128 09:18:11.267138 27275 net.cpp:433] inception_4d/output -> inception_4d/output
I1128 09:18:11.267156 27275 net.cpp:155] Setting up inception_4d/output
I1128 09:18:11.267163 27275 net.cpp:163] Top shape: 32 528 14 14 (3311616)
I1128 09:18:11.267168 27275 layer_factory.hpp:76] Creating layer inception_4d/output_inception_4d/output_0_split
I1128 09:18:11.267174 27275 net.cpp:110] Creating Layer inception_4d/output_inception_4d/output_0_split
I1128 09:18:11.267177 27275 net.cpp:477] inception_4d/output_inception_4d/output_0_split <- inception_4d/output
I1128 09:18:11.267182 27275 net.cpp:433] inception_4d/output_inception_4d/output_0_split -> inception_4d/output_inception_4d/output_0_split_0
I1128 09:18:11.267189 27275 net.cpp:433] inception_4d/output_inception_4d/output_0_split -> inception_4d/output_inception_4d/output_0_split_1
I1128 09:18:11.267194 27275 net.cpp:433] inception_4d/output_inception_4d/output_0_split -> inception_4d/output_inception_4d/output_0_split_2
I1128 09:18:11.267201 27275 net.cpp:433] inception_4d/output_inception_4d/output_0_split -> inception_4d/output_inception_4d/output_0_split_3
I1128 09:18:11.267206 27275 net.cpp:433] inception_4d/output_inception_4d/output_0_split -> inception_4d/output_inception_4d/output_0_split_4
I1128 09:18:11.267257 27275 net.cpp:155] Setting up inception_4d/output_inception_4d/output_0_split
I1128 09:18:11.267264 27275 net.cpp:163] Top shape: 32 528 14 14 (3311616)
I1128 09:18:11.267268 27275 net.cpp:163] Top shape: 32 528 14 14 (3311616)
I1128 09:18:11.267271 27275 net.cpp:163] Top shape: 32 528 14 14 (3311616)
I1128 09:18:11.267274 27275 net.cpp:163] Top shape: 32 528 14 14 (3311616)
I1128 09:18:11.267277 27275 net.cpp:163] Top shape: 32 528 14 14 (3311616)
I1128 09:18:11.267280 27275 layer_factory.hpp:76] Creating layer loss2/ave_pool
I1128 09:18:11.267284 27275 net.cpp:110] Creating Layer loss2/ave_pool
I1128 09:18:11.267288 27275 net.cpp:477] loss2/ave_pool <- inception_4d/output_inception_4d/output_0_split_0
I1128 09:18:11.267294 27275 net.cpp:433] loss2/ave_pool -> loss2/ave_pool
I1128 09:18:11.267314 27275 net.cpp:155] Setting up loss2/ave_pool
I1128 09:18:11.267321 27275 net.cpp:163] Top shape: 32 528 4 4 (270336)
I1128 09:18:11.267324 27275 layer_factory.hpp:76] Creating layer loss2/conv
I1128 09:18:11.267331 27275 net.cpp:110] Creating Layer loss2/conv
I1128 09:18:11.267335 27275 net.cpp:477] loss2/conv <- loss2/ave_pool
I1128 09:18:11.267340 27275 net.cpp:433] loss2/conv -> loss2/conv
I1128 09:18:11.268257 27275 net.cpp:155] Setting up loss2/conv
I1128 09:18:11.268267 27275 net.cpp:163] Top shape: 32 128 4 4 (65536)
I1128 09:18:11.268273 27275 layer_factory.hpp:76] Creating layer loss2/relu_conv
I1128 09:18:11.268278 27275 net.cpp:110] Creating Layer loss2/relu_conv
I1128 09:18:11.268281 27275 net.cpp:477] loss2/relu_conv <- loss2/conv
I1128 09:18:11.268286 27275 net.cpp:419] loss2/relu_conv -> loss2/conv (in-place)
I1128 09:18:11.268292 27275 net.cpp:155] Setting up loss2/relu_conv
I1128 09:18:11.268296 27275 net.cpp:163] Top shape: 32 128 4 4 (65536)
I1128 09:18:11.268298 27275 layer_factory.hpp:76] Creating layer loss2/fc
I1128 09:18:11.268306 27275 net.cpp:110] Creating Layer loss2/fc
I1128 09:18:11.268308 27275 net.cpp:477] loss2/fc <- loss2/conv
I1128 09:18:11.268314 27275 net.cpp:433] loss2/fc -> loss2/fc
I1128 09:18:11.274086 27280 blocking_queue.cpp:50] Waiting for data
I1128 09:18:11.282274 27275 net.cpp:155] Setting up loss2/fc
I1128 09:18:11.282292 27275 net.cpp:163] Top shape: 32 1024 (32768)
I1128 09:18:11.282301 27275 layer_factory.hpp:76] Creating layer loss2/relu_fc
I1128 09:18:11.282322 27275 net.cpp:110] Creating Layer loss2/relu_fc
I1128 09:18:11.282327 27275 net.cpp:477] loss2/relu_fc <- loss2/fc
I1128 09:18:11.282335 27275 net.cpp:419] loss2/relu_fc -> loss2/fc (in-place)
I1128 09:18:11.282346 27275 net.cpp:155] Setting up loss2/relu_fc
I1128 09:18:11.282348 27275 net.cpp:163] Top shape: 32 1024 (32768)
I1128 09:18:11.282351 27275 layer_factory.hpp:76] Creating layer loss2/drop_fc
I1128 09:18:11.282357 27275 net.cpp:110] Creating Layer loss2/drop_fc
I1128 09:18:11.282361 27275 net.cpp:477] loss2/drop_fc <- loss2/fc
I1128 09:18:11.282366 27275 net.cpp:419] loss2/drop_fc -> loss2/fc (in-place)
I1128 09:18:11.282389 27275 net.cpp:155] Setting up loss2/drop_fc
I1128 09:18:11.282397 27275 net.cpp:163] Top shape: 32 1024 (32768)
I1128 09:18:11.282399 27275 layer_factory.hpp:76] Creating layer loss2/classifier
I1128 09:18:11.282407 27275 net.cpp:110] Creating Layer loss2/classifier
I1128 09:18:11.282410 27275 net.cpp:477] loss2/classifier <- loss2/fc
I1128 09:18:11.282416 27275 net.cpp:433] loss2/classifier -> loss2/classifier
I1128 09:18:11.289415 27275 net.cpp:155] Setting up loss2/classifier
I1128 09:18:11.289433 27275 net.cpp:163] Top shape: 32 1000 (32000)
I1128 09:18:11.289440 27275 layer_factory.hpp:76] Creating layer loss2/loss
I1128 09:18:11.289448 27275 net.cpp:110] Creating Layer loss2/loss
I1128 09:18:11.289453 27275 net.cpp:477] loss2/loss <- loss2/classifier
I1128 09:18:11.289458 27275 net.cpp:477] loss2/loss <- label_data_1_split_1
I1128 09:18:11.289464 27275 net.cpp:433] loss2/loss -> loss2/loss1
I1128 09:18:11.289474 27275 layer_factory.hpp:76] Creating layer loss2/loss
I1128 09:18:11.289917 27275 net.cpp:155] Setting up loss2/loss
I1128 09:18:11.289927 27275 net.cpp:163] Top shape: (1)
I1128 09:18:11.289929 27275 net.cpp:168]     with loss weight 0.3
I1128 09:18:11.289943 27275 layer_factory.hpp:76] Creating layer inception_4e/1x1
I1128 09:18:11.289955 27275 net.cpp:110] Creating Layer inception_4e/1x1
I1128 09:18:11.289962 27275 net.cpp:477] inception_4e/1x1 <- inception_4d/output_inception_4d/output_0_split_1
I1128 09:18:11.289968 27275 net.cpp:433] inception_4e/1x1 -> inception_4e/1x1
I1128 09:18:11.290882 27275 net.cpp:155] Setting up inception_4e/1x1
I1128 09:18:11.290891 27275 net.cpp:163] Top shape: 32 256 14 14 (1605632)
I1128 09:18:11.290897 27275 layer_factory.hpp:76] Creating layer inception_4e/relu_1x1
I1128 09:18:11.290904 27275 net.cpp:110] Creating Layer inception_4e/relu_1x1
I1128 09:18:11.290906 27275 net.cpp:477] inception_4e/relu_1x1 <- inception_4e/1x1
I1128 09:18:11.290911 27275 net.cpp:419] inception_4e/relu_1x1 -> inception_4e/1x1 (in-place)
I1128 09:18:11.290916 27275 net.cpp:155] Setting up inception_4e/relu_1x1
I1128 09:18:11.290920 27275 net.cpp:163] Top shape: 32 256 14 14 (1605632)
I1128 09:18:11.290923 27275 layer_factory.hpp:76] Creating layer inception_4e/3x3_reduce
I1128 09:18:11.290928 27275 net.cpp:110] Creating Layer inception_4e/3x3_reduce
I1128 09:18:11.290931 27275 net.cpp:477] inception_4e/3x3_reduce <- inception_4d/output_inception_4d/output_0_split_2
I1128 09:18:11.290938 27275 net.cpp:433] inception_4e/3x3_reduce -> inception_4e/3x3_reduce
I1128 09:18:11.291870 27275 net.cpp:155] Setting up inception_4e/3x3_reduce
I1128 09:18:11.291880 27275 net.cpp:163] Top shape: 32 160 14 14 (1003520)
I1128 09:18:11.291887 27275 layer_factory.hpp:76] Creating layer inception_4e/relu_3x3_reduce
I1128 09:18:11.291890 27275 net.cpp:110] Creating Layer inception_4e/relu_3x3_reduce
I1128 09:18:11.291894 27275 net.cpp:477] inception_4e/relu_3x3_reduce <- inception_4e/3x3_reduce
I1128 09:18:11.291899 27275 net.cpp:419] inception_4e/relu_3x3_reduce -> inception_4e/3x3_reduce (in-place)
I1128 09:18:11.291904 27275 net.cpp:155] Setting up inception_4e/relu_3x3_reduce
I1128 09:18:11.291908 27275 net.cpp:163] Top shape: 32 160 14 14 (1003520)
I1128 09:18:11.291911 27275 layer_factory.hpp:76] Creating layer inception_4e/3x3
I1128 09:18:11.291916 27275 net.cpp:110] Creating Layer inception_4e/3x3
I1128 09:18:11.291919 27275 net.cpp:477] inception_4e/3x3 <- inception_4e/3x3_reduce
I1128 09:18:11.291926 27275 net.cpp:433] inception_4e/3x3 -> inception_4e/3x3
I1128 09:18:11.295159 27275 net.cpp:155] Setting up inception_4e/3x3
I1128 09:18:11.295171 27275 net.cpp:163] Top shape: 32 320 14 14 (2007040)
I1128 09:18:11.295176 27275 layer_factory.hpp:76] Creating layer inception_4e/relu_3x3
I1128 09:18:11.295181 27275 net.cpp:110] Creating Layer inception_4e/relu_3x3
I1128 09:18:11.295186 27275 net.cpp:477] inception_4e/relu_3x3 <- inception_4e/3x3
I1128 09:18:11.295189 27275 net.cpp:419] inception_4e/relu_3x3 -> inception_4e/3x3 (in-place)
I1128 09:18:11.295197 27275 net.cpp:155] Setting up inception_4e/relu_3x3
I1128 09:18:11.295213 27275 net.cpp:163] Top shape: 32 320 14 14 (2007040)
I1128 09:18:11.295217 27275 layer_factory.hpp:76] Creating layer inception_4e/5x5_reduce
I1128 09:18:11.295224 27275 net.cpp:110] Creating Layer inception_4e/5x5_reduce
I1128 09:18:11.295228 27275 net.cpp:477] inception_4e/5x5_reduce <- inception_4d/output_inception_4d/output_0_split_3
I1128 09:18:11.295233 27275 net.cpp:433] inception_4e/5x5_reduce -> inception_4e/5x5_reduce
I1128 09:18:11.295490 27275 net.cpp:155] Setting up inception_4e/5x5_reduce
I1128 09:18:11.295498 27275 net.cpp:163] Top shape: 32 32 14 14 (200704)
I1128 09:18:11.295505 27275 layer_factory.hpp:76] Creating layer inception_4e/relu_5x5_reduce
I1128 09:18:11.295513 27275 net.cpp:110] Creating Layer inception_4e/relu_5x5_reduce
I1128 09:18:11.295518 27275 net.cpp:477] inception_4e/relu_5x5_reduce <- inception_4e/5x5_reduce
I1128 09:18:11.295523 27275 net.cpp:419] inception_4e/relu_5x5_reduce -> inception_4e/5x5_reduce (in-place)
I1128 09:18:11.295531 27275 net.cpp:155] Setting up inception_4e/relu_5x5_reduce
I1128 09:18:11.295534 27275 net.cpp:163] Top shape: 32 32 14 14 (200704)
I1128 09:18:11.295539 27275 layer_factory.hpp:76] Creating layer inception_4e/5x5
I1128 09:18:11.295557 27275 net.cpp:110] Creating Layer inception_4e/5x5
I1128 09:18:11.295562 27275 net.cpp:477] inception_4e/5x5 <- inception_4e/5x5_reduce
I1128 09:18:11.295567 27275 net.cpp:433] inception_4e/5x5 -> inception_4e/5x5
I1128 09:18:11.296293 27275 net.cpp:155] Setting up inception_4e/5x5
I1128 09:18:11.296303 27275 net.cpp:163] Top shape: 32 128 14 14 (802816)
I1128 09:18:11.296308 27275 layer_factory.hpp:76] Creating layer inception_4e/relu_5x5
I1128 09:18:11.296313 27275 net.cpp:110] Creating Layer inception_4e/relu_5x5
I1128 09:18:11.296316 27275 net.cpp:477] inception_4e/relu_5x5 <- inception_4e/5x5
I1128 09:18:11.296320 27275 net.cpp:419] inception_4e/relu_5x5 -> inception_4e/5x5 (in-place)
I1128 09:18:11.296325 27275 net.cpp:155] Setting up inception_4e/relu_5x5
I1128 09:18:11.296330 27275 net.cpp:163] Top shape: 32 128 14 14 (802816)
I1128 09:18:11.296345 27275 layer_factory.hpp:76] Creating layer inception_4e/pool
I1128 09:18:11.296351 27275 net.cpp:110] Creating Layer inception_4e/pool
I1128 09:18:11.296355 27275 net.cpp:477] inception_4e/pool <- inception_4d/output_inception_4d/output_0_split_4
I1128 09:18:11.296362 27275 net.cpp:433] inception_4e/pool -> inception_4e/pool
I1128 09:18:11.296396 27275 net.cpp:155] Setting up inception_4e/pool
I1128 09:18:11.296403 27275 net.cpp:163] Top shape: 32 528 14 14 (3311616)
I1128 09:18:11.296407 27275 layer_factory.hpp:76] Creating layer inception_4e/pool_proj
I1128 09:18:11.296414 27275 net.cpp:110] Creating Layer inception_4e/pool_proj
I1128 09:18:11.296419 27275 net.cpp:477] inception_4e/pool_proj <- inception_4e/pool
I1128 09:18:11.296425 27275 net.cpp:433] inception_4e/pool_proj -> inception_4e/pool_proj
I1128 09:18:11.296983 27275 net.cpp:155] Setting up inception_4e/pool_proj
I1128 09:18:11.296998 27275 net.cpp:163] Top shape: 32 128 14 14 (802816)
I1128 09:18:11.297005 27275 layer_factory.hpp:76] Creating layer inception_4e/relu_pool_proj
I1128 09:18:11.297010 27275 net.cpp:110] Creating Layer inception_4e/relu_pool_proj
I1128 09:18:11.297013 27275 net.cpp:477] inception_4e/relu_pool_proj <- inception_4e/pool_proj
I1128 09:18:11.297019 27275 net.cpp:419] inception_4e/relu_pool_proj -> inception_4e/pool_proj (in-place)
I1128 09:18:11.297024 27275 net.cpp:155] Setting up inception_4e/relu_pool_proj
I1128 09:18:11.297027 27275 net.cpp:163] Top shape: 32 128 14 14 (802816)
I1128 09:18:11.297030 27275 layer_factory.hpp:76] Creating layer inception_4e/output
I1128 09:18:11.297034 27275 net.cpp:110] Creating Layer inception_4e/output
I1128 09:18:11.297037 27275 net.cpp:477] inception_4e/output <- inception_4e/1x1
I1128 09:18:11.297041 27275 net.cpp:477] inception_4e/output <- inception_4e/3x3
I1128 09:18:11.297044 27275 net.cpp:477] inception_4e/output <- inception_4e/5x5
I1128 09:18:11.297049 27275 net.cpp:477] inception_4e/output <- inception_4e/pool_proj
I1128 09:18:11.297052 27275 net.cpp:433] inception_4e/output -> inception_4e/output
I1128 09:18:11.297075 27275 net.cpp:155] Setting up inception_4e/output
I1128 09:18:11.297082 27275 net.cpp:163] Top shape: 32 832 14 14 (5218304)
I1128 09:18:11.297086 27275 layer_factory.hpp:76] Creating layer pool4/3x3_s2
I1128 09:18:11.297091 27275 net.cpp:110] Creating Layer pool4/3x3_s2
I1128 09:18:11.297096 27275 net.cpp:477] pool4/3x3_s2 <- inception_4e/output
I1128 09:18:11.297101 27275 net.cpp:433] pool4/3x3_s2 -> pool4/3x3_s2
I1128 09:18:11.297130 27275 net.cpp:155] Setting up pool4/3x3_s2
I1128 09:18:11.297137 27275 net.cpp:163] Top shape: 32 832 7 7 (1304576)
I1128 09:18:11.297140 27275 layer_factory.hpp:76] Creating layer pool4/3x3_s2_pool4/3x3_s2_0_split
I1128 09:18:11.297147 27275 net.cpp:110] Creating Layer pool4/3x3_s2_pool4/3x3_s2_0_split
I1128 09:18:11.297149 27275 net.cpp:477] pool4/3x3_s2_pool4/3x3_s2_0_split <- pool4/3x3_s2
I1128 09:18:11.297155 27275 net.cpp:433] pool4/3x3_s2_pool4/3x3_s2_0_split -> pool4/3x3_s2_pool4/3x3_s2_0_split_0
I1128 09:18:11.297160 27275 net.cpp:433] pool4/3x3_s2_pool4/3x3_s2_0_split -> pool4/3x3_s2_pool4/3x3_s2_0_split_1
I1128 09:18:11.297166 27275 net.cpp:433] pool4/3x3_s2_pool4/3x3_s2_0_split -> pool4/3x3_s2_pool4/3x3_s2_0_split_2
I1128 09:18:11.297173 27275 net.cpp:433] pool4/3x3_s2_pool4/3x3_s2_0_split -> pool4/3x3_s2_pool4/3x3_s2_0_split_3
I1128 09:18:11.297219 27275 net.cpp:155] Setting up pool4/3x3_s2_pool4/3x3_s2_0_split
I1128 09:18:11.297225 27275 net.cpp:163] Top shape: 32 832 7 7 (1304576)
I1128 09:18:11.297229 27275 net.cpp:163] Top shape: 32 832 7 7 (1304576)
I1128 09:18:11.297232 27275 net.cpp:163] Top shape: 32 832 7 7 (1304576)
I1128 09:18:11.297235 27275 net.cpp:163] Top shape: 32 832 7 7 (1304576)
I1128 09:18:11.297238 27275 layer_factory.hpp:76] Creating layer inception_5a/1x1
I1128 09:18:11.297245 27275 net.cpp:110] Creating Layer inception_5a/1x1
I1128 09:18:11.297248 27275 net.cpp:477] inception_5a/1x1 <- pool4/3x3_s2_pool4/3x3_s2_0_split_0
I1128 09:18:11.297255 27275 net.cpp:433] inception_5a/1x1 -> inception_5a/1x1
I1128 09:18:11.298926 27275 net.cpp:155] Setting up inception_5a/1x1
I1128 09:18:11.298936 27275 net.cpp:163] Top shape: 32 256 7 7 (401408)
I1128 09:18:11.298943 27275 layer_factory.hpp:76] Creating layer inception_5a/relu_1x1
I1128 09:18:11.298948 27275 net.cpp:110] Creating Layer inception_5a/relu_1x1
I1128 09:18:11.298950 27275 net.cpp:477] inception_5a/relu_1x1 <- inception_5a/1x1
I1128 09:18:11.298956 27275 net.cpp:419] inception_5a/relu_1x1 -> inception_5a/1x1 (in-place)
I1128 09:18:11.298962 27275 net.cpp:155] Setting up inception_5a/relu_1x1
I1128 09:18:11.298966 27275 net.cpp:163] Top shape: 32 256 7 7 (401408)
I1128 09:18:11.298969 27275 layer_factory.hpp:76] Creating layer inception_5a/3x3_reduce
I1128 09:18:11.298974 27275 net.cpp:110] Creating Layer inception_5a/3x3_reduce
I1128 09:18:11.298979 27275 net.cpp:477] inception_5a/3x3_reduce <- pool4/3x3_s2_pool4/3x3_s2_0_split_1
I1128 09:18:11.298985 27275 net.cpp:433] inception_5a/3x3_reduce -> inception_5a/3x3_reduce
I1128 09:18:11.300253 27275 net.cpp:155] Setting up inception_5a/3x3_reduce
I1128 09:18:11.300263 27275 net.cpp:163] Top shape: 32 160 7 7 (250880)
I1128 09:18:11.300269 27275 layer_factory.hpp:76] Creating layer inception_5a/relu_3x3_reduce
I1128 09:18:11.300274 27275 net.cpp:110] Creating Layer inception_5a/relu_3x3_reduce
I1128 09:18:11.300277 27275 net.cpp:477] inception_5a/relu_3x3_reduce <- inception_5a/3x3_reduce
I1128 09:18:11.300285 27275 net.cpp:419] inception_5a/relu_3x3_reduce -> inception_5a/3x3_reduce (in-place)
I1128 09:18:11.300293 27275 net.cpp:155] Setting up inception_5a/relu_3x3_reduce
I1128 09:18:11.300297 27275 net.cpp:163] Top shape: 32 160 7 7 (250880)
I1128 09:18:11.300300 27275 layer_factory.hpp:76] Creating layer inception_5a/3x3
I1128 09:18:11.300307 27275 net.cpp:110] Creating Layer inception_5a/3x3
I1128 09:18:11.300310 27275 net.cpp:477] inception_5a/3x3 <- inception_5a/3x3_reduce
I1128 09:18:11.300314 27275 net.cpp:433] inception_5a/3x3 -> inception_5a/3x3
I1128 09:18:11.303607 27275 net.cpp:155] Setting up inception_5a/3x3
I1128 09:18:11.303624 27275 net.cpp:163] Top shape: 32 320 7 7 (501760)
I1128 09:18:11.303632 27275 layer_factory.hpp:76] Creating layer inception_5a/relu_3x3
I1128 09:18:11.303640 27275 net.cpp:110] Creating Layer inception_5a/relu_3x3
I1128 09:18:11.303643 27275 net.cpp:477] inception_5a/relu_3x3 <- inception_5a/3x3
I1128 09:18:11.303649 27275 net.cpp:419] inception_5a/relu_3x3 -> inception_5a/3x3 (in-place)
I1128 09:18:11.303658 27275 net.cpp:155] Setting up inception_5a/relu_3x3
I1128 09:18:11.303663 27275 net.cpp:163] Top shape: 32 320 7 7 (501760)
I1128 09:18:11.303665 27275 layer_factory.hpp:76] Creating layer inception_5a/5x5_reduce
I1128 09:18:11.303673 27275 net.cpp:110] Creating Layer inception_5a/5x5_reduce
I1128 09:18:11.303676 27275 net.cpp:477] inception_5a/5x5_reduce <- pool4/3x3_s2_pool4/3x3_s2_0_split_2
I1128 09:18:11.303683 27275 net.cpp:433] inception_5a/5x5_reduce -> inception_5a/5x5_reduce
I1128 09:18:11.303997 27275 net.cpp:155] Setting up inception_5a/5x5_reduce
I1128 09:18:11.304005 27275 net.cpp:163] Top shape: 32 32 7 7 (50176)
I1128 09:18:11.304011 27275 layer_factory.hpp:76] Creating layer inception_5a/relu_5x5_reduce
I1128 09:18:11.304015 27275 net.cpp:110] Creating Layer inception_5a/relu_5x5_reduce
I1128 09:18:11.304019 27275 net.cpp:477] inception_5a/relu_5x5_reduce <- inception_5a/5x5_reduce
I1128 09:18:11.304023 27275 net.cpp:419] inception_5a/relu_5x5_reduce -> inception_5a/5x5_reduce (in-place)
I1128 09:18:11.304028 27275 net.cpp:155] Setting up inception_5a/relu_5x5_reduce
I1128 09:18:11.304033 27275 net.cpp:163] Top shape: 32 32 7 7 (50176)
I1128 09:18:11.304035 27275 layer_factory.hpp:76] Creating layer inception_5a/5x5
I1128 09:18:11.304042 27275 net.cpp:110] Creating Layer inception_5a/5x5
I1128 09:18:11.304059 27275 net.cpp:477] inception_5a/5x5 <- inception_5a/5x5_reduce
I1128 09:18:11.304064 27275 net.cpp:433] inception_5a/5x5 -> inception_5a/5x5
I1128 09:18:11.304805 27275 net.cpp:155] Setting up inception_5a/5x5
I1128 09:18:11.304814 27275 net.cpp:163] Top shape: 32 128 7 7 (200704)
I1128 09:18:11.304819 27275 layer_factory.hpp:76] Creating layer inception_5a/relu_5x5
I1128 09:18:11.304824 27275 net.cpp:110] Creating Layer inception_5a/relu_5x5
I1128 09:18:11.304827 27275 net.cpp:477] inception_5a/relu_5x5 <- inception_5a/5x5
I1128 09:18:11.304831 27275 net.cpp:419] inception_5a/relu_5x5 -> inception_5a/5x5 (in-place)
I1128 09:18:11.304836 27275 net.cpp:155] Setting up inception_5a/relu_5x5
I1128 09:18:11.304841 27275 net.cpp:163] Top shape: 32 128 7 7 (200704)
I1128 09:18:11.304843 27275 layer_factory.hpp:76] Creating layer inception_5a/pool
I1128 09:18:11.304848 27275 net.cpp:110] Creating Layer inception_5a/pool
I1128 09:18:11.304852 27275 net.cpp:477] inception_5a/pool <- pool4/3x3_s2_pool4/3x3_s2_0_split_3
I1128 09:18:11.304855 27275 net.cpp:433] inception_5a/pool -> inception_5a/pool
I1128 09:18:11.304888 27275 net.cpp:155] Setting up inception_5a/pool
I1128 09:18:11.304896 27275 net.cpp:163] Top shape: 32 832 7 7 (1304576)
I1128 09:18:11.304899 27275 layer_factory.hpp:76] Creating layer inception_5a/pool_proj
I1128 09:18:11.304919 27275 net.cpp:110] Creating Layer inception_5a/pool_proj
I1128 09:18:11.304922 27275 net.cpp:477] inception_5a/pool_proj <- inception_5a/pool
I1128 09:18:11.304929 27275 net.cpp:433] inception_5a/pool_proj -> inception_5a/pool_proj
I1128 09:18:11.306038 27275 net.cpp:155] Setting up inception_5a/pool_proj
I1128 09:18:11.306048 27275 net.cpp:163] Top shape: 32 128 7 7 (200704)
I1128 09:18:11.306054 27275 layer_factory.hpp:76] Creating layer inception_5a/relu_pool_proj
I1128 09:18:11.306059 27275 net.cpp:110] Creating Layer inception_5a/relu_pool_proj
I1128 09:18:11.306062 27275 net.cpp:477] inception_5a/relu_pool_proj <- inception_5a/pool_proj
I1128 09:18:11.306067 27275 net.cpp:419] inception_5a/relu_pool_proj -> inception_5a/pool_proj (in-place)
I1128 09:18:11.306073 27275 net.cpp:155] Setting up inception_5a/relu_pool_proj
I1128 09:18:11.306077 27275 net.cpp:163] Top shape: 32 128 7 7 (200704)
I1128 09:18:11.306079 27275 layer_factory.hpp:76] Creating layer inception_5a/output
I1128 09:18:11.306084 27275 net.cpp:110] Creating Layer inception_5a/output
I1128 09:18:11.306087 27275 net.cpp:477] inception_5a/output <- inception_5a/1x1
I1128 09:18:11.306092 27275 net.cpp:477] inception_5a/output <- inception_5a/3x3
I1128 09:18:11.306095 27275 net.cpp:477] inception_5a/output <- inception_5a/5x5
I1128 09:18:11.306099 27275 net.cpp:477] inception_5a/output <- inception_5a/pool_proj
I1128 09:18:11.306102 27275 net.cpp:433] inception_5a/output -> inception_5a/output
I1128 09:18:11.306124 27275 net.cpp:155] Setting up inception_5a/output
I1128 09:18:11.306131 27275 net.cpp:163] Top shape: 32 832 7 7 (1304576)
I1128 09:18:11.306134 27275 layer_factory.hpp:76] Creating layer inception_5a/output_inception_5a/output_0_split
I1128 09:18:11.306139 27275 net.cpp:110] Creating Layer inception_5a/output_inception_5a/output_0_split
I1128 09:18:11.306143 27275 net.cpp:477] inception_5a/output_inception_5a/output_0_split <- inception_5a/output
I1128 09:18:11.306148 27275 net.cpp:433] inception_5a/output_inception_5a/output_0_split -> inception_5a/output_inception_5a/output_0_split_0
I1128 09:18:11.306154 27275 net.cpp:433] inception_5a/output_inception_5a/output_0_split -> inception_5a/output_inception_5a/output_0_split_1
I1128 09:18:11.306159 27275 net.cpp:433] inception_5a/output_inception_5a/output_0_split -> inception_5a/output_inception_5a/output_0_split_2
I1128 09:18:11.306166 27275 net.cpp:433] inception_5a/output_inception_5a/output_0_split -> inception_5a/output_inception_5a/output_0_split_3
I1128 09:18:11.306227 27275 net.cpp:155] Setting up inception_5a/output_inception_5a/output_0_split
I1128 09:18:11.306236 27275 net.cpp:163] Top shape: 32 832 7 7 (1304576)
I1128 09:18:11.306238 27275 net.cpp:163] Top shape: 32 832 7 7 (1304576)
I1128 09:18:11.306242 27275 net.cpp:163] Top shape: 32 832 7 7 (1304576)
I1128 09:18:11.306246 27275 net.cpp:163] Top shape: 32 832 7 7 (1304576)
I1128 09:18:11.306248 27275 layer_factory.hpp:76] Creating layer inception_5b/1x1
I1128 09:18:11.306255 27275 net.cpp:110] Creating Layer inception_5b/1x1
I1128 09:18:11.306258 27275 net.cpp:477] inception_5b/1x1 <- inception_5a/output_inception_5a/output_0_split_0
I1128 09:18:11.306265 27275 net.cpp:433] inception_5b/1x1 -> inception_5b/1x1
I1128 09:18:11.308591 27275 net.cpp:155] Setting up inception_5b/1x1
I1128 09:18:11.308601 27275 net.cpp:163] Top shape: 32 384 7 7 (602112)
I1128 09:18:11.308607 27275 layer_factory.hpp:76] Creating layer inception_5b/relu_1x1
I1128 09:18:11.308612 27275 net.cpp:110] Creating Layer inception_5b/relu_1x1
I1128 09:18:11.308615 27275 net.cpp:477] inception_5b/relu_1x1 <- inception_5b/1x1
I1128 09:18:11.308621 27275 net.cpp:419] inception_5b/relu_1x1 -> inception_5b/1x1 (in-place)
I1128 09:18:11.308627 27275 net.cpp:155] Setting up inception_5b/relu_1x1
I1128 09:18:11.308634 27275 net.cpp:163] Top shape: 32 384 7 7 (602112)
I1128 09:18:11.308636 27275 layer_factory.hpp:76] Creating layer inception_5b/3x3_reduce
I1128 09:18:11.308643 27275 net.cpp:110] Creating Layer inception_5b/3x3_reduce
I1128 09:18:11.308647 27275 net.cpp:477] inception_5b/3x3_reduce <- inception_5a/output_inception_5a/output_0_split_1
I1128 09:18:11.308652 27275 net.cpp:433] inception_5b/3x3_reduce -> inception_5b/3x3_reduce
I1128 09:18:11.310009 27275 net.cpp:155] Setting up inception_5b/3x3_reduce
I1128 09:18:11.310020 27275 net.cpp:163] Top shape: 32 192 7 7 (301056)
I1128 09:18:11.310026 27275 layer_factory.hpp:76] Creating layer inception_5b/relu_3x3_reduce
I1128 09:18:11.310032 27275 net.cpp:110] Creating Layer inception_5b/relu_3x3_reduce
I1128 09:18:11.310036 27275 net.cpp:477] inception_5b/relu_3x3_reduce <- inception_5b/3x3_reduce
I1128 09:18:11.310040 27275 net.cpp:419] inception_5b/relu_3x3_reduce -> inception_5b/3x3_reduce (in-place)
I1128 09:18:11.310046 27275 net.cpp:155] Setting up inception_5b/relu_3x3_reduce
I1128 09:18:11.310050 27275 net.cpp:163] Top shape: 32 192 7 7 (301056)
I1128 09:18:11.310053 27275 layer_factory.hpp:76] Creating layer inception_5b/3x3
I1128 09:18:11.310060 27275 net.cpp:110] Creating Layer inception_5b/3x3
I1128 09:18:11.310065 27275 net.cpp:477] inception_5b/3x3 <- inception_5b/3x3_reduce
I1128 09:18:11.310082 27275 net.cpp:433] inception_5b/3x3 -> inception_5b/3x3
I1128 09:18:11.314623 27275 net.cpp:155] Setting up inception_5b/3x3
I1128 09:18:11.314648 27275 net.cpp:163] Top shape: 32 384 7 7 (602112)
I1128 09:18:11.314656 27275 layer_factory.hpp:76] Creating layer inception_5b/relu_3x3
I1128 09:18:11.314662 27275 net.cpp:110] Creating Layer inception_5b/relu_3x3
I1128 09:18:11.314666 27275 net.cpp:477] inception_5b/relu_3x3 <- inception_5b/3x3
I1128 09:18:11.314671 27275 net.cpp:419] inception_5b/relu_3x3 -> inception_5b/3x3 (in-place)
I1128 09:18:11.314678 27275 net.cpp:155] Setting up inception_5b/relu_3x3
I1128 09:18:11.314682 27275 net.cpp:163] Top shape: 32 384 7 7 (602112)
I1128 09:18:11.314684 27275 layer_factory.hpp:76] Creating layer inception_5b/5x5_reduce
I1128 09:18:11.314694 27275 net.cpp:110] Creating Layer inception_5b/5x5_reduce
I1128 09:18:11.314702 27275 net.cpp:477] inception_5b/5x5_reduce <- inception_5a/output_inception_5a/output_0_split_2
I1128 09:18:11.314712 27275 net.cpp:433] inception_5b/5x5_reduce -> inception_5b/5x5_reduce
I1128 09:18:11.315153 27275 net.cpp:155] Setting up inception_5b/5x5_reduce
I1128 09:18:11.315165 27275 net.cpp:163] Top shape: 32 48 7 7 (75264)
I1128 09:18:11.315176 27275 layer_factory.hpp:76] Creating layer inception_5b/relu_5x5_reduce
I1128 09:18:11.315187 27275 net.cpp:110] Creating Layer inception_5b/relu_5x5_reduce
I1128 09:18:11.315191 27275 net.cpp:477] inception_5b/relu_5x5_reduce <- inception_5b/5x5_reduce
I1128 09:18:11.315196 27275 net.cpp:419] inception_5b/relu_5x5_reduce -> inception_5b/5x5_reduce (in-place)
I1128 09:18:11.315202 27275 net.cpp:155] Setting up inception_5b/relu_5x5_reduce
I1128 09:18:11.315207 27275 net.cpp:163] Top shape: 32 48 7 7 (75264)
I1128 09:18:11.315210 27275 layer_factory.hpp:76] Creating layer inception_5b/5x5
I1128 09:18:11.315218 27275 net.cpp:110] Creating Layer inception_5b/5x5
I1128 09:18:11.315222 27275 net.cpp:477] inception_5b/5x5 <- inception_5b/5x5_reduce
I1128 09:18:11.315228 27275 net.cpp:433] inception_5b/5x5 -> inception_5b/5x5
I1128 09:18:11.316267 27275 net.cpp:155] Setting up inception_5b/5x5
I1128 09:18:11.316277 27275 net.cpp:163] Top shape: 32 128 7 7 (200704)
I1128 09:18:11.316282 27275 layer_factory.hpp:76] Creating layer inception_5b/relu_5x5
I1128 09:18:11.316304 27275 net.cpp:110] Creating Layer inception_5b/relu_5x5
I1128 09:18:11.316308 27275 net.cpp:477] inception_5b/relu_5x5 <- inception_5b/5x5
I1128 09:18:11.316314 27275 net.cpp:419] inception_5b/relu_5x5 -> inception_5b/5x5 (in-place)
I1128 09:18:11.316324 27275 net.cpp:155] Setting up inception_5b/relu_5x5
I1128 09:18:11.316334 27275 net.cpp:163] Top shape: 32 128 7 7 (200704)
I1128 09:18:11.316342 27275 layer_factory.hpp:76] Creating layer inception_5b/pool
I1128 09:18:11.316354 27275 net.cpp:110] Creating Layer inception_5b/pool
I1128 09:18:11.316364 27275 net.cpp:477] inception_5b/pool <- inception_5a/output_inception_5a/output_0_split_3
I1128 09:18:11.316375 27275 net.cpp:433] inception_5b/pool -> inception_5b/pool
I1128 09:18:11.316421 27275 net.cpp:155] Setting up inception_5b/pool
I1128 09:18:11.316428 27275 net.cpp:163] Top shape: 32 832 7 7 (1304576)
I1128 09:18:11.316432 27275 layer_factory.hpp:76] Creating layer inception_5b/pool_proj
I1128 09:18:11.316442 27275 net.cpp:110] Creating Layer inception_5b/pool_proj
I1128 09:18:11.316445 27275 net.cpp:477] inception_5b/pool_proj <- inception_5b/pool
I1128 09:18:11.316452 27275 net.cpp:433] inception_5b/pool_proj -> inception_5b/pool_proj
I1128 09:18:11.317598 27275 net.cpp:155] Setting up inception_5b/pool_proj
I1128 09:18:11.317610 27275 net.cpp:163] Top shape: 32 128 7 7 (200704)
I1128 09:18:11.317616 27275 layer_factory.hpp:76] Creating layer inception_5b/relu_pool_proj
I1128 09:18:11.317622 27275 net.cpp:110] Creating Layer inception_5b/relu_pool_proj
I1128 09:18:11.317638 27275 net.cpp:477] inception_5b/relu_pool_proj <- inception_5b/pool_proj
I1128 09:18:11.317644 27275 net.cpp:419] inception_5b/relu_pool_proj -> inception_5b/pool_proj (in-place)
I1128 09:18:11.317651 27275 net.cpp:155] Setting up inception_5b/relu_pool_proj
I1128 09:18:11.317654 27275 net.cpp:163] Top shape: 32 128 7 7 (200704)
I1128 09:18:11.317657 27275 layer_factory.hpp:76] Creating layer inception_5b/output
I1128 09:18:11.317662 27275 net.cpp:110] Creating Layer inception_5b/output
I1128 09:18:11.317664 27275 net.cpp:477] inception_5b/output <- inception_5b/1x1
I1128 09:18:11.317668 27275 net.cpp:477] inception_5b/output <- inception_5b/3x3
I1128 09:18:11.317675 27275 net.cpp:477] inception_5b/output <- inception_5b/5x5
I1128 09:18:11.317679 27275 net.cpp:477] inception_5b/output <- inception_5b/pool_proj
I1128 09:18:11.317684 27275 net.cpp:433] inception_5b/output -> inception_5b/output
I1128 09:18:11.317708 27275 net.cpp:155] Setting up inception_5b/output
I1128 09:18:11.317715 27275 net.cpp:163] Top shape: 32 1024 7 7 (1605632)
I1128 09:18:11.317720 27275 layer_factory.hpp:76] Creating layer pool5/7x7_s1
I1128 09:18:11.317728 27275 net.cpp:110] Creating Layer pool5/7x7_s1
I1128 09:18:11.317730 27275 net.cpp:477] pool5/7x7_s1 <- inception_5b/output
I1128 09:18:11.317735 27275 net.cpp:433] pool5/7x7_s1 -> pool5/7x7_s1
I1128 09:18:11.317759 27275 net.cpp:155] Setting up pool5/7x7_s1
I1128 09:18:11.317766 27275 net.cpp:163] Top shape: 32 1024 1 1 (32768)
I1128 09:18:11.317770 27275 layer_factory.hpp:76] Creating layer pool5/drop_7x7_s1
I1128 09:18:11.317778 27275 net.cpp:110] Creating Layer pool5/drop_7x7_s1
I1128 09:18:11.317782 27275 net.cpp:477] pool5/drop_7x7_s1 <- pool5/7x7_s1
I1128 09:18:11.317787 27275 net.cpp:419] pool5/drop_7x7_s1 -> pool5/7x7_s1 (in-place)
I1128 09:18:11.317808 27275 net.cpp:155] Setting up pool5/drop_7x7_s1
I1128 09:18:11.317816 27275 net.cpp:163] Top shape: 32 1024 1 1 (32768)
I1128 09:18:11.317818 27275 layer_factory.hpp:76] Creating layer loss3/classifier
I1128 09:18:11.317827 27275 net.cpp:110] Creating Layer loss3/classifier
I1128 09:18:11.317831 27275 net.cpp:477] loss3/classifier <- pool5/7x7_s1
I1128 09:18:11.317837 27275 net.cpp:433] loss3/classifier -> loss3/classifier
I1128 09:18:11.324975 27275 net.cpp:155] Setting up loss3/classifier
I1128 09:18:11.324998 27275 net.cpp:163] Top shape: 32 1000 (32000)
I1128 09:18:11.325007 27275 layer_factory.hpp:76] Creating layer loss3/loss3
I1128 09:18:11.325018 27275 net.cpp:110] Creating Layer loss3/loss3
I1128 09:18:11.325024 27275 net.cpp:477] loss3/loss3 <- loss3/classifier
I1128 09:18:11.325031 27275 net.cpp:477] loss3/loss3 <- label_data_1_split_2
I1128 09:18:11.325043 27275 net.cpp:433] loss3/loss3 -> loss3/loss3
I1128 09:18:11.325057 27275 layer_factory.hpp:76] Creating layer loss3/loss3
…
